emulation/models/checkpoint/rnn/best_RNN1_ustc-tfc2016.pth (torch, 150005 bytes, 10 tensors)

len_embedding.weight f4 [1501, 10]
0.101024166 1.0090362e-05 0.962901 -1.184669 -1.928901 -0.36172733 -0.9112983 0.584327
-0.5754434 -5.9848575e-09 0.2610412 -0.14981128 0.32710868 -2.3595102e-12 2.4205409e-11 -5.4937113e-06
-0.7612847 -0.7038957 -0.36804023 2.0046604 -0.309974 0.12741077 -0.07097308 0.3689291
-7.831213e-12 -0.0974137 -0.4413987 -0.80679 0.54038054 0.014659642 0.92378396 -0.02880408
-0.9621618 0.6590754 -1.811082e-12 -0.8180921 -0.65224445 -0.73252296 1.1691676e-13 -0.6644199
0.36923045 0.69191825 0.009983343 -0.3009118 0.69341326 0.20191455 2.3036512e-06 0.42750672
-0.5469616 1.1531074 0.58089787 -0.34438956 -8.900333e-05 1.7465387e-12 0.7133651 -0.074957855
-0.51206255 0.7184497 -0.00028105435 -2.014801 0.5460645 -8.582538e-11 0.6464927 -0.0029736618
-0.6396274 -0.25599468 2.038391e-08 0.11964601 0.3286847 -1.1050366 0.33181575 0.603777
0.4265341 -1.1114364 1.4776113 0.09464241 -0.3071305 -0.47846037 1.0097668 -0.7763582
-0.8031301 -0.07024761 -0.20664063 0.15530872 -1.356038 -0.44148928 0.34831467 1.7286189e-10
-0.5173458 -0.12252257 -0.19678459 0.5045259 0.44639117 -0.80039126 -0.084895134 -0.60533816
0.12948734 0.16215582 0.0069171814 -0.26448524 0.2071911 0.19501233 -0.009436363 -1.2136492
-1.6855202 1.2257769 1.5662092e-14 -0.00105691 -0.06091287 -0.00040888385 0.19582275 0.45509523
0.0131922485 -0.17001429 0.025509464 -0.3679527 4.974431e-14 -0.20564193 -0.67344177 -0.0006113021
0.046618775 0.41492942 -0.23579076 0.045358002 -0.47606948 -0.0002586629 7.093919e-13 0.23071158
0.6019783 0.95701677 1.9441783 0.0010330923 0.3205038 0.69518137 -0.023998512 -0.018538889
-0.24327812 5.940779e-06 -0.01357868 0.41067967 -0.890028 -0.32984102 0.00030462028 -0.18930227
-5.35371e-14 -0.932343 0.121160164 0.10700186 -1.0621897 -0.26712722 0.4687275 -1.3070173
-0.50186 1.2256045 -0.27727142 -0.02151184 -1.1448588 0.05679014 1.8793305e-09 0.64287937
-0.46131557 -1.8825048e-07 0.004563403 -1.7337714 0.39091262 0.662674 -0.079851724 0.03915078
0.029192248 -2.8128164 0.17192844 -5.500871e-10 -0.03890627 2.816639e-06 -0.11577445 -0.40348446
0.31660306 9.425195e-16 8.736059e-07 1.222209 0.47011337 4.3561422e-11 -0.3424609 0.10275259
0.047139563 0.79866517 0.14992933 -0.00065837917 0.74486923 0.06832367 -1.3447192 0.7096164
-0.02688192 0.19791879 -0.29048687 0.26747522 0.42056355 -0.10519253 0.24627846 3.628818e-13
-0.05127575 -1.3166733 1.0274112 0.15974727 0.7347301 0.7447548 -0.14258727 0.7312104
-0.75641555 -0.00044873022 0.04566131 -0.4820254 0.28354612 -0.8725956 0.0020402216 0.072004296
-1.1790661 -2.12988 -0.5977523 1.4682143 0.8729451 -0.5399081 -0.23184665 1.0971732e-13
0.3470383 0.12944514 0.61536 -0.0013008817 -0.39515728 0.6674448 0.3207285 0.004982551
-0.05388023 0.30433172 -0.11633435 -0.05991693 -2.3190372e-13 0.834428 0.23545937 0.03637903
-1.0338217 -1.0988519 -1.2382914 -0.003282885 -0.13832927 0.13934763 -0.11208318 -1.3165983e-05
-0.20529154 0.4264762 -0.004766933 1.7562708 -0.7338487 -4.506853e-14 6.583331e-09 -0.6794981
00000000: c2e5 ce3d c649 2937 ae80 763f 3ca3 97bf
00000010: 3ae6 f6bf 5334 b9be d84a 69bf 7496 153f
00000020: 4250 13bf 5da3 cdb1 31a7 853e 2168 19be
00000030: ca7a a73e 2809 26ac bce9 d42d 9f56 b8b6
00000040: 8ee3 42bf 8232 34bf c56f bcbe 5b4c 0040
00000050: eab4 9ebe f877 023e 565a 91bd 46e4 bc3e
00000060: a6c4 09ad d580 c7bd 03ff e1be ca89 4ebf
00000070: 6156 0a3f ff2e 703c 1b7d 6c3f 89f6 ebbc
00000080: 3c50 76bf 2ab9 283f 1be3 feab 7c6e 51bf
00000090: 7ef9 26bf a086 3bbf f6a2 032a 6c17 2abf
000000a0: c60b bd3e 8e21 313f 2d91 233c 1d11 9abe
000000b0: 8883 313f b0c2 4e3e 6d98 1a36 29e2 da3e
000000c0: ad05 0cbf 0699 933f b9b5 143f d453 b0be
000000d0: 4da7 bab8 b0cd f52b 189f 363f 8183 99bd
000000e0: 8816 03bf 52ec 373f 7a5a 93b9 80f2 00c0
000000f0: e2ca 0b3f 65bb bcae 8c80 253f c4e1 42bb
00000100: 9fbe 23bf bc11 83be b118 af32 f808 f53d
00000110: 5c49 a83e d771 8dbf c1e3 a93e 2191 1a3f
00000120: ad62 da3e 8c43 8ebf 5e22 bd3f e1d3 c13d
00000130: 3540 9dbe c2f8 f4be 0a40 813f 69bf 46bf
00000140: ef99 4dbf fbdd 8fbd 9a99 53be 4009 1f3e
00000150: a792 adbf e20a e2be 4d56 b23e 4c10 3e2f
00000160: c670 04bf 1ded fabd e681 49be 9c28 013f
00000170: 628d e43e 71e6 4cbf 80dd adbd 71f7 1abf
00000180: 5498 043e 2d0c 263e 86a9 e23b 9c6a 87be
00000190: e729 543e 50b1 473e fa9a 1abc db58 9bbf
000001a0: 20bf d7bf 42e6 9c3f 5312 8d28 0488 8aba
000001b0: c67f 79bd 765f d6b9 c285 483e 3e02 e93e
000001c0: 4d24 583c 3a18 2ebe 39f9 d03c 4c64 bcbe
000001d0: 4907 6029 cc93 52be ae66 2cbf ca3f 20ba
000001e0: 54f3 3e3d a171 d43e 2273 71be 50c9 393d
000001f0: 61bf f3be 269d 87b9 13ad 472b a83f 6c3e
00000200: 401b 1a3f 0dff 743f d6da f83f d368 873a
00000210: 1319 a43e 68f7 313f 8798 c4bc dede 97bc
00000220: e61d 79be e756 c736 1d79 5ebc 9b44 d23e
00000230: e0d8 63bf ece0 a8be 71b5 9f39 74d8 41be
00000240: 131c 71a9 08ae 6ebf d222 f83d cb23 db3d
00000250: d5f5 87bf e6c4 88be 0dfd ef3e 584c a7bf
00000260: e679 00bf 9ce0 9c3f 85f6 8dbe 9939 b0bc
00000270: bc8a 92bf c79c 683d 8825 0131 be93 243f
00000280: 8e31 ecbe e621 4ab4 9988 953b 39ec ddbf
00000290: b325 c83e 01a5 293f 4d89 a3bd 915c 203d
000002a0: 9524 ef3c 2f05 34c0 020e 303e f034 17b0
000002b0: 2e5c 1fbd 7d05 3d36 281b edbd 8495 cebe
000002c0: cc19 a23e d5d4 8726 be81 6a35 5871 9c3f
000002d0: b3b2 f03e cd95 3f2e 0957 afbe f36f d23d
000002e0: 6a15 413d 5275 4c3f 1387 193e 1497 2cba
000002f0: c0af 3e3f 48ed 8b3d c21f acbf 6ca9 353f
00000300: 7937 dcbc 39ab 4a3e b2ba 94be 83f2 883e
00000310: 1b54 d73e 2e6f d7bd 6c30 7c3e c748 cc2a
00000320: 8506 52bd c088 a8bf 3682 833f ca94 233e
00000330: 4617 3c3f 40a8 3e3f 6602 12be 9b30 3b3f
00000340: 73a4 41bf 8d43 ebb9 5b07 3b3d 09cc f6be
00000350: f52c 913e 6d62 5fbf 3db5 053b fd76 933d
00000360: a3eb 96bf f44f 08c0 4b06 19bf 72ee bb3f
00000370: 5479 5f3f 6b37 0abf 3569 6dbe bb0f f729
00000380: 01af b13e 448d 043e 3c88 1d3f 5982 aaba
00000390: 0e52 cabe aadd 2a3f 8736 a43e ab44 a33b
000003a0: 84b1 5cbd 5ed1 9b3e b440 eebd 746b 75bd
000003b0: d98c 82aa 139d 553f 431c 713e 2e02 153d
000003c0: 4554 84bf 2ea7 8cbf 5580 9ebf ac25 57bb
000003d0: 30a6 0dbe 25b1 0e3e de8b e5bd 77e3 5cb7
000003e0: f237 52be 175b da3e ef33 9cbb 7bcd e03f
000003f0: 82dd 3bbf 7af8 4aa9 9833 e231 96f3 2dbf

ipd_embedding.weight f4 [2561, 8]
-0.1578686 0.8057674 -0.577519 -0.1041777 -0.5443951 -0.914162 -0.055992693 -1.9599012
-0.7982487 -0.21691982 1.5839157 0.45500928 -0.12869324 -0.49953142 -0.43417385 0.01710257
0.73018426 0.65474534 -0.2852292 -0.48131615 -1.3848087 -0.31667656 1.5305145 -0.10243084
-2.5687 0.07663607 -0.57392 1.1501493 0.10858738 -1.0672108 0.9768711 0.16127466
0.074414946 -0.5059581 -2.1098056 -0.41846836 -1.0226083 0.49222076 -0.94296306 0.15051271
1.469954 -0.31496957 0.5364801 -0.036956374 0.08184515 -1.4983627 -1.8095828 0.89487314
0.32111016 -1.2897369 -0.45685047 -1.5428768 -0.47354776 -0.789667 -0.53361434 -1.5129145
0.23741598 1.4970726 -0.25658935 1.4190056 -0.42681465 -0.6417455 -1.7239876 -1.7301553
0.846556 1.1964341 0.096955925 -0.14455715 0.9263797 -0.8552904 -0.5172119 0.4535555
0.35073456 0.24850956 1.1128665 0.67797285 1.8947512 -0.86705804 0.26991898 -1.5621691
1.275919 -0.61507875 -1.1781169 -1.3892686 0.30678007 0.3997069 -0.946867 -1.7926563
1.9380107 -0.7158122 -1.4096648 -0.99213004 0.9534285 0.5750622 0.25392053 -1.3924203
0.15930462 -0.7685237 1.3629322 0.2839075 -0.66551054 -2.6796339 -0.08293335 -0.395801
-0.5790138 -1.4086486 -0.96246165 1.0866159 0.43204892 -0.031818036 0.23179728 0.2671804
0.5566602 -1.2932774 0.23079982 0.36981836 -2.8730025 0.84037966 -0.616622 -1.1241448
0.79072756 0.8197321 0.6716939 -2.0597048 0.44838732 -0.21203105 -1.1906728 -0.04064485
-0.09255586 -1.6138277 -1.1355541 1.5507501 -1.1571 -1.5764565 2.2047114 -0.4213757
-0.80722785 -0.59511626 -0.7024592 -1.2205609 -1.4585555 -0.9574204 -1.0367674 0.9849334
2.3137407 0.6654405 -0.9314879 0.36440504 0.87485844 0.33351842 0.024522616 0.5459674
1.0555342 -0.9676937 0.7927197 1.9294661 0.14410616 0.50048864 0.44661206 0.4965327
-0.6712473 -0.09816605 -0.89612603 0.50828254 -0.92462724 1.0238787 0.82586336 0.7376128
0.3359978 1.6145964 0.1676427 0.6664461 -0.98951155 0.35058647 0.031810805 -0.9903033
-1.5826559 -0.37912732 -0.41269702 0.9032552 -0.14010093 -1.724697 0.46825767 -0.43969557
-0.79763705 0.70412654 -0.9066409 0.030101206 -0.22723489 -0.50631785 0.8372684 0.5602452
-0.29087257 0.1800657 -0.18429302 -0.16777728 0.6441042 -0.7830003 -0.805796 0.3666444
-1.1476005 -0.0015431378 -1.120284 0.8567466 0.90587825 0.5418366 -0.6628688 -1.1386005
0.432864 0.101350196 0.59860426 -0.35287815 0.8394824 -0.20529547 -0.26488242 -0.5981411
0.053023417 -0.020877182 1.0625085 -0.83998317 0.48969167 1.3121244 1.921303 -0.2950821
0.009429551 -0.9164526 -0.9798849 -2.5026023 0.1501159 -0.5531406 0.5815415 0.7763692
-1.0349513 -0.6492038 -0.9015186 -0.06038938 0.9149224 -0.9150993 -0.54399055 0.47059035
-0.07684581 0.22532563 1.038431 1.5116102 1.5631502 -1.015605 -0.869251 0.40193632
1.3444688 0.35715073 -1.118975 0.6811185 -0.03129346 -0.14004236 0.7169479 0.012651954
00000000: 4ea8 21be c646 4e3f 49d8 13bf 1e5b d5bd
00000010: 7a5d 0bbf 8506 6abf 9858 65bd 0bde fabf
00000020: 075a 4cbf 3b20 5ebe c0bd ca3f faf6 e83e
00000030: 29c8 03be 95c2 ffbe 094c debe b01a 8c3c
00000040: 5bed 3a3f 649d 273f 9009 92be 126f f6be
00000050: 6941 b1bf 6e23 a2be e6e7 c33f 43c7 d1bd
00000060: 9565 24c0 5ff3 9c3d 6cec 12bf 1838 933f
00000070: 0f63 de3d 5d9a 88bf 3914 7a3f 2f25 253e
00000080: dd66 983d 7886 01bf 0e07 07c0 7c41 d6be
00000090: d4e4 82bf 5c04 fc3e 0766 71bf 0120 1a3e
000000a0: 7427 bc3f b143 a1be c356 093f 915f 17bd
000000b0: 6e9e a73d 59ca bfbf 69a0 e7bf 6816 653f
000000c0: 8d68 a43e 1916 a5bf 4ee8 e9be fd7c c5bf
000000d0: da74 f2be 9e27 4abf f39a 08bf 2fa7 c1bf
000000e0: 2d1d 733e 13a0 bf3f ae5f 83be faa1 b53f
000000f0: 7387 dabe 6f49 24bf a0ab dcbf bb75 ddbf
00000100: e5b7 583f c124 993f d490 c63d ca06 14be
00000110: 3827 6d3f 50f4 5abf 0068 04bf 6d38 e83e
00000120: 7b93 b33e 4a79 7e3e 6972 8e3f a18f 2d3f
00000130: 3587 f23f 84f7 5dbf d232 8a3e 28f5 c7bf
00000140: 5051 a33f cd75 1dbf 89cc 96bf 8ed3 b1bf
00000150: 4712 9d3e 62a6 cc3e e065 72bf c375 e5bf
00000160: bc10 f83f 783f 37bf e56f b4bf 3cfc 7dbf
00000170: e413 743f 4737 133f df01 823e d43a b2bf
00000180: c020 233e f8bd 44bf 9074 ae3f 535c 913e
00000190: e65e 2abf 1f7f 2bc0 f6d8 a9bd 6ea6 cabe
000001a0: 403a 14bf 994e b4bf e363 76bf 3b16 8b3f
000001b0: 8435 dd3e a153 02bd 445c 6d3e dfcb 883e
000001c0: 4881 0e3f 1d8a a5bf ca56 6c3e d558 bd3e
000001d0: 46df 37c0 1f23 573f f0da 1dbf fae3 8fbf
000001e0: 1f6d 4a3f f7d9 513f 22f4 2b3f 34d2 03c0
000001f0: 0693 e53e ab1e 59be f767 98bf 377b 26bd
00000200: ed8d bdbd e891 cebf d659 91bf fb7e c63f
00000210: da1b 94bf 54c9 c9bf fe19 0d40 8ebe d7be
00000220: 7ca6 4ebf 8a59 18bf 5ed4 33bf 573b 9cbf
00000230: f2b1 babf 8119 75bf cbb4 84bf 9824 7c3f
00000240: 5414 1440 4f5a 2a3f fe75 6ebf 4c93 ba3e
00000250: b9f6 5f3f edc2 aa3e a7e3 c83c 85c4 0b3f
00000260: bf1b 873f c6ba 77bf aeef 4a3f bff8 f63f
00000270: 9190 133e 0620 003f 56aa e43e 8939 fe3e
00000280: ddd6 2bbf 480b c9bd 8468 65bf ce1e 023f
00000290: 5fb4 6cbf 750e 833f c86b 533f 31d4 3c3f
000002a0: e707 ac3e 18ab ce3f 87aa 2b3e 369c 2a3f
000002b0: a150 7dbf 1280 b33e 0c4c 023d 8484 7dbf
000002c0: 7894 cabf fa1c c2be 064d d3be bc3b 673f
000002d0: 9e76 0fbe dfc2 dcbf 78bf ef3e c71f e1be
000002e0: f131 4cbf a341 343f 9e19 68bf ce96 f63c
000002f0: 43b0 68be 0c9e 01bf 3957 563f 3b6c 0f3f
00000300: 40ed 94be 2563 383e 4fb7 3cbe cfcd 2bbe
00000310: 03e4 243f b572 48bf a648 4ebf d1b8 bb3e
00000320: 93e4 92bf 1d43 caba 7765 8fbf bf53 5b3f
00000330: a3e7 673f ceb5 0a3f c5b1 29bf a9bd 91bf
00000340: 5aa0 dd3e b190 cf3d 213e 193f 72ac b4be
00000350: 52e8 563f fa38 52be ab9e 87be c61f 19bf
00000360: 152f 593d a006 abbc 4700 883f 2309 57bf
00000370: deb8 fa3e b1f3 a73f 42ed f53f 0015 97be
00000380: 677e 1a3c a39c 6abf bdd9 7abf a32a 20c0
00000390: fcb7 193e 9f9a 0dbf e7df 143f 22c0 463f
000003a0: 4979 84bf 3832 26bf ecc9 66bf db5a 77bd
000003b0: 5b38 6a3f f343 6abf f742 0bbf 38f1 f03e
000003c0: 5661 9dbd c3bb 663e 4feb 843f 717c c13f
000003d0: 4e15 c83f 58ff 81bf 3c87 5ebf 99ca cd3e
000003e0: 8e17 ac3f 76dc b63e 933a 8fbf c85d 2e3f
000003f0: 922d 00bd 4467 0fbe e689 373f 244a 4f3c

rnn.x2h.weight f4 [16, 12]
-0.220926 -0.34011018 0.11953971 0.18530564 0.121338554 0.102447756 -0.30588073 0.2743494
0.2430028 -0.22707093 0.051771287 0.066330306 -0.15098388 0.13257919 0.3043446 -0.17906557
-0.2864659 -0.18036257 0.03574055 -0.2002902 -0.19417813 0.1869077 -0.11534797 0.035258897
0.009015838 -0.27546686 -0.18289898 0.16994964 0.030575491 -0.02738591 0.032980517 -0.18971501
-0.049960036 0.112284906 0.06614869 -0.08754466 0.019095158 0.123301275 0.025357837 0.24151881
0.30238187 0.15304695 0.18657345 0.16902034 -0.18971616 -0.16419598 0.124890745 0.12556365
0.3446026 0.32793972 -0.33438817 0.14820883 -0.14105213 0.09075141 0.24897169 -0.34751636
0.00529473 0.21925609 -0.14089024 -0.14979371 0.25161648 0.19963245 -0.29468796 0.13921843
0.20196709 0.06935148 0.18143605 -0.014220623 -0.006578393 0.11263999 -0.20082015 -0.12267471
0.008885902 0.2773444 -0.20927842 -0.15562813 0.20229183 0.14521722 0.049748056 -0.1060667
0.10274618 0.30838683 -0.20539127 0.07098968 -0.05831561 -0.13508202 0.014322442 -0.170009
-0.12434183 0.27795672 -0.053508144 -0.2690597 -0.022626065 -0.052915335 -0.26427928 0.06661756
0.09625664 0.2665423 0.10075346 -0.123472586 -0.0668361 0.09222438 -0.06456853 -0.21553613
-0.3011708 0.23260266 -0.37379643 0.0013183274 -0.14478536 0.22048669 0.30312842 -0.12712722
-0.08791015 -0.17054789 -0.13473369 0.16334814 -0.15054487 0.18079384 -0.1543461 0.2108952
0.020046435 -0.097552665 -0.046352915 0.13544823 -0.16479144 -0.14116979 -0.08156687 0.09383716
0.11196756 -0.17488514 0.2032189 -0.10198252 0.08212761 0.23236965 0.18845767 0.1073279
0.14003159 -0.22124767 0.10161407 -0.10582669 0.14043213 -0.29196194 -0.23790994 0.0783279
0.1597197 0.20321603 -0.3126611 -0.03480161 -0.0044652848 0.24710847 0.04451079 -0.13461496
-0.15317811 0.20027886 -0.23317076 0.062425114 0.16039419 -0.08362223 0.16818184 -0.15333879
-0.13260825 -0.024194373 0.2452328 -0.12152668 -0.13085304 -0.101858005 -0.04294271 0.0797172
-0.15576403 0.17151648 0.33340994 -0.2418156 -0.1874527 0.30372897 0.26112452 0.13582167
0.23400924 -0.05024059 -0.08786056 0.12176979 0.016625922 -0.058580115 0.1872775 0.088963345
-0.12704624 0.0077604554 0.0065146866 -0.019497765 0.045284484 -0.076853566 -0.25814945 0.22171101
00000000: 6d3a 62be ec22 aebe 3cd1 f43d c3c0 3d3e
00000010: 5980 f83d 21d0 d13d 669c 9cbe 8677 8c3e
00000020: bad5 783e 4885 68be 210e 543d 2fd8 873d
00000030: 859b 1abe d7c2 073e 0ed3 9b3e f75c 37be
00000040: a9ab 92be f7b0 38be af64 123d e018 4dbe
00000050: a2d6 46be bb64 3f3e 8e3b ecbd a26b 103d
00000060: 2ab7 133c fe09 8dbe df49 3bbe 4707 2e3e
00000070: 7479 fa3c 6a58 e0bc 9416 073d a744 42be
00000080: e5a2 4cbd a1f5 e53d f778 873d 9d4a b3bd
00000090: 736d 9c3c 6185 fc3d 3dbb cf3c b550 773e
000000a0: ccd1 9a3e 57b8 1c3e 1c0d 3f3e ab13 2d3e
000000b0: f444 42be fe22 28be b8c6 ff3d c293 003e
000000c0: c16f b03e b7e7 a73e ed34 abbe 0ec4 173e
000000d0: f86f 10be e0db b93d 6ff2 7e3e aaed b1be
000000e0: 6a7f ad3b ab84 603e 8845 10be 8663 19be
000000f0: e0d3 803e 736c 4c3e 57e1 96be 478f 0e3e
00000100: 76d0 4e3e 2608 8e3d 5fca 393e 9efd 68bc
00000110: 8f8f d7bb ccaf e63d cca3 4dbe e13c fbbd
00000120: 2d96 113c 1600 8e3e 154d 56be fb5c 1fbe
00000130: 9725 4f3e d3b3 143e 9ec4 4b3d 7f39 d9bd
00000140: 976c d23d e1e4 9d3e 1752 52be 0a63 913d
00000150: 59dc 6ebd f152 0abe ada8 6a3c d716 2ebe
00000160: eea6 febd 5850 8e3e 5b2b 5bbd 31c2 89be
00000170: 4c5a b9bc c0bd 58bd 9d4f 87be ca6e 883d
00000180: 3422 c53d 3b78 883e d457 ce3d 32df fcbd
00000190: 5de1 88bd 23e0 bc3d 813c 84bd 81b5 5cbe
000001a0: 0f33 9abe 642f 6e3e 3f62 bfbe bacb ac3a
000001b0: 9d42 14be 43c7 613e a633 9b3e a32d 02be
000001c0: 3d0a b4bd 1ba4 2ebe a1f7 09be bc44 273e
000001d0: 6f28 1abe 0522 393e e70c 1ebe e9f4 573e
000001e0: 6c38 a43c b1c9 c7bd 8edc 3dbd f1b2 0a3e
000001f0: 16bf 28be d08e 10be 880c a7bd b22d c03d
00000200: 404f e53d 1715 33be 9e18 503e 36dc d0bd
00000210: 8532 a83d 4ff2 6d3e 0cfb 403e bbce db3d
00000220: 7164 0f3e c08e 62be 0a1b d03d aabb d8bd
00000230: 71cd 0f3e 097c 95be aa9e 73be 616a a03d
00000240: 908d 233e dd17 503e 1e15 a0be 228c 0ebd
00000250: 8651 92bb 010a 7d3e f250 363d 81d8 09be
00000260: b9da 1cbe e715 4d3e 51c4 6ebe 7ab1 7f3d
00000270: 603e 243e 2242 abbd dc37 2c3e d804 1dbe
00000280: 75ca 07be 4733 c6bc 4f1e 7b3e fbe2 f8bd
00000290: 57fe 05be ee9a d0bd b2e4 2fbd c542 a33d
000002a0: 9b80 1fbe 04a2 2f3e b5b4 aa3e 829e 77be
000002b0: 9af3 3fbe 5d82 9b3e 1db2 853e d614 0b3e
000002c0: 1ea0 6f3e 14c9 4dbd 3df0 b3bd 7162 f93d
000002d0: 1633 883c b4f1 6fbd acc5 3f3e 6a32 b63d
000002e0: 6918 02be 6b4b fe3b 2779 d53b c7b9 9fbc
000002f0: 397c 393d 6765 9dbd 2a2c 84be 3608 633e

rnn.x2h.bias f4 [16]
0.12977125 -0.044280645 0.1133389 -0.12176494 0.18400244 -0.28085822 -0.22688323 0.2086573
-0.21882075 0.021155247 0.10078316 0.13795899 -0.09915559 0.059570797 0.2557576 -0.005143449
00000000: c1e2 043e 9f5f 35bd 3a1e e83d e65f f9bd
00000010: 236b 3c3e a6cc 8fbe 1454 68be 42aa 553e
00000020: 8c12 60be c54d ad3c 6767 ce3d 1f45 0d3e
00000030: 1612 cbbd 8200 743d a9f2 823e 618a a8bb

rnn.h2h.weight f4 [16, 16]
-0.12094085 0.1406048 -0.2142337 -0.09704621 -0.34486085 -0.12918858 -0.09421721 -0.053889617
-0.3240303 -0.1880719 0.10423828 0.1547421 -0.07852008 -0.27913457 -0.20361373 0.24497575
-0.0022797044 0.17618889 -0.3515392 0.09938243 0.03797165 0.054221246 -0.27853528 0.1344968
-0.12034701 0.34155166 0.088469654 0.03998119 -0.1620563 0.017001823 0.33129627 0.10333587
-0.03953811 -0.30868444 0.1732855 0.267264 0.06936575 0.073483154 0.24531437 -0.0021452743
-0.13590139 0.10760645 0.1204166 -0.20963626 0.07418428 -0.22384016 -0.3098742 -0.31392425
0.09145426 -0.32880202 -0.106808566 0.027971491 -0.03412513 -0.124802954 0.01876111 -0.15551361
0.0027570948 -0.2815164 -0.19831699 -0.1594353 0.09472907 -0.182324 -0.3266493 -0.17312516
-0.18163538 -0.025856782 0.31129017 0.014764398 -0.09953955 -0.058842815 -0.09498367 0.0033433342
0.18588832 -0.16027027 -0.061103422 0.033219993 -0.06439474 -0.14921977 -0.20554115 0.06893586
-0.054613434 -0.034546256 -0.0102755 0.1141045 0.14622284 0.27465722 0.08623861 0.1022603
0.23399796 -0.08802323 -0.30171084 0.0618681 -0.15715088 -0.045897856 -0.039293095 -0.27853832
-0.2141122 -0.09363313 0.26140887 -0.10134954 0.054637183 0.052394755 0.23079354 0.2589419
0.23354541 -0.1273201 -0.30289596 0.0050146612 0.0807143 0.041330833 -0.11498214 -0.016754365
0.14440413 0.2459139 -0.32479247 -0.021336216 -0.15975675 0.07950415 -0.26981714 0.0033808304
0.094121866 0.046848014 -0.103219494 0.15856737 -0.26466987 0.33520705 0.144582 -0.0027921796
0.08575588 0.20272057 -0.13726088 0.019784229 0.2551241 -0.12049855 -0.05323026 -0.20255814
0.29029018 -0.20324336 -0.34483385 -0.24787937 0.13164848 0.106700994 -0.020995852 -0.26745665
0.1820811 0.30924436 -0.17894518 -0.2912723 0.26450357 -0.04793912 0.008099765 0.0698077
0.04958734 0.18868452 0.094309464 0.21106938 -0.19234759 0.14389023 0.20207827 0.0902895
0.3241437 0.011676197 -0.09343167 0.16720349 -0.34535125 -0.08640978 -0.25684443 0.22260955
0.08218207 0.05508666 -0.054775495 -0.016170353 -0.33125344 0.059038717 0.2875452 -0.088589974
0.067826726 0.21715844 0.037826885 0.08862551 -0.027402604 0.09357842 -0.27843967 0.0563052
-0.116197914 0.029102013 -0.06317263 0.16336226 -0.28933474 0.28300655 0.2318891 0.32693854
-0.09044143 -0.12508078 0.110864416 -0.21222527 -0.032361023 0.1002061 0.3860162 0.09866718
0.35714677 -0.20150152 -0.11726231 -0.11610636 -0.05596438 0.11820167 0.14306408 -0.17034623
-0.06531871 -0.07813796 -0.26664817 -0.3194161 0.2898496 -0.072528645 0.12306248 0.21483856
-0.29883596 0.23606177 0.10573878 0.208886 -0.24563177 -0.016103826 -0.025478998 0.16053095
0.14812978 0.36297956 0.054815162 -0.04824574 -0.077510595 0.01684483 0.20228395 0.08047735
0.03128739 -0.07472881 0.08947126 0.1734911 -0.2690572 0.038118593 0.26240674 0.25674075
0.09873706 0.22790585 0.00029338768 -0.27209872 -0.030470012 -0.18171339 0.14478208 0.12646595
-0.048809137 0.107035056 0.07395885 0.13700946 -0.036411934 0.046129446 0.3336364 0.16536576
00000000: d6af f7bd b4fa 0f3e 1460 5bbe 2ac0 c6bd
00000010: 9a91 b0be 034a 04be f4f4 c0bd 5cbb 5cbd
00000020: 4de7 a5be ec95 40be e17a d53d b774 1e3e
00000030: 23cf a0bd baea 8ebe 1e80 50be ecda 7a3e
00000040: 1867 15bb dc6a 343e f2fc b3be 0489 cb3d
00000050: 2988 1b3d 1917 5e3d 2d9c 8ebe 87b9 093e
00000060: 7e78 f6bd dcdf ae3e 942f b53d 51c3 233d
00000070: 16f2 25be 6847 8b3c aa9f a93e c2a1 d33d
00000080: b7f2 21bd e30b 9ebe c171 313e d4d6 883e
00000090: a10f 8e3d 567e 963d b133 7b3e bb97 0cbb
000000a0: bc29 0bbe c560 dc3d fa9c f63d e3aa 56be
000000b0: eeed 973d 5b36 65be d5a7 9ebe aeba a0be
000000c0: 5f4c bb3d bd58 a8be 73be dabd 7824 e53c
000000d0: cbc6 0bbd b198 ffbd e6b0 993c f63e 1fbe
000000e0: 60b0 343b eb22 90be 9c13 4bbe 0243 23be
000000f0: 5101 c23d 25b3 3abe 943e a7be b947 31be
00000100: a0fe 39be 9ad1 d3bc 6d61 9f3e 60e6 713c
00000110: 64db cbbd 2a05 71bd cc86 c2bd d71b 5b3b
00000120: 8259 3e3e e41d 24be 9547 7abd b011 083d
00000130: 64e1 83bd 11cd 18be 6179 52be 3f2e 8d3d
00000140: 56b2 5fbd 6080 0dbd 925a 28bc 9faf e93d
00000150: 71bb 153e df9f 8c3e de9d b03d d96d d13d
00000160: 299d 6f3e 8645 b4bd d879 9abe 6869 7d3d
00000170: 29ec 20be 64ff 3bbd ccf1 20bd 939c 8ebe
00000180: 3b40 5bbe bac2 bfbd 62d7 853e 5990 cfbd
00000190: 3dcb 5f3d e29b 563d 2455 6c3e 0894 843e
000001a0: 8726 6f3e 3360 02be 2e15 9bbe 0752 a43b
000001b0: 8a4d a53d 854a 293d c27b ebbd 7340 89bc
000001c0: adde 133e dad0 7b3e 334b a6be 4ac9 aebc
000001d0: 4697 23be 12d3 a23d 7925 8abe ec90 5d3b
000001e0: f7c2 c03d b4e3 3f3d be64 d3bd 7c5f 223e
000001f0: cf82 87be 42a0 ab3e 4e0d 143e 00fd 36bb
00000200: c7a0 af3d fb95 4f3e 1e8e 0cbe 8912 a23c
00000210: a09f 823e f2c7 f6bd f907 5abd 676b 4fbe
00000220: eaa0 943e 071f 50be 108e b0be 17d4 7dbe
00000230: dcce 063e 0d86 da3d 7eff abbc 14f0 88be
00000240: 7873 3a3e 4755 9e3e 683d 37be a521 95be
00000250: 036d 873e d05b 44bd e0b4 043c 57f7 8e3d
00000260: 181c 4b3d 8436 413e 5225 c13d 9222 583e
00000270: c4f6 44be f657 133e 9bed 4e3e b4e9 b83d
00000280: 2af6 a53e 854d 3f3c 1a59 bfbd 6437 2b3e
00000290: e1d1 b0be 9cf7 b0bd 1d81 83be c2f3 633e
000002a0: 134f a83d 8da2 613d 455c 60bd b077 84bc
000002b0: 0d9a a9be 95d2 713d 2039 933e a96e b5bd
000002c0: bde8 8a3d c85e 5e3e 5df0 1a3d 4b81 b53d
000002d0: 6d7b e0bc 0ba6 bf3d a58f 8ebe 48a0 663d
000002e0: 2cf9 edbd 5867 ee3c a760 81bd 7048 273e
000002f0: af23 94be 3ce6 903e 5674 6d3e 7d64 a73e
00000300: 5b39 b9bd 2d15 00be e20c e33d 9551 59be
00000310: fe8c 04bd db38 cd3d eaa3 c53e 0512 ca3d
00000320: f1db b63e 6a56 4ebe 3927 f0bd 2cc9 edbd
00000330: e83a 65bd b813 f23d 647f 123e 3e6f 2ebe
00000340: d1c5 85bd cb06 a0bd 1c86 88be 828a a3be
00000350: 2b67 943e e689 94bd 2e08 fc3d a4fe 5b3e
00000360: 0701 99be 2dba 713e 938d d83d 36e6 553e
00000370: e586 7bbe 2cec 83bc 55b9 d0bc 3a62 243e
00000380: 55af 173e 75d8 b93e dd85 603d 539d 45bd
00000390: e0bd 9ebd 2bfe 893c 8623 4f3e 4fd1 a43d
000003a0: 3527 003d 6b0b 99bd b53c b73d a7a7 313e
000003b0: dec1 89be 3e22 1c3d 2d5a 863e 8673 833e
000003c0: a836 ca3d 2760 693e d4d1 9939 8650 8bbe
000003d0: 3f9c f9bc 1313 3abe c141 143e 4a80 013e
000003e0: 17ec 47bd 3235 db3d bd77 973d 354c 0c3e
000003f0: ae24 15bd 3bf2 3c3d 64d2 aa3e a455 293e

rnn.h2h.bias f4 [16]
0.1843437 0.32771862 -0.29011476 -0.24017216 0.21671423 0.16966306 -0.08950531 0.34253824
-0.16180934 0.20171516 -0.09463631 0.20826362 -0.12966219 0.35003707 0.30456984 0.08780034
00000000: 98c4 3c3e bcca a73e ec89 94be b1ef 75be
00000010: 56ea 5d3e 27bc 2d3e 8f4e b7bd 2c61 af3e
00000020: 59b1 25be 6b8e 4e3e afd0 c1bd 0f43 553e
00000030: 2ac6 04be 0f38 b33e 94f0 9b3e aad0 b33d

fc1.weight f4 [12, 18]
-0.14668728 -0.21675122 0.29444045 0.055286054 -0.15002069 -0.31239265 -0.10055265 -0.058795076
0.1763553 -0.1958286 0.023573296 0.060263574 0.005022171 -0.11055847 0.099972166 0.08557123
0.093300596 0.08142431 -0.023682026 -0.17334855 0.34646776 0.1549901 -0.015359012 -0.39630482
-0.04600875 -0.14214347 0.009486708 0.16421469 0.19904764 0.04560686 -0.2812511 -0.036789086
-0.14242586 0.06094232 0.100001514 -0.13052991 0.027011476 -0.118533604 -0.39945534 0.0067667663
0.07046535 0.01576956 0.21504845 -0.28284374 -0.2906509 0.2596867 0.15007764 -0.056617387
0.07232357 0.025956642 0.07070102 -0.1133399 -0.112116255 0.07651941 -0.06682949 0.008559706
0.17963542 -0.17561775 0.30297634 0.28640205 0.24660027 -0.13275035 0.07797516 -0.053296696
0.1353086 0.20462725 0.007496352 -0.17817931 0.07563172 0.058864076 0.14761636 0.17609362
0.1617119 -0.084434636 0.23083656 0.018388348 0.03546714 0.26082426 -0.12446725 -0.06596444
0.17142968 -0.19772086 -0.2867032 0.24478896 0.08467738 0.1831904 0.18036178 0.22561176
-0.12155867 0.22240134 -0.10239199 -0.27210477 0.016434358 0.1817373 0.21769223 0.016261023
-0.17388603 -0.123115934 0.18623419 0.15207453 -0.022488302 0.18218973 -0.19392227 0.1265026
0.09532026 0.23384856 0.166815 -0.108205386 -0.18838914 -0.048324376 0.29810765 0.16893084
-0.08246177 -0.10649224 -0.44443414 0.048781663 0.13748407 -0.11235326 -0.10408853 -0.16655916
0.016908236 -0.14567165 0.1196888 -0.1290568 -0.08646104 -0.13180025 0.16090451 0.22352314
-0.25680077 0.019671699 0.10602417 0.09057963 0.44453013 0.17833544 -0.08104617 0.11300618
0.12360742 -0.040687844 0.10562152 0.056928772 0.011823239 -0.0076534804 0.069068156 -0.22157487
-0.113963574 0.12077757 0.001515078 0.0023326299 0.068258956 0.00019931595 0.35588256 0.042436022
-0.10745078 -0.035885822 0.088916436 -0.052240565 0.050921127 -0.26876488 -0.21501264 0.10051222
-0.048294704 -0.13485445 -0.26573825 -0.29061574 0.22964248 0.09331105 -0.065263644 -0.265911
-0.052168265 -0.015614725 0.17348343 -0.07415621 0.12400249 0.10674086 0.14765778 -0.09327508
-0.08120901 0.14077945 -0.12249189 -0.049784638 0.14917481 0.2994989 -0.32483113 -0.20871587
0.38479248 0.10914971 0.34711075 0.098422594 0.14525618 -0.21468493 -0.19968608 0.23362958
0.090757065 0.09884635 0.0707601 0.112101264 0.049225613 0.15408336 -0.16539103 -0.12030636
-0.00046517138 -0.15197822 0.040736906 0.1231891 -0.15449506 -0.23928608 0.10563046 -0.12161292
-0.104896106 -0.19174176 -0.14957912 -0.12902491 -0.23923971 -0.20830442 -0.15734226 -0.22484456
00000000: 3135 16be 08f4 5dbe e6c0 963e a173 623d
00000010: 069f 19be eef1 9fbe 8cee cdbd 1bd3 70bd
00000020: 7c96 343e 4b87 48be c91c c13c f0d6 763d
00000030: 0691 a43b 7b6c e2bd 35be cc3d f83f af3d
00000040: 6214 bf3d cac1 a63d cf00 c2bc 4882 31be
00000050: 3964 b13e bab5 1e3e 5ea4 7bbc 77e8 cabe
00000060: ac73 3cbd 0f8e 11be 236e 1b3c e527 283e
00000070: 25d3 4b3e 42ce 3a3d 2500 90be 27b0 16bd
00000080: 16d8 11be a79e 793d 98cd cc3d a2a9 05be
00000090: 2c47 dd3c bfc1 f2bd 6985 ccbe c0bb dd3b
000000a0: 2350 903d 2a2f 813c a935 5c3e e5d0 90be
000000b0: 32d0 94be a8f5 843e f4ad 193e a2e7 67bd
000000c0: 611e 943d 06a3 d43c b2cb 903d c01e e8bd
000000d0: 359d e5bd 35b6 9c3d e6dd 88bd 023e 0c3c
000000e0: 59f2 373e 24d5 33be b71f 9b3e 4aa3 923e
000000f0: c884 7c3e b5ef 07be 71b1 9f3d a34d 5abd
00000100: 568e 0a3e ce89 513e f5a3 f53b a374 36be
00000110: cee4 9a3d 751b 713d be28 173e e351 343e
00000120: ce97 253e 11ec acbd 6b60 6c3e 29a3 963c
00000130: fe45 113d c28a 853e b0e8 febd 5d18 87bd
00000140: 438b 2f3e 5677 4abe c3ca 92be f5a9 7a3e
00000150: 566b ad3d 4496 3b3e c2b0 383e c506 673e
00000160: c1f3 f8bd 2dbd 633e e4b2 d1bd 5151 8bbe
00000170: 59a1 863c 5819 3a3e b6ea 5e3e d635 853c
00000180: 2e0f 32be 3524 fcbd 2db4 3e3e 6db9 1b3e
00000190: 6339 b8bc f28f 3a3e 8f93 46be e689 013e
000001a0: 4537 c33d ff75 6f3e 8dd1 2a3e c99a ddbd
000001b0: 15e9 40be c8ef 45bd 91a1 983e 35fc 2c3e
000001c0: b7e1 a8bd 9b18 dabd df8c e3be 48cf 473d
000001d0: a0c8 0c3e 7719 e6bd 5e2c d5bd 7c8e 2abe
000001e0: 2483 8a3c f32a 15be 671f f53d 7727 04be
000001f0: 7c12 b1bd a5f6 06be 27c4 243e 40e3 643e
00000200: 647b 83be 8b26 a13c 3323 d93d d081 b93d
00000210: 7499 e33e 919d 363e 89fb a5bd c96f e73d
00000220: e325 fd3d 4ca8 26bd 1850 d83d 252e 693d
00000230: 42b6 413c 0cca fabb 9b73 8d3d 86e4 62be
00000240: bc65 e9bd 3b5a f73d 9595 c63a 09df 183b
00000250: 5acb 8b3d 78ff 5039 3d36 b63e 65d1 2d3d
00000260: 280f dcbd 03fd 12bd d219 b63d 34fa 55bd
00000270: ac92 503d 8d9b 89be 462c 5cbe 5ad9 cd3d
00000280: abd0 45bd 4917 0abe d80e 88be 96cb 94be
00000290: 6627 6b3e dd19 bf3d f2a8 85bd 7d25 88be
000002a0: 64ae 55bd e7d4 7fbc a4a5 313e 36df 97bd
000002b0: 04f5 fd3d f49a da3d 9a33 173e 0107 bfbd
000002c0: e950 a6bd 7d28 103e 07dd fabd faea 4bbd
000002d0: 48c1 183e eb57 993e 4450 a6be 9db9 55be
000002e0: 8503 c53e e289 df3d 80b8 b13e c991 c93d
000002f0: 09be 143e 5ed6 5bbe 827a 4cbe 983c 6f3e
00000300: d7de b93d f56f ca3d acea 903d 5995 e53d
00000310: cca0 493d 07c8 1d3e 445c 29be 2e63 f6bd
00000320: 3fe2 f3b9 2ea0 1bbe bedb 263d 914a fc3d
00000330: f433 1ebe 6907 75be c854 d83d 3210 f9bd
00000340: c5d3 d6bd f457 44be 452b 19be 1b1f 04be
00000350: 41fb 74be c14d 55be 541e 21be a73d 66be

fc1.bias f4 [12]
-0.1588441 -0.12841743 0.13182622 0.030392015 -0.07659371 0.13798462 0.13920785 -0.04809434
0.051444665 -0.2792782 -0.15929385 0.18328957
00000000: 07a8 22be dc7f 03be 74fd 063e adf8 f83c
00000010: 2add 9cbd d74b 0d3e 818c 0e3e 92fe 44bd
00000020: a4b7 523d 8dfd 8ebe ed1d 23be 43b0 3b3e

fc2.weight f4 [11, 16]
0.39864743 0.18127638 -0.3333928 -0.39218864 -0.27835703 -0.42499703 -0.33774233 0.18835247
-0.38406438 0.25546446 0.35465163 0.34674388 -0.14571346 0.14515373 0.09574614 0.116958655
0.09024869 0.004325802 0.31545815 0.3760063 0.19008331 0.25153002 0.049980745 0.017819896
0.13694884 -0.014318613 0.037048277 -0.21302944 0.105556056 -0.18365961 -0.10701039 -0.41968787
0.02296594 -0.14089032 0.3636463 0.26113695 0.25991553 0.21061157 -0.17040119 -0.27138418
0.1384986 -0.2934507 -0.33114317 -0.32305962 0.01863458 -0.30025923 -0.19367316 -0.34179458
0.061270628 -0.04160671 0.19425109 0.1341137 -0.039463595 0.15812378 0.22646001 -0.19515213
-0.07618998 -0.39448687 -0.23778428 -0.1295614 0.040342845 -0.09419649 -0.013773239 -0.159575
-0.022841718 -0.4172109 0.26336753 0.35601565 -0.054109648 0.20960814 0.024700757 -0.09607153
0.3015791 -0.10877862 -0.2619236 0.045649443 -0.039794188 -0.04946209 0.011150332 -0.36322236
-0.265884 -0.26850674 0.46296573 -0.039296404 0.10161082 0.15899237 0.30805293 -0.41491306
-0.15392078 0.04434391 0.009501842 -0.06295664 0.17738138 -0.19581003 0.0149052795 -0.22964408
-0.17270388 -0.24522395 0.1920485 0.22164945 -0.022368727 0.12507644 0.26160908 -0.34415686
-0.06884021 -0.39207968 -0.26857305 -0.09861547 0.18924642 -0.21299829 -0.020788534 -0.34516302
-0.09082125 -0.29404962 -0.003686643 0.24112049 0.21006766 0.19307688 -0.10387057 -0.009259056
0.30967808 0.023587584 0.04713477 -0.4233627 0.08380709 -0.25390592 -0.21863507 -0.2513834
-0.47290376 0.20599082 -0.16249935 -0.3286267 0.2862846 0.25000504 0.41732383 0.37325364
0.34691486 0.30952936 -0.52494955 0.18315342 0.51363975 0.37485763 0.13077214 0.16815656
-0.061173007 0.08973658 0.014793369 0.2787404 0.06750089 0.14897926 0.07428017 -0.34652358
0.25114232 -0.102715105 -0.0035514764 -0.38541165 -0.11448504 -0.33756 -0.23916386 -0.2818357
-0.038507227 -0.26979065 0.08622194 0.40457773 0.120193206 -0.04087593 -0.040498424 -0.05540104
0.09499199 0.019662354 0.026830858 -0.06943677 0.0015496846 -0.39498848 -0.13772288 -0.003862998
00000000: 841b cc3e 84a0 393e 76b2 aabe f3cc c8be
00000010: d084 8ebe 3699 d9be 90ec acbe 78df 403e
00000020: 16a4 c4be 3dcc 823e e694 b53e 6a88 b13e
00000030: e935 15be 2ea3 143e 8d16 c43d 0588 ef3d
00000040: 4ed4 b83d 75bf 8d3b bb83 a13e e683 c03e
00000050: 33a5 423e 8bc8 803e 9cb8 4c3d 08fb 913c
00000060: 513c 0c3e 9e98 6abc efbf 173d 6424 5abe
00000070: c62d d83d 4411 3cbe 4328 dbbd 54e1 d6be
00000080: 1123 bc3c 8d45 10be d92f ba3e beb3 853e
00000090: a613 853e 8faa 573e a67d 2ebe def2 8abe
000000a0: 94d2 0d3e 2c3f 96be 998b a9be 1268 a5be
000000b0: 8ca7 983c 94bb 99be 4252 46be b3ff aebe
000000c0: e9f6 7a3d cc6b 2abd c2e9 463e 1a55 093e
000000d0: 94a4 21bd 33eb 213e 22e5 673e f6d5 47be
000000e0: 7e09 9cbd 2ffa c9be b97d 73be beab 04be
000000f0: 8a3e 253d 17ea c0bd 27a9 61bc a167 23be
00000100: 8e1e bbbc ab9c d5be 1cd8 863e af47 b63e
00000110: 14a2 5dbd 84a3 563e 3e59 ca3c 26c1 c4bd
00000120: 9368 9a3e 53c7 debd da1a 86be e9fa 3a3d
00000130: 3bff 22bd c398 4abd e2af 363c 48f8 b9be
00000140: f321 88be b779 89be d809 ed3e 44f5 20bd
00000150: 5519 d03d e5ce 223e 1db9 9d3e 7c6f d4be
00000160: 699d 1dbe f6a1 353d 9dad 1b3c 69ef 80bd
00000170: 77a3 353e 6d82 48be 4635 743c d127 6bbe
00000180: 49d9 30be fd1b 7bbe 5da8 443e 13f8 623e
00000190: 9f3e b7bc 0a14 003e a0f1 853e 5435 b0be
000001a0: 19fc 8cbd abbe c8be 6882 89be e8f6 c9bd
000001b0: d0c9 413e 391c 5abe b74c aabc 35b9 b0be
000001c0: 7e00 babd ac8d 96be 9b9b 71bb 4ae8 763e
000001d0: fa1b 573e f2b5 453e 18ba d4bd 4cb3 17bc
000001e0: 208e 9e3e c03a c13c 6310 413d ffc2 d8be
000001f0: 0da3 ab3d f5ff 81be dfe1 5fbe 53b5 80be
00000200: 7120 f2be 42ef 523e 3b66 26be c241 a8be
00000210: e593 923e a900 803e 78ab d53e 1a1b bf3e
00000220: d39e b13e a27a 9e3e 1863 06bf 928c 3b3e
00000230: e57d 033f 57ed bf3e 22e9 053e 3c31 2c3e
00000240: 8c90 7abd d0c7 b73d e35f 723c 10b7 8e3e
00000250: e83d 8a3d 058e 183e 3420 983d 8a6b b1be
00000260: ba95 803e 4c5c d2bd e3bf 68bb ad54 c5be
00000270: 2277 eabd aad4 acbe 5fe7 74be c54c 90be
00000280: c1b9 1dbd 0022 8abe 2195 b03d d024 cf3e
00000290: db27 f63d 856d 27bd ade1 25bd 33ec 62bd
000002a0: 298b c23d f212 a13c 63cc db3c de34 8ebd
000002b0: c91e cb3a ee3b cabe 3a07 0dbe 5a2a 7dbb

fc2.bias f4 [11]
0.062178977 -0.034846377 -0.119613454 -0.09294549 -0.060990974 0.01896408 -0.05612396 0.00118561
-0.03691489 0.06417398 -0.36658502
00000000: 62af 7e3d 13bb 0ebd e6f7 f4bd 345a bebd
00000010: acd1 79bd 8f5a 9b3c 3de2 65bd 7866 9b3a
00000020: 1134 17bd a66d 833d 08b1 bbbe
