emulation/models/checkpoint/rnn/best_RNNTeacher_ustc-tfc2016.pth (torch, 169780 bytes, 16 tensors)

len_embedding.weight f4 [1501, 10]
00000000: 525b 0580 4c5d 0580 0c63 0580 cb59 0500
00000010: f359 0500 c95c 0580 895e 0500 4157 0500
00000020: fb57 0500 9e5d 0580 75f8 0580 ce67 0580
00000030: 9d64 0580 b75b 0580 d55a 0500 4eb8 0500
00000040: c15a 0580 e35f 0500 469f 0580 485e 0580
00000050: 0a58 0580 f35c 0580 035c 0500 145f 0500
00000060: e75b 0580 76a9 0500 dd95 0680 3d61 0500
00000070: 0363 0500 549f 0500 ed62 0580 2f58 0500
00000080: 8d5a 0580 8e63 0500 7e65 0500 b764 0580
00000090: cf5d 0500 1864 0580 3d30 0680 805d 0580
000000a0: 7b57 0500 e95a 0580 ca59 0500 806c 0500
000000b0: a357 0500 355b 0580 5e5b 0580 1a9c 0500
000000c0: 2558 0580 2c67 0580 9f7d 0580 ba66 0500
000000d0: b57c 0680 14ae 0500 3265 0500 d95b 0500
000000e0: c15a 0500 1c61 0580 e55d 0580 0a7b 0580
000000f0: b860 0580 c864 0580 c55d 0500 7458 0500
00000100: bc63 0500 9561 0500 eb60 0500 a359 0500
00000110: 0f5e 0580 32c9 0500 a457 0580 505b 0500
00000120: 4166 0580 a666 0500 745f 0500 f462 0580
00000130: 9b63 0580 fa57 0500 28aa 0500 6b5d 0580
00000140: 6065 0500 e761 0580 8461 0500 e45f 0580
00000150: c25a 0580 455a 0500 3e5f 0500 a75b 0500
00000160: f161 0500 505f 0500 4e71 0580 8a5f 0580
00000170: 005c 0580 0c63 0580 595e 0500 ec5d 0580
00000180: 4b5a 0580 fc17 0600 3d58 0500 6f59 0500
00000190: f666 0580 db5c 0580 d86e 0580 3f5e 0580
000001a0: 8362 0500 805e 0500 5a63 0500 1461 0580
000001b0: c858 0580 205d 0580 9857 0580 3f5a 0580
000001c0: 1358 0580 4c63 0580 ae61 0580 295c 0580
000001d0: 6867 0500 5272 0600 4d63 0580 0c5d 0500
000001e0: 9864 0500 2c85 0680 e08a 0580 0862 0580
000001f0: 0859 0580 bf72 0580 175e 0580 0064 0500
00000200: 9f58 0580 fe5a 0580 e85d 0500 cf78 0680
00000210: 215b 0500 fb5e 0500 fe5d 0580 b857 0500
00000220: ce97 0500 b65a 0500 8e5d 0500 2258 0500
00000230: 826b 0500 b161 0500 6986 0500 5158 0580
00000240: 3e65 0500 305b 0500 9557 0500 4d5f 0580
00000250: 2961 0500 0a5d 0580 785f 0500 15ad 0580
00000260: 7a60 0500 3d59 0580 de5f 0580 dc58 0580
00000270: 805c 0580 0b59 0580 315a 0580 d25a 0580
00000280: a662 0580 c25e 0580 7d5c 0500 7362 0580
00000290: 2362 0500 5674 0580 c565 0580 0461 0580
000002a0: 7960 0500 ef5a 0580 6361 0500 e659 0580
000002b0: 535c 0580 ae5b 0580 c368 0580 075c 0580
000002c0: 846b 0580 bd5f 0580 875e 0500 7359 0580
000002d0: 865b 0500 c85e 0500 325f 0580 4a61 0500
000002e0: cf5f 0500 af64 0500 6564 0580 955c 0580
000002f0: 4662 0500 c962 0580 675c 0500 a959 0580
00000300: 2a91 0680 4b5f 0580 1566 0580 0965 0580
00000310: 905b 0580 e45f 0580 556d 0500 d35d 0500
00000320: 4464 0580 5d5f 0500 5064 0580 665a 0500
00000330: 9b5d 0500 8e62 0500 3c60 0500 5357 0500
00000340: 985d 0500 e35c 0580 2e63 0500 b262 0500
00000350: f161 0500 3360 0500 945a 0500 2b5e 0500
00000360: b965 0500 c45e 0580 5a64 0500 8064 0580
00000370: d561 0500 5c59 0500 a30f 0600 b659 0500
00000380: 9c63 0580 1e63 0500 3779 0580 0558 0580
00000390: a35b 0500 1d72 0580 5b5e 0580 2459 0500
000003a0: 7958 0500 935f 0500 3f5a 0500 a55f 0500
000003b0: 575e 0580 bc01 0600 495b 0500 9060 0500
000003c0: 905b 0580 7558 0500 a75d 0500 dd62 0580
000003d0: 175a 0580 9164 0500 9c62 0580 8ba4 0680
000003e0: 2b5e 0500 815c 0500 b75d 0580 4c5e 0500
000003f0: 965a 0500 fe5b 0500 a55a 0500 f05b 0580
-4.91937e-40 -4.92646e-40 -4.94709e-40 4.91389e-40 4.91445e-40 -4.92463e-40 4.9309e-40 4.90478e-40
4.90739e-40 -4.92761e-40 -5.48307e-40 -4.96416e-40 -4.95271e-40 -4.92079e-40 4.91762e-40 5.25294e-40
-4.91734e-40 4.93575e-40 -5.16314e-40 -4.92999e-40 -4.9076e-40 -4.92521e-40 4.92185e-40 4.93285e-40
-4.92146e-40 5.19969e-40 -6.04774e-40 4.9406e-40 4.94696e-40 5.16334e-40 -4.94665e-40 4.90812e-40
-4.91661e-40 4.94891e-40 4.95586e-40 -4.95307e-40 4.9283e-40 -4.95084e-40 -5.68318e-40 -4.92719e-40
4.9056e-40 -4.9179e-40 4.91388e-40 4.981e-40 4.90616e-40 -4.91896e-40 -4.91954e-40 5.15176e-40
-4.90798e-40 -4.96189e-40 -5.04242e-40 4.96029e-40 -5.9575e-40 5.21625e-40 4.9548e-40 4.92126e-40
4.91734e-40 -4.94014e-40 -4.9286e-40 -5.03316e-40 -4.93874e-40 -4.95331e-40 4.92816e-40 4.90908e-40
4.94955e-40 4.94183e-40 4.93945e-40 4.91333e-40 -4.9292e-40 5.31353e-40 -4.90617e-40 4.91934e-40
-4.95859e-40 4.96001e-40 4.9342e-40 -4.94675e-40 -4.94909e-40 4.90738e-40 5.20218e-40 -4.9269e-40
4.95544e-40 -4.94298e-40 4.9416e-40 -4.93577e-40 -4.91735e-40 4.9156e-40 4.93344e-40 4.92056e-40
4.94312e-40 4.93369e-40 -4.99824e-40 -4.9345e-40 -4.92181e-40 -4.94709e-40 4.93023e-40 -4.9287e-40
-4.91568e-40 5.59617e-40 4.90831e-40 4.9126e-40 -4.96113e-40 -4.92488e-40 -4.98941e-40 -4.92987e-40
4.94517e-40 4.93078e-40 4.94818e-40 -4.94003e-40 -4.91026e-40 -4.92584e-40 -4.906e-40 -4.91552e-40
-4.90773e-40 -4.94798e-40 -4.94218e-40 -4.92238e-40 4.96273e-40 5.92023e-40 -4.948e-40 4.92556e-40
4.95264e-40 -5.98786e-40 -5.08996e-40 -4.94344e-40 -4.91116e-40 -5.0034e-40 -4.9293e-40 4.95051e-40
-4.90969e-40 -4.9182e-40 4.92865e-40 -5.94351e-40 4.91868e-40 4.9325e-40 -4.92896e-40 4.90645e-40
5.13635e-40 4.91718e-40 4.92739e-40 4.90794e-40 4.97744e-40 4.94223e-40 5.07395e-40 -4.9086e-40
4.95496e-40 4.9189e-40 4.90596e-40 -4.93365e-40 4.94032e-40 -4.92554e-40 4.93425e-40 -5.21268e-40
4.93787e-40 -4.9119e-40 -4.93568e-40 -4.91054e-40 -4.9236e-40 -4.9112e-40 -4.91532e-40 -4.91758e-40
-4.94566e-40 -4.9317e-40 4.92356e-40 -4.94494e-40 4.94382e-40 -5.00911e-40 -4.95686e-40 -4.9398e-40
4.93785e-40 -4.91798e-40 4.94113e-40 -4.91427e-40 -4.92297e-40 -4.92066e-40 -4.96759e-40 -4.9219e-40
-4.97747e-40 -4.93522e-40 4.93088e-40 -4.91266e-40 4.9201e-40 4.93179e-40 -4.93327e-40 4.94078e-40
4.93547e-40 4.95296e-40 -4.95192e-40 -4.9239e-40 4.94431e-40 -4.94615e-40 4.92325e-40 -4.91341e-40
-6.03088e-40 -4.93362e-40 -4.95798e-40 -4.95422e-40 -4.92024e-40 -4.93577e-40 4.98398e-40 4.92835e-40
-4.95146e-40 4.93387e-40 -4.95163e-40 4.91606e-40 4.92757e-40 4.94532e-40 4.937e-40 4.90504e-40
4.92753e-40 -4.92499e-40 4.94756e-40 4.94583e-40 4.94312e-40 4.93687e-40 4.91671e-40 4.92959e-40
4.95669e-40 -4.93173e-40 4.95177e-40 -4.9523e-40 4.94273e-40 4.91234e-40 5.56622e-40 4.9136e-40
-4.9491e-40 4.94734e-40 -5.02661e-40 -4.90753e-40 4.9205e-40 -5.00114e-40 -4.93026e-40 4.91155e-40
4.90915e-40 4.93463e-40 4.91552e-40 4.93488e-40 -4.9302e-40 5.51635e-40 4.91924e-40 4.93818e-40
-4.92024e-40 4.9091e-40 4.92774e-40 -4.94643e-40 -4.91496e-40 4.95254e-40 -4.94552e-40 -6.1004e-40
4.92959e-40 4.92362e-40 -4.92796e-40 4.93005e-40 4.91674e-40 4.92178e-40 4.91695e-40 -4.92158e-40

ipd_embedding.weight f4 [2561, 8]
00000000: 3534 f3be 1a03 06bf e272 c3be 9b40 dcbe
00000010: 911c b93e 9a39 373f 4c66 a7bd ea6a fdbe
00000020: 32f1 e5be b063 9bbc 247f dbbe 8ef9 07be
00000030: 9f7f 0abf 89e6 82be 0087 923e c11f fdbe
00000040: 807f 11bd 2f26 713e 1b63 e2bd c3d0 0b3f
00000050: 4e82 85be 7d78 6f3e e765 c1be 3c87 04bf
00000060: e4b8 5bbe 7bef 293e 0d09 31bd 51ad bb3c
00000070: 09ea b23d 4434 2f3e 43be 0abe de2b 46bf
00000080: fbbf 2c3e f773 843e af5d e73e 3fb5 543e
00000090: ac0c 15be 8668 103e 9f33 b53e 3e29 17bf
000000a0: 4e7b 283e ac38 ca3d 6ac7 01bf 6288 68be
000000b0: fc63 3fbf c2ba a63e 45fd f1bd 61ad e1be
000000c0: 7e8a 0b3e dde1 87bd 8196 ac3e 5054 ccbc
000000d0: 1933 12be af4e 8a3e d4ce 8dbd c80a 91bf
000000e0: 8282 a13e 0fe3 22be 8115 0f3d c0c1 84be
000000f0: 6bc6 f0be 1d53 56bd ab5c 4a3f a3a2 efbe
00000100: 8c97 df3e 00aa c5be 0db2 c6bd 2dd7 48be
00000110: 2866 0abf 8c4e 53bd b379 133f 4c70 0abf
00000120: 0b3b 5bbe 4ca4 5dbd 3aee a8be 42dc f13d
00000130: af9b 41bf 7254 20bd b7af e53e 606d 31bf
00000140: ed56 a5be 8a01 9ebe 6191 e5be b7c8 8b3e
00000150: 9d2b a5bf 4753 1e3d 7d1a 2c3e f128 cebc
00000160: 56a1 fcbe ca10 fcbe 5b21 28bf 6358 0a3d
00000170: a18d acbf aa46 e1bd 0ad7 a9bc bac7 dabe
00000180: 5af2 b6be 7b2d 9abe c4fe d23d dbcf 9cbb
00000190: 1145 4b3e 0934 193f d34d 163f 7bc5 1dbf
000001a0: 8830 32be 93e2 d1be d2e3 9dbe 17e3 f13d
000001b0: ddd3 d4be 05b2 e23e 6f44 cc3e 594e 0ebf
000001c0: 6514 acbe a788 d7be 96b1 1dbf c89e 893e
000001d0: 9f12 89bd 2dc4 af3e 737f 40bd f608 91be
000001e0: d769 10be 89e1 efbe b621 c5be f67d 03bc
000001f0: 5818 3ebe 4aa2 1e3e f885 8e3e 96ba 65be
00000200: 8fd1 d3be 0f5f cabe 29c9 06bd 0e83 92be
00000210: 6af7 6cbd acc1 893c b710 9f3e c6cc dcbe
00000220: cd41 65be 1130 aabc db27 7bbe a841 803d
00000230: c299 96be aa68 053f 4ffe 193f f229 a53d
00000240: 25c6 97ba bf5e a23d 5108 d9be 91a6 993d
00000250: 1658 8abe b9a8 2b3f 794b e93e 7956 0b3e
00000260: 7653 b9bd 24fc cd3e cc68 0bbf dd0a f0bd
00000270: 10e9 a6bd 679d a43e df2c 103f 0f28 b83d
00000280: ce6d 0bbf 13dd 2e3d e139 e6be 8dec adbe
00000290: 7277 ddbc 1440 aa3e 954b a9bc aae6 99be
000002a0: 5130 48be 75de 21bd 5bf4 7fbe 763e c8be
000002b0: 69ed 373c 1b93 c03d fb8f 873d 1c68 aebe
000002c0: 01a6 bdbe 8abb a6ba a4f6 6dbe e0fd ccbe
000002d0: cf6f d33e 83c1 753c 0283 17be c66d 47bb
000002e0: b211 04be b42b 79bc 700c 08be 41df 07bf
000002f0: 0a52 ccbd e754 06be c226 83be 2725 dbbc
00000300: 0796 d4be 0538 c23c d4b4 94be 2103 75be
00000310: 390a 0c3e a373 d4bb bd95 d4be 01c2 d23d
00000320: 2bfb 1abc 858d 223e 421c 85bd 88b2 38bc
00000330: 0d5c c8bd a96c 993d 42e3 953e 1d48 afbe
00000340: 7482 dcbc 2f8a 253e 8fce b8bd 9581 643e
00000350: a91e f1be 5fce 6c3e c5a9 c4bd 30cf 52be
00000360: 124c aabd f761 b03e aa7d ac3b ad53 49bd
00000370: e6cf 07be 4a5a f63e 87a5 293e 5f0e c3bd
00000380: 3e99 08bd a898 293e b672 77be 0581 8f3d
00000390: 7e03 65be 8317 c53e bf23 183e 2912 9abe
000003a0: f0fa ebbd f33d c5bd 645b 403b 9ab8 a6be
000003b0: a6e6 553c 9cad a93d d59b 40be 68ad 0ebf
000003c0: 0961 56be 5383 923e a6e5 d8bd 217a bdbe
000003d0: 31b4 94be 0805 033f 719f 3d3e eb23 21be
000003e0: ef5b 4e3c b89d eabb 1ada 21be 12cb 57be
000003f0: 8a19 f3bd 74cb a83e 3217 613e deba 8dbe
-0.47500768 -0.5234848 -0.38173586 -0.4301804 0.36154607 0.7157227 -0.081738085 -0.4949563
-0.4491058 -0.018968433 -0.42870438 -0.13278791 -0.54100984 -0.2556651 0.28618622 -0.4943829
-0.035521984 0.23549722 -0.11054059 0.5461542 -0.26075977 0.23385806 -0.37773058 -0.5176885
-0.21457249 0.16595261 -0.043221522 0.022909792 0.08736045 0.17109782 -0.13549142 -0.77410686
0.1687011 0.25869724 0.45188662 0.20772265 -0.14555615 0.14102373 0.35390946 -0.59047306
0.16453287 0.098740906 -0.50694907 -0.22708276 -0.7476194 0.3256436 -0.118158855 -0.4407759
0.1362705 -0.06634877 0.33708575 -0.024942547 -0.14277305 0.27013156 -0.06924215 -1.1331415
0.31544882 -0.15906928 0.034932617 -0.2592907 -0.4702638 -0.052325357 0.7904765 -0.4680377
0.4367031 -0.38606262 -0.09701929 -0.19613333 -0.5406213 -0.05158858 0.57607573 -0.540776
-0.21409242 -0.054111764 -0.32994252 0.11809589 -0.7562818 -0.039143033 0.44860622 -0.6930752
-0.32292882 -0.3086055 -0.44837478 0.2730157 -1.2903935 0.03865364 0.1680698 -0.025166007
-0.4934184 -0.4923156 -0.65675896 0.0337757 -1.3480722 -0.10999806 -0.020732421 -0.42730504
-0.35731775 -0.30112824 0.10302499 -0.0047855205 0.19850565 0.59845024 0.587125 -0.61629456
-0.17401326 -0.40993175 -0.30837876 0.11810892 -0.4156789 0.44276443 0.3989596 -0.555883
-0.3360931 -0.42096445 -0.615991 0.26878953 -0.06693005 0.34329358 -0.046996545 -0.2832715
-0.14102875 -0.46851757 -0.38502282 -0.008025637 -0.18563974 0.15491596 0.27836585 -0.22434458
-0.41370818 -0.3952565 -0.032906685 -0.28615612 -0.05785314 0.016815983 0.3106744 -0.4312498
-0.22388382 -0.020774873 -0.24526922 0.06262523 -0.29414183 0.5211283 0.6015367 0.08064641
-0.0011579437 0.07928228 -0.42389157 0.07502473 -0.2702033 0.67054325 0.45565394 0.13607205
-0.09049122 0.4023143 -0.5445678 -0.11720822 -0.08149922 0.32151338 0.5631847 0.089920156
-0.54464424 0.0426913 -0.44966033 -0.33969536 -0.027034495 0.33252013 -0.020665923 -0.30058795
-0.19549681 -0.039518792 -0.24995558 -0.39110154 0.011226037 0.09403058 0.06619259 -0.34063804
-0.37040713 -0.0012720686 -0.23238617 -0.4003744 0.4129624 0.01499975 -0.1479607 -0.003043042
-0.12897375 -0.015208174 -0.13285995 -0.53075033 -0.09976585 -0.13118325 -0.25615507 -0.026751114
-0.41520712 0.023708353 -0.2904421 -0.23926975 0.13675775 -0.0064835115 -0.4152049 0.102909096
-0.009459297 0.15874298 -0.064995304 -0.011273034 -0.09783182 0.074914284 0.29274946 -0.34234706
-0.026917674 0.16165994 -0.09023773 0.22315057 -0.47093704 0.231256 -0.096026935 -0.20586848
-0.083152905 0.3444974 0.0052640038 -0.049152065 -0.132629 0.4811576 0.1656705 -0.095242254
-0.03334927 0.1656214 -0.24164852 0.070070304 -0.22364613 0.384945 0.14857386 -0.3009198
-0.11522472 -0.096309565 0.0029351348 -0.32562715 0.013055479 0.082850665 -0.18809445 -0.55733347
-0.20935453 0.28615817 -0.10590677 -0.3700724 -0.29043725 0.5117955 0.18517853 -0.15736358
0.012595161 -0.007159915 -0.15805855 -0.21073559 -0.118701056 0.32967722 0.21981505 -0.2768163

proj.0.weight f4 [12, 18]
00000000: 2103 e43e 404e c33e 8d9e 4a3f a25b 8d3e
00000010: 8530 fcbf e6d7 883e 5a5b 7abf 313b 853f
00000020: 8ab7 ef3e 43e4 26bf 3e4c 2c3e ee82 32bf
00000030: 5d73 293f b300 f23e 108b c63f 603d 19be
00000040: 5748 573f 1b8f 4cbe 6bf1 c13e 2d95 803e
00000050: 2f03 de3c b393 6cbc f462 923e cbfb 943f
00000060: d38e 473e 3d87 2dbf 7e19 27bf 54ab acbf
00000070: ffec 3abf 3450 12bf e260 2fbf b8b2 8c3f
00000080: b6ca e4be a627 f73e 681e c43f fd6f 883f
00000090: 67f8 843e b4e7 a03e e056 0b3e e5f8 42be
000000a0: 8882 853f a82a 3fbf d7aa 0abe 976f f83f
000000b0: 5a9a 533f 7ca2 16bf 448e 9f3d 5a52 37bf
000000c0: eb5c 68bf c309 2f3f 6978 00c0 48c8 79bf
000000d0: d797 ccbe a7da 61be f1f3 91bf 9baa 30be
000000e0: f17a 893f c1f2 53be 5996 533f d7e8 c9bf
000000f0: 436e a83e e94b 00bf 8f35 ae3c ba42 07bf
00000100: d032 1ebf 9e0c a4bf 7e56 adbd 8c87 db3d
00000110: 92dc 43be 2931 373f 5fe9 f03e 25f2 e4be
00000120: 832a 3cbe f085 ca3f 8065 8dbf 431d 43be
00000130: 0475 583e 24b4 d6be d842 a1be 7461 4dbf
00000140: 333a 6fbe 6e02 6c3e 482b d13f 3746 62bf
00000150: 9728 ac3e c94c c9bf ccd6 aebe 310c b9be
00000160: 7e65 b43e eafb 51bf f559 533f 381c 733f
00000170: 0fab 5c3e a767 773f ab39 aa3c ea07 a53e
00000180: 46b0 873f 986a 6e3f 7deb f3bf c683 64bf
00000190: 2e45 b4bf 1ec3 3d3f 4f40 6c3f 0161 bcbf
000001a0: 965e 29bf dccd 78bd f169 a9bd 2a22 ea3e
000001b0: c203 b4bf 1f21 373f 260a 77bf e267 fe3f
000001c0: 45ae 5dbf 7081 733f 4fab 063f c450 09bf
000001d0: b0c8 5a3f 1644 89bf 0627 023f 5672 32be
000001e0: c2d8 dcbf c0cc 99bc 8301 553f 2a43 2fbf
000001f0: 6d1e 93be a50b c6be 4876 2fbe 1bb1 e8bd
00000200: cd4c d83e a2b7 7bbc e8f8 5fbe f8e4 d8be
00000210: d1ef e03f e2be 29bf 8deb 8e3f 8f1a 1f3d
00000220: 1cf7 553e 2adb 85bf 5323 213e 6120 0bbe
00000230: af3d 6d3e be75 4b3f a6de 65bf 5c23 f73e
00000240: e422 35be 46d1 9a3e 1f03 5fbf f472 3cbe
00000250: 94a9 9cbf a80f e6bf 8707 18bf 76eb 91be
00000260: 348e 72be b48d cc3e b502 3cbe c2c6 8cbd
00000270: a368 d5bd 01fb 073f 8103 823f 4721 f1bf
00000280: 3fb9 f0be 118e 9a3f 9a1e acbe 923e 1bbf
00000290: 2d95 5ebe cbe5 173b 73d8 753b 4c3c 81bf
000002a0: bde8 90bf b2be 53be 97d6 85bd 5fd5 9b3e
000002b0: 9bb9 6f3f 305d 57bf 3fde 883f d336 0a3f
000002c0: 6f3b 923e 6fec 47bf f01e 92be ef7b 1c40
000002d0: eb5c a0bf 0ae8 683f 5948 673e 57e6 1e3f
000002e0: 6dc8 143f 3753 213e ccc9 d63d c915 3f3f
000002f0: 74b1 7dbf 212e ca3f 6313 efbf 5395 1c3c
00000300: 1f56 e33e 5175 433f bac1 19bd 7dd0 873d
00000310: 78b2 3cbd 5891 613e f5d2 b8be ac8f ce3d
00000320: 5b38 debe 67ce 983e 4935 733f 407a ac3e
00000330: 7edc a8be 237c 34bf 1c1e e8be d5ec 35bf
00000340: b5a4 8abd ea88 33bf d781 85bf 2cba dbbf
00000350: 7017 b83e e0a4 013f 9c26 d23d a56c f23e
0.44533637 0.38145638 0.7914818 0.27608973 -1.9702307 0.26727217 -0.9779564 1.0408689
0.46819717 -0.6519205 0.16825959 -0.6973103 0.66191655 0.47266158 1.5511189 -0.14964819
0.84094757 -0.19976465 0.378795 0.25113812 0.027101127 -0.014439511 0.2859112 1.1639341
0.19488077 -0.6778448 -0.65273273 -1.3489785 -0.7301788 -0.5715363 -0.68507206 1.0992041
-0.44685906 0.48272437 1.5321779 1.0659176 0.25970766 0.31426775 0.13607359 -0.19040258
1.043046 -0.74674463 -0.13541733 1.9409055 0.82657397 -0.5884168 0.07790807 -0.71610034
-0.9076678 0.6837427 -2.0073493 -0.9757123 -0.39959595 -0.22056065 -1.140257 -0.17252581
1.0740644 -0.20698072 0.8265129 -1.5774182 0.32896623 -0.5011583 0.021265773 -0.5283619
-0.61796284 -1.281635 -0.08463763 0.10719213 -0.1912711 0.7155939 0.47053048 -0.44715992
-0.18375592 1.5822124 -1.10466 -0.19054131 0.21138388 -0.4193431 -0.3149631 -0.80226827
-0.23362045 0.23047802 1.6341333 -0.8838839 0.33624718 -1.5726558 -0.34148252 -0.36142114
0.35233682 -0.82025015 0.8255914 0.94964933 0.21549629 0.96642536 0.020779451 0.322326
1.0600669 0.931314 -1.905624 -0.8926357 -1.4083612 0.7412585 0.9228563 -1.4717103
-0.6615995 -0.060743198 -0.0827216 0.4572919 -1.4063647 0.71534914 -0.9649986 1.9875453
-0.8659404 0.9511938 0.52605146 -0.53638864 0.85462475 -1.0723903 0.50840795 -0.17426428
-1.7253649 -0.01877439 0.8320543 -0.6846186 -0.2873415 -0.3868076 -0.17134964 -0.11361905
0.42246094 -0.015363606 -0.21872294 -0.4236219 1.7573186 -0.6630689 1.1165634 0.038843688
0.20895046 -1.0457509 0.15736131 -0.1358657 0.23168062 0.79476535 -0.8979286 0.48269165
-0.17689091 0.30237788 -0.8711414 -0.18403226 -1.2239251 -1.7973528 -0.59386486 -0.28499955
-0.23687059 0.3995186 -0.18360408 -0.068738475 -0.104203485 0.53117377 1.0157319 -1.883828
-0.47016332 1.2074605 -0.33617097 -0.6064235 -0.21736594 0.0023177739 0.0037513047 -1.0096526
-1.1321026 -0.20678213 -0.065350704 0.30436227 0.93642586 -0.8412657 1.0692824 0.53989905
0.2856097 -0.78095144 -0.28539228 2.4450643 -1.2528356 0.90979064 0.22586192 0.6207022
0.58118325 0.157544 0.104877084 0.74642617 -0.99098897 1.5795327 -1.8677791 0.009557086
0.44401643 0.76350886 -0.037538268 0.06631563 -0.04606864 0.220281 -0.36098447 0.10085997
-0.4340237 0.29844972 0.9500318 0.3368702 -0.32980722 -0.7050192 -0.45335472 -0.710645
-0.067696966 -0.7013079 -1.0430249 -1.716619 0.3595538 0.50642204 0.102612704 0.47348514

proj.0.bias f4 [12]
00000000: 656e 5f3e ce6a e83d 4f86 993d 2431 653e
00000010: 7a12 3fbe 746b 34be 432a 653e 22be 973e
00000020: 7959 9ebe 8107 b5be b51b ea3d 9153 f93d
0.21819456 0.113484964 0.074963205 0.22382027 -0.18659392 -0.17619115 0.22379403 0.29637247
-0.30927637 -0.35357288 0.11431066 0.12174142

rnn.weight_ih_l0 f4 [48, 12]
00000000: abf0 c8bd ce73 e2be 6642 96be c4a4 bc3e
00000010: 4dbc 01bf 1a4f 863b b3d3 373e 46ad fc3e
00000020: 58fd 3fbe 8664 b13e aa74 ebbe f763 0d3f
00000030: ff53 b1be 1e2c eb3e 8c64 753e 63b9 cf3e
00000040: c551 bbbe 942b 903d 968e 26bc 40b0 833d
00000050: 5852 11bf 8109 083f 7f9b a6be 6a09 883e
00000060: fe8b a63c 4671 8a3c 5ef4 d43d 0c61 8d3e
00000070: 5161 9d3d 8dc1 22bd f8e7 7e3e 4c18 c03e
00000080: 156c 023f fb0d 4d3d c342 7f3e a7f9 f1bd
00000090: 4df8 b13d c19f 343e 029f df3e 1c72 c33c
000000a0: d5f2 2fbd cdd3 e1bd c470 9a3d 43cb fd3d
000000b0: 3a46 21be b8a6 e0be 0b74 963d f5c1 f33e
000000c0: 5660 343f 0f8e 47be 5a55 5c3e 7f8d 9d3e
000000d0: 63b9 b2bd dc9a 35be 5d50 66bd a0a6 df3e
000000e0: 06eb 24be 1b81 d03e 6c88 35be 4e45 93bd
000000f0: 2f3f 78bc baad a3bb d2d3 5bbd f46d 363d
00000100: 8ff5 553c 3140 263e a71a 0d3e cf1f 8d3e
00000110: b020 453d 34fe 213f 5c35 c43d 26dd 733c
00000120: e25c 62be 6cd9 3c3c e407 2c3f fbdb 28be
00000130: f07d 06be e538 ee3d cfe6 00be 3a9c 32be
00000140: fbae 1bbe 7c52 89be 0049 95be 27df 5b3e
00000150: 7323 6b3d 30fe 3b3e abc9 6c3e b489 b03e
00000160: 870c c6be 503b af3e c8fe 3dbc e9dc e43e
00000170: b04d da3c 540a ad3e 193f 58bc 0c99 06be
00000180: 97a8 4dbc 25e6 be3d 615c 48be e2fa b43e
00000190: 695e adbd a97c 993c ff03 c23c 5260 c6be
000001a0: f201 acbd 5e89 d63d 3af4 acba a72f dfbd
000001b0: 8336 193c 17c8 ddbe 3d9d 3cbb ffeb c1be
000001c0: a41e 28be 6856 dabd 9675 b2bb 21ac 9c3e
000001d0: 946c 9e3d 9a29 633e 8a7d 08be f03b ec3c
000001e0: aaa9 32bf 4fa2 163e 407b 143f d68f b6bd
000001f0: 9a82 013f a3a2 c23e 25d8 bbbe 8fbf 97be
00000200: 660c 1e3f 9e12 3ebe 9fdb 993e 8b60 edbd
00000210: 7229 853e 9623 5f3e bd21 953d f98b 9a3f
00000220: 0cd2 6abd 7b08 e03a d1a1 0f3e 07ca 3c3e
00000230: c5c6 e8be 153a 193f 7fd3 59be 89fe 983d
00000240: e933 ccbd dfa2 ae3e 758c b6bd b404 bf3e
00000250: 2ddc 8bbd 6285 69bd b362 3abe c751 8b3e
00000260: 3462 fcbd 4fa2 cabc f9b3 bb3d 4943 a53d
00000270: 9435 c6bd 51ff 06bd 0784 93be 5928 3c3e
00000280: 347e 02be 54d6 4e3e 0c49 4cbe 9ba4 68be
00000290: 8b16 1e3f 4e0c 02be 02cb 063f 4512 88be
000002a0: 5d84 af3e 687d cbbd 5acb 323e fd40 2bbe
000002b0: 6ccf 20be 17cb 49be 96d7 06bd fa16 e9be
000002c0: cd81 58bd 963a bdbd 2ab2 4dbc 6552 8ebe
000002d0: 0380 803f cf62 3a3e d99d 3e3f 45b1 e0be
000002e0: 2963 71bd 21fe 73bd 69ea 843d 026c 7cbc
000002f0: 59bb 59be 9182 303e 7660 07bf a46f ce3e
00000300: 4bf9 db3d ed48 df3e 3eb9 d93c c4b9 7e3f
00000310: f0e0 10bf 9a2a 7bbd 89af edbd ae3f 5cbf
00000320: 859f 2fbe 78da ad3e 9ea6 173f c80b f43d
00000330: b397 d2be 2425 493e 126c cdbc 99a0 023f
00000340: 3b51 543d 2a72 dfbc 49ed 54be b119 ae3e
00000350: 8167 2b3f b181 7b3e 4fb8 0abf da27 e23e
00000360: 2d94 ea3e 33fe d13e 16a9 613f eb45 453d
00000370: 5dc3 863e 29d0 e63e 4c71 05bf 613a debe
00000380: 32a1 f03c ba5d 92be 4dd4 e2be 36e3 f1bb
00000390: 686a b6bd 8c75 e93e 65fb 523e 90ea f7bd
000003a0: 306e 003e 4b6b e0be 61a2 6ebd e50a f63d
000003b0: 5fb0 12bf b56f 02be c26d bf3e 034b 80bf
000003c0: 1ac9 55bf 2e6d c7be 925f c9bc 57bf 073f
000003d0: b59d b2bd afd1 e8be bcc2 43bf 3f8c 88bd
000003e0: 0eee d83e 6e75 413e d184 503e 82c6 ba3e
000003f0: 87bc 6b3e a0c6 b43d e60a 54be 7ba9 9b3d
-0.09811529 -0.44228977 -0.29347533 0.36844456 -0.5067795 0.004098785 0.1795185 0.49350947
-0.18748987 0.34647006 -0.45987445 0.5523066 -0.34634396 0.45932096 0.23964137 0.40571126
-0.36585823 0.07039562 -0.010165831 0.064301014 -0.5676627 0.531395 -0.3254051 0.26569682
0.020330425 0.016899716 0.10398172 0.27613103 0.07684577 -0.039735366 0.24893177 0.37518537
0.5094617 0.05006216 0.24927811 -0.118151955 0.08689938 0.17639066 0.43676 0.023858123
-0.042956192 -0.11026726 0.075410396 0.12392285 -0.15749446 -0.43877196 0.07346352 0.47608915
0.70459497 -0.19487785 0.21516934 0.30772015 -0.08726766 -0.17734855 -0.056228984 0.43681812
-0.1610528 0.407235 -0.17727822 -0.07190953 -0.015151783 -0.004995075 -0.053668804 0.044538453
0.013059034 0.16235425 0.13779698 0.2756333 0.048126876 0.6327851 0.0958049 0.014884269
-0.22105744 0.011526447 0.6719954 -0.16490166 -0.13133979 0.116319455 -0.12588046 -0.17442408
-0.15203469 -0.26820743 -0.29157257 0.21471845 0.057406854 0.18358684 0.23123805 0.3448006
-0.38681433 0.3422494 -0.011596389 0.4469979 0.026648372 0.33796942 -0.013198637 -0.1314432
-0.012552402 0.0932124 -0.1956649 0.35347658 -0.08465273 0.0187362 0.023683546 -0.38745362
-0.083988085 0.104754195 -0.0013195344 -0.10897761 0.0093513755 -0.4331672 -0.0028780245 -0.37875363
-0.16417938 -0.10661012 -0.0054461462 0.30600074 0.077355534 0.22183838 -0.1332914 0.028837174
-0.69790137 0.14710353 0.58000565 -0.08914153 0.5058991 0.38014707 -0.36688343 -0.29638335
0.6173767 -0.1856179 0.3005037 -0.1159068 0.26008183 0.21790919 0.07281826 1.2073966
-0.057329223 0.0017092371 0.14026572 0.18436442 -0.4546415 0.5985425 -0.21272086 0.07470424
-0.099708386 0.34108636 -0.08913509 0.37308276 -0.068291046 -0.05701197 -0.18201713 0.2721083
-0.12323418 -0.024735598 0.091651864 0.08069474 -0.09678188 -0.032958332 -0.28811666 0.18374766
-0.12743455 0.20198947 -0.1994974 -0.22719042 0.6175315 -0.12700006 0.52653515 -0.2657644
0.34280673 -0.09936029 0.17460385 -0.1672401 -0.15704125 -0.19706379 -0.032920443 -0.45525342
-0.052858163 -0.0923969 -0.012554685 -0.27797237 1.0039066 0.18201755 0.74459606 -0.43885246
-0.058932457 -0.059568528 0.06490023 -0.01540661 -0.21262874 0.17237307 -0.5288156 0.4031955
0.10740908 0.43610325 0.026577588 0.99502206 -0.5659323 -0.061319925 -0.11605746 -0.8603467
-0.17150696 0.3395574 0.5923861 0.119163096 -0.41131362 0.19643074 -0.025075946 0.510263
0.05183528 -0.027276117 -0.20793642 0.34003976 0.6695481 0.24561192 -0.5418748 0.4417103
0.45816174 0.4101425 0.8814863 0.048162382 0.26320925 0.4508069 -0.52126 -0.43403915
0.029373739 -0.28587133 -0.44302598 -0.007381822 -0.08907014 0.45597494 0.20603712 -0.12105286
0.12542033 -0.43831858 -0.058260325 0.12013797 -0.5730037 -0.12737925 0.37388426 -1.0022892
-0.8350998 -0.38950485 -0.024581704 0.53026336 -0.087214865 -0.45472476 -0.76469016 -0.06667375
0.4236912 0.18892452 0.20363165 0.36479574 0.23021136 0.08826947 -0.20707282 0.07600685

rnn.weight_hh_l0 f4 [48, 16]
00000000: 573d 6e3e 6923 3b3e d986 88be b487 8e3e
00000010: 2ff7 263e 4765 b03e f767 dc3d cfff cf3d
00000020: 9dda 8d3e 1c57 86bd 1fd7 313e 1662 ab3d
00000030: 443c 7abe 4b68 793f fae2 463e 7f3a 5bbe
00000040: f407 6dbe b766 c93e 0b0f 013f 4fd2 81bd
00000050: 713c 95bd 3848 a53e dd51 b4be e61e fcbd
00000060: a001 89bd 55b7 cb3d 899b 71be c179 743d
00000070: 4512 e23d 351a 313e 9baf 18bd 10dc c4be
00000080: 9f7d 9b3e ee1b 763e 5618 5f3e cab1 ba3e
00000090: 1133 6b3d fe93 a7be e268 9bbd 1e31 50bc
000000a0: 8c00 d0bd fcb9 c53d 4901 f03c c3ca b4bd
000000b0: 3965 acbe e411 55be 3d8b e5bc 2c35 733e
000000c0: 7938 163e f909 f13d c186 0f3f 94e1 233f
000000d0: 3601 6d3e 4a6e 2ebf 30a5 1abe 85d1 c2be
000000e0: fab0 cdbe 3976 cc3e 3bd8 df3d 72e3 07be
000000f0: ee92 713c e8ac 9ebd 2826 c8bd 3189 f63e
00000100: ae54 26be fef0 d73e e62a 863d c476 d03d
00000110: 0820 553e 9ff9 be3c 3332 9f3e eb5c d83d
00000120: e2c9 143e 3f55 b33e df4b 253f e1e3 10be
00000130: 2460 4a3e 1c34 cc3e 80e4 583e 14f9 3f3d
00000140: 8e8b 82be 1a23 95be 222b 373e 0669 263e
00000150: 7d89 1f3e 7f43 b0be 356f ed3d 2149 103d
00000160: 0523 7abe e6f8 8d3e 4359 ff3e fe72 6bbe
00000170: 322c 3d3e 49f1 673e b183 c23c 0d66 0abc
00000180: 0a01 293d c2ae 83bd 5207 553d f195 273f
00000190: 8b34 933e f32f 7cbe 02c7 03be 6db4 623e
000001a0: 5c96 28be 56ab f73d 4876 cabe 9057 283c
000001b0: 3258 033e 039d 94be 04ab 823e b4e5 e8bd
000001c0: 5542 943d 27f0 373e 2a6c 683e cc77 a23e
000001d0: 6118 0ebe 3948 44be c28c d1bd 563c b2bd
000001e0: 1066 0d3e 1225 2cbc 7e08 813e ec60 b5bc
000001f0: f7e6 7ebe a53d fd3e a0d0 cc3c abf9 66be
00000200: 8499 923d a1fc 493e 4484 db3e d9f3 09be
00000210: 37e1 08bf 1ab6 7cbe 46da 0dbf f17b 81be
00000220: 67e3 5cbc bc0a 6abe 2438 773d 2e7d 0b3d
00000230: ddfa f0be 708d d73e e818 d63e 51a4 9bbc
00000240: 63b9 793e c610 97bd 28a0 393d 9f98 163e
00000250: b509 b6bd 8a29 833e 3fa6 613e 3e96 3bbe
00000260: 99d6 903c d72e d63d c650 e23e c4de 1bbf
00000270: 7bf2 5dbe 34e0 34be 8474 253d b73a 31be
00000280: a0d2 d2be 6c53 503d e29a 3b3e b508 c33b
00000290: 1735 ed3d ca06 5fbf 87c4 e83e 0f66 913e
000002a0: df2a febe d734 c4be 8e6e b83e 8402 26bf
000002b0: 78c8 1a3e ee3f 4f3e b045 6abd f2ea 11bd
000002c0: 8f9f ad3e 64a8 aabe 6541 29be 2d98 2c3e
000002d0: e75f d73e e5b2 ca3e a237 2e3e c414 9d3e
000002e0: 1a0f e3bd 50fc 863d 1b29 533e a324 2c3f
000002f0: 2a84 2c3e b31c f63e 7adf 88be 3778 e73d
00000300: bcc8 ecbd 9710 4dbe c647 8d3e 14b4 adbd
00000310: f328 d6bc 0cda 073e bf35 89be a282 633e
00000320: 3ef3 77bd 5585 a6bd dc5a 18bf 8ad4 d63e
00000330: 9c87 833d 7ada ab3d e7e0 38be 98ef f4be
00000340: 0d5d 8bbe 736b 593c 94d4 d53e d41b 93be
00000350: d509 14bc bb5b 78be c95c e73e c07a 16bf
00000360: efa6 1a3e 8c50 1f3f a04d fe3b 0297 25be
00000370: 2ced 6c3a fd5d 923d 97ba 78be 3ba2 c6be
00000380: d072 2d3e a951 353d 9716 3b3e 2638 dcbd
00000390: 0b58 8abd 313f 7dbe 093d d33e 5b10 0f3e
000003a0: acc3 d93e 61cf 3c3f bd9f adbb e3fb 92be
000003b0: 9b48 72be 08c4 343d 15b1 c63e 3df6 423e
000003c0: 608f 41bc 3941 1cbe fc54 103f 7320 983d
000003d0: bed5 493e 0e3b 253e 88fc dcbe 8c49 083f
000003e0: 8f43 81be fcaf 0f3f 5e69 303f 1483 8c3c
000003f0: e18f 493e fa55 00bf 10b0 b9be 6051 a03e
0.23265587 0.18275227 -0.2666538 0.27837908 0.1630523 0.34452268 0.10762017 0.101562135
0.2770585 -0.065595835 0.17367218 0.08368318 -0.24437052 0.97424763 0.19422522 -0.21409033
-0.23147565 0.39336178 0.5041358 -0.06338941 -0.07286919 0.3228166 -0.35218707 -0.12310581
-0.06689763 0.09947077 -0.23594488 0.059686426 0.11038641 0.17295153 -0.037276845 -0.38449144
0.3036928 0.24034092 0.21786627 0.36463767 0.057421748 -0.32730097 -0.07588364 -0.012707023
-0.10156354 0.09654614 0.029297488 -0.08827736 -0.33670977 -0.20807606 -0.028020496 0.23750752
0.1466998 0.1176948 0.56064993 0.6401608 0.23144993 -0.6813704 -0.15102077 -0.38050476
-0.40174085 0.39933947 0.109299146 -0.13270357 0.014744503 -0.07747823 -0.09772903 0.48151544
-0.1624324 0.4217605 0.06551151 0.10178903 0.20813 0.023312388 0.31092986 0.10564598
0.14530137 0.35025975 0.64568895 -0.14149429 0.19763237 0.39883506 0.21180916 0.0468684
-0.25497097 -0.29128343 0.17887548 0.16251001 0.15579791 -0.34426495 0.11593477 0.03522599
-0.24427421 0.27728957 0.4987279 -0.22993085 0.1847389 0.22650637 0.023744436 -0.008447182
0.041260757 -0.06429817 0.052008934 0.6546317 0.28751025 -0.24627666 -0.12868884 0.2213914
-0.16463608 0.120932266 -0.39543366 0.010274783 0.12826613 -0.2902604 0.255211 -0.113719374
0.07239214 0.17962705 0.22697511 0.31732023 -0.13876487 -0.19168176 -0.102319255 -0.087029144
0.13808465 -0.010506885 0.25201792 -0.022140943 -0.24892794 0.49461094 0.025001824 -0.22556178
0.07158187 0.19725277 0.42874348 -0.13471927 -0.5346865 -0.24678841 -0.55411184 -0.25289872
-0.013481951 -0.22855657 0.060356274 0.034054928 -0.47066393 0.42100096 0.41815877 -0.01899925
0.24387126 -0.07376246 0.045318753 0.14706658 -0.0888857 0.2561763 0.22036074 -0.18319032
0.017680453 0.10458153 0.4420225 -0.6088679 -0.2167453 -0.17663652 0.04039432 -0.17307554
-0.4117632 0.050860807 0.18320802 0.0059519657 0.11582392 -0.87119734 0.45462438 0.28398177
-0.49642083 -0.38321564 0.36021847 -0.6484759 0.15115535 0.20239231 -0.057195365 -0.035624452
0.33910796 -0.33331597 -0.16528852 0.16854925 0.42065355 0.3958961 0.1701341 0.30679905
-0.11086865 0.065910935 0.20621149 0.67243403 0.16847292 0.4806877 -0.26733 0.11302226
-0.115617245 -0.2002586 0.2759382 -0.08481613 -0.026142573 0.13266772 -0.26798818 0.22217801
-0.06053471 -0.081309 -0.5951364 0.4195903 0.0642235 0.083912805 -0.18054543 -0.47839046
-0.2721943 0.013270247 0.41763747 -0.2873217 -0.009035547 -0.24253742 0.45187977 -0.5878105
0.15102743 0.6223228 0.0077607185 -0.16170886 0.0009038027 0.07146833 -0.24289928 -0.38795647
0.16938329 0.04426733 0.18270336 -0.10752897 -0.06755074 -0.24731137 0.41257504 0.13971083
0.42532098 0.73753935 -0.0052985833 -0.287078 -0.2366051 0.044132262 0.38806978 0.19039245
-0.011813968 -0.15259255 0.56379676 0.07428064 0.19710442 0.16135809 -0.43161416 0.53237224
-0.25246856 0.56127906 0.6891078 0.017152347 0.19683792 -0.5013119 -0.36267138 0.31312084

rnn.bias_ih_l0 f4 [48]
00000000: a904 263e b29f 21be a252 bf3c 7ca7 f33d
00000010: 899a 63be dd65 67be ea3b e03c dd42 f0bb
00000020: 70e0 85bc 3635 bb3d c1e4 473e e8d4 05bf
00000030: 4488 f73d 4b47 e8bd 931e 383e 035f 363c
00000040: 4196 cc3e 03f2 a13e 6f60 7c3e 04e5 8ebd
00000050: 3572 ba3e 23b6 1fbe 277c a4be a2e3 c23e
00000060: 84b6 e0be a2f8 eabe ba6d 0f3e 9729 89be
00000070: 15f2 c13e 3f61 0dbf 3540 743c 1966 87bd
00000080: 3bef 19be f999 15be b716 f1bd 831c 93bd
00000090: 4f81 94be d971 5cbe 3477 a1bd 751b 813e
000000a0: 5f04 1e3d 5c56 433e 45f7 67be b5ee d5bc
000000b0: 72a9 acbe 4171 41be acf8 50be f04b 3fbe
0.16212715 -0.15783575 0.023354832 0.118971795 -0.22226919 -0.22597452 0.02737232 -0.0073321895
-0.016342372 0.091410086 0.19520856 -0.52277994 0.120865375 -0.11341723 0.17980413 0.011131051
0.39958385 0.31629953 0.24646161 -0.06977275 0.36415258 -0.15596823 -0.3212597 0.38064295
-0.43889248 -0.45892817 0.14006701 -0.26789543 0.37880006 -0.5522651 0.014907886 -0.066112705
-0.15032665 -0.14609517 -0.11771911 -0.071831726 -0.29004905 -0.21527804 -0.07884064 0.2521626
0.038578387 0.19075912 -0.2265292 -0.026114801 -0.33723027 -0.18890859 -0.20407361 -0.18681312

rnn.bias_hh_l0 f4 [48]
00000000: 1aa1 fb3d 506f 04be 6240 bdbc 8209 c63d
00000010: 742c 53be 4150 64be 19fe f03c efa6 0abc
00000020: 22b4 65bb 1fe9 b63c 89e2 423e c90e 02bf
00000030: 1eea 263e ef69 1dbe 6934 223e 42a3 dc3c
00000040: 5dd0 c43e 43a0 423e d0ee 993e c983 0cbd
00000050: 832d a83e d84d 0dbe 00c2 b6be 3868 be3e
00000060: 7501 e0be 5236 eebe ba24 033e 0b4b 80be
00000070: 8274 983e 6436 0cbf a56b 7cbd 557e 09bd
00000080: 14e2 08be c9ea 69bd 4cac 473e f2e5 11bf
00000090: ed7d 183d fbb5 90bd 35e4 593e 91ba 213e
000000a0: 6c68 84be 72df b33e e8a5 39bf d9d5 e4bd
000000b0: 77cc 74bd 76e6 5cbe a208 29be 8aa7 fb3c
0.12286587 -0.12933087 -0.02310199 0.09669782 -0.20622426 -0.2229624 0.029418038 -0.008462652
-0.0035049994 0.022327958 0.19031729 -0.5080381 0.16300246 -0.15372442 0.15840305 0.026933316
0.3844022 0.19006447 0.30065012 -0.034305368 0.32847223 -0.13799226 -0.35694885 0.37188888
-0.43751112 -0.46525818 0.12806979 -0.25057253 0.29776388 -0.54770494 -0.061626095 -0.033567745
-0.13367492 -0.057108674 0.1949932 -0.56991494 0.037229467 -0.0706596 0.2127846 0.15793826
-0.25860918 0.35131413 -0.7251878 -0.11173601 -0.059765305 -0.21572289 -0.165072 0.030719537

rnn.weight_ih_l0_reverse f4 [48, 12]
00000000: e5a6 12be 82a4 da3e 407b e23d 89cf 463f
00000010: 4c92 db3d 2812 1d3d 5247 f3bc 6ae2 5b3d
00000020: 81e9 fbbe 0551 923e 0b02 2ebe 0638 8e3c
00000030: b8c6 b33e ff57 3cbf 5faa 82be be68 a0be
00000040: b1b6 e03e 6dad cebd 6769 32be a166 31bd
00000050: 6cbc 773e ab8c db3e 2786 68be deb5 ed3d
00000060: 1325 d93e 9e96 fb3e 030a 4e3e 8702 333f
00000070: 30f7 ee3d eee2 95bd 3f69 143d 34b4 113e
00000080: 14c9 d83e f023 80be 759d 283d 5e69 a33d
00000090: 0c93 9abd 844e 2b3c c219 e83e bccb 193d
000000a0: 1e52 273f 79b0 a3bc e15f 0a3e ddc0 683e
000000b0: 89d0 bc3e b4e9 923e 9e00 1fbe d94f 15bf
000000c0: bb6e c9be 45e6 fb3c 6148 7fbe 382b 03be
000000d0: 8b6a 5abb 9da9 0cbe e971 febe def7 563e
000000e0: 7519 2e3f 81ea 0a3f 4da9 363e 9ef5 afbe
000000f0: a751 033f b80f 82be a2ae e43f 07e3 863d
00000100: 8dba 54be b237 61bd 869d 32be 2382 05be
00000110: 9f75 83be ae2b 7dbe d262 94bd 6d10 96bd
00000120: 62c1 9c3d 1a85 acbd e341 7f3e 4804 153e
00000130: 779e 35bd 7e4f 24be dbf7 89be 4b87 ae3d
00000140: 5a21 7abe 3afd cb3d 40ec cabd f222 e0bd
00000150: 45c7 b93e 6fe1 a73e f279 43bf 44bd 3cbf
00000160: a91d 46be edb5 223e eda9 2d3f b3e7 04be
00000170: ed73 cfbd 48cb f4bc a79a c93d 0990 233e
00000180: e509 34bb d780 88bc fbcf aa3e dd66 b9be
00000190: f103 21be 9a5a 0a3e 3bcb 1cbc 2ff6 773e
000001a0: 12cb c2bd a97f 96bd 5537 38bd 878f 23be
000001b0: a22c 423d b411 373c a82b 883c bcba b53d
000001c0: 1b44 0a3e 48cd 0fbd e5a3 19bd 1388 a43e
000001d0: 1413 873d 70cf e43e 1bf9 5a3d 9fe9 fb3c
000001e0: ab26 12bf 9086 3d3e b40f 563e aca0 f3be
000001f0: 3744 44be c696 1bbd 9b2d 283c 40e2 c0be
00000200: c926 453d 230e 8ebe f8ff 663e 6b92 733c
00000210: 6761 8b3b 855d 1ebf 1f7a 2abd c018 25bf
00000220: 49fc 853d bbba 84bd 8fd0 36bd 30ab 6ebe
00000230: a033 bcbe 9210 903e d95d 513b 67cc e33c
00000240: 7f6d 1b3d fca0 06be b384 d83e e612 70bd
00000250: c533 c53c e99a 6abe ac06 943d d10a 953e
00000260: 0024 383d d106 7e3d c977 a1bd ba78 083e
00000270: 6d17 6bbe af90 6e3c a466 bfbe 0c29 38bf
00000280: 4cfd ecbe b5c0 4fbd 878a f4bd 15f9 16be
00000290: b922 90bd fe42 bf3e f812 6fbe 48b0 73bf
000002a0: e49d 22be cbdb 143f e7c3 67be b8d9 813b
000002b0: 3223 663e 62b7 35bd fd52 b23e 18c7 66be
000002c0: f478 debe 2c4a 53bd 9226 cf3c 9c43 b23e
000002d0: 91b6 1f3f 225c 2c3e 0f27 36be 7ba3 5a3e
000002e0: d985 b8be 14d4 53bd b304 11be e17b aabe
000002f0: a301 b7be 7c52 f8be 2ab2 bdbe 8c15 55bd
00000300: d58e 4fbe bd8c 9c3d bafa 33bf 8611 3dbe
00000310: 9d77 2e3f f108 5bbe 7939 46be e9b2 723e
00000320: 6e65 9ebe 6e36 8dbc 41cd 493e ca5e 8dbe
00000330: d135 8cbf b1a3 6ebf a2c1 773e 5ac5 a43d
00000340: fa41 723e e104 dbbd c6be 2cbf 648b c53e
00000350: 4d6c bf3d 834d 0a3f 9a06 1cbe a25c a13f
00000360: 0103 3cbf c1f1 8bbe 13a9 133e 42cf f33e
00000370: a436 8b3d 1f3f 20be f1f9 cd3d 9e9c 5d3f
00000380: c915 0f3f 237c b53e 7244 4bbf a239 183f
00000390: 99c8 123f 868b d8be cff1 943e eb79 22bf
000003a0: 47d6 5dbf b025 73be 9301 73be a009 bdbe
000003b0: 57ab 0ebd 2bc8 ffbd 0b33 af3e c50d f03e
000003c0: d4f0 093e d8d5 de3e d7a8 4cbf 3e97 053e
000003d0: 8328 d6be e5f7 b7be 0190 90bd c548 4bbf
000003e0: cbbd cfbe f0cc 65bf e525 c3bd 52cb c3bd
000003f0: 5f67 4e3e 86ee 753d d724 5b3f aa80 833e
-0.14321478 0.42703635 0.11058664 0.77660424 0.10721263 0.038347393 -0.029697094 0.053682722
-0.49201587 0.28577438 -0.16992967 0.017360698 0.35112548 -0.7357177 -0.25520608 -0.31329912
0.43889382 -0.10091672 -0.1742302 -0.043310765 0.24192971 0.4288076 -0.22707425 0.11606954
0.42411098 0.4913835 0.20121007 0.6992573 0.11668241 -0.07318674 0.036233183 0.14228898
0.4234091 -0.25027418 0.041165788 0.079790816 -0.07547578 0.010455731 0.45332152 0.037547812
0.65359676 -0.01998161 0.13513137 0.22729822 0.3687785 0.28693926 -0.15527579 -0.5832496
-0.39342293 0.03074945 -0.24929954 -0.12809455 -0.0033327665 -0.13736577 -0.49696282 0.20992991
0.68007594 0.54264075 0.1783802 -0.3436708 0.51296467 -0.25402617 1.7865794 0.06586271
-0.20774288 -0.054984756 -0.17442903 -0.13037924 -0.25675675 -0.24723694 -0.07245411 -0.07327352
0.07654072 -0.084238246 0.24927478 0.14552414 -0.044340577 -0.16045949 -0.2694691 0.08521899
-0.24426785 0.099604085 -0.09908342 -0.10944165 0.36284843 0.3278918 -0.7635795 -0.73726296
-0.19347252 0.15889712 0.6783741 -0.12979011 -0.10129533 -0.029882088 0.09843951 0.15972914
-0.0027471718 -0.016662998 0.33361802 -0.3621129 -0.1572416 0.13511124 -0.009569938 0.24215005
-0.09511389 -0.07348568 -0.044974644 -0.1597272 0.047405846 0.011173654 0.01662238 0.088735074
0.13502543 -0.03510788 -0.037509818 0.32135066 0.06595436 0.44689512 0.05346022 0.030751048
-0.5709025 0.18508363 0.20904428 -0.4758352 -0.19166647 -0.037985586 0.010264779 -0.37672615
0.04813269 -0.2774516 0.22558582 0.014866452 0.0042535546 -0.6186145 -0.04162037 -0.6449089
0.0654226 -0.064809285 -0.04463249 -0.2330749 -0.36758137 0.28137642 0.0031946807 0.027807428
0.03794622 -0.13147348 0.4228874 -0.058611773 0.024072537 -0.22910656 0.07227835 0.29109815
0.044956207 0.06201822 -0.07884175 0.13327304 -0.22958155 0.014560862 -0.37382996 -0.7193763
-0.46287 -0.05072089 -0.119404845 -0.14743455 -0.07037873 0.37355798 -0.2334708 -0.9519086
-0.15880543 0.5814788 -0.22633325 0.0039627217 0.22474363 -0.04436434 0.3482894 -0.22536886
-0.43451655 -0.051584408 0.025286946 0.34817207 0.6238795 0.16832021 -0.17788337 0.21351425
-0.36039618 -0.051715925 -0.14161949 -0.33297637 -0.35743436 -0.4850043 -0.3704999 -0.0520225
-0.2026933 0.07644031 -0.70304453 -0.18463716 0.68151265 -0.2139013 -0.19357862 0.23701061
-0.3093676 -0.017237868 0.19707204 -0.2761138 -1.0953923 -0.93218523 0.24194959 0.08045454
0.2365798 -0.1069429 -0.674786 0.3858291 0.093468286 0.54024523 -0.15236893 1.2606394
-0.73442084 -0.2733288 0.14419965 0.47619063 0.06797531 -0.15649079 0.10057438 0.86567104
0.55892617 0.3544627 -0.79401314 0.5946294 0.5733734 -0.42293948 0.29090735 -0.6346728
-0.86655086 -0.23744845 -0.2373107 -0.36921406 -0.03483137 -0.12489351 0.3421863 0.46885505
0.13470775 0.43522525 -0.7994513 0.13045976 -0.41827783 -0.35931316 -0.070587166 -0.7940791
-0.40574488 -0.89765835 -0.09528712 -0.09560265 0.2015662 0.060041927 0.8560309 0.256841

rnn.weight_hh_l0_reverse f4 [48, 16]
00000000: 156d a7be 769a f83e 0578 5abd 100c 033f
00000010: de81 293e c898 ab3d 0fde 0a3f 797a 08bf
00000020: c43b dbbe 5db0 b73e bdb8 823e aab8 d3bd
00000030: 3438 893e 9d00 5d3e 7327 2fbf aef5 a73e
00000040: 1340 f83e d5f2 123f 6fa7 46bf b9dd 91be
00000050: 3398 7f3e c13f b53e d2ae c33e e3f8 873e
00000060: f571 8e3e 30ab 54bd 0378 d1be d3ee 913e
00000070: 6b22 93bd f155 dd3e 7524 c63e b8cf 313f
00000080: 77db 04be ac29 aa3c afb2 d73d 2387 073c
00000090: f672 813e 3f5e 0bbc a250 613e e8fd 313e
000000a0: 199b d3bc 1de5 193d 4584 d9bd 73a7 d23e
000000b0: 498b a23e 2af9 163d 51d7 0e3e 88e5 923e
000000c0: 750b e7bd 71b6 0a3f a3e2 05bd 94e9 663e
000000d0: c085 b6bc dac3 043f 72f7 d33e dc2d a4be
000000e0: 1a5f 073e ef71 8dbf 71d1 a03e f6b2 353e
000000f0: ad0e 80be 4292 7fbd 677c 073e 0335 6f3e
00000100: 83fb 803e fb55 f8bd 0c20 52bf dce2 8d3d
00000110: e541 3fbe d963 96be 28dd 173d 62db 143f
00000120: cbe6 a13e 7f8e debe 8914 1b3f 07b5 d33e
00000130: f269 fabc fea5 353e 236f 2a3e 09ef 423f
00000140: 8f75 54be 61f6 303d a3be ca3d 34a5 e73e
00000150: 643e 2cbd dde7 e13e a3bc 0fbd 409b d03e
00000160: 8854 483e 70bc 383f 386c e03e 381a 5d3e
00000170: 03cf ecbe 6a2d ab3d 2407 81be 0330 d2be
00000180: 622e 1abe 7cc8 c7be d31d f03d 5562 0a3d
00000190: b0f4 9c3e 08d2 9c3d 4ad2 bc3b 85bb 423d
000001a0: 566d 5b3e ad44 6abe c0f9 3b3d acbc bdbe
000001b0: a084 90be a3b1 e93e dd4c cc3d df64 913e
000001c0: 8afa 8dbe bb9d 203e 5418 c0be d176 a93d
000001d0: 90d9 433f 7fc7 3abd efdb 06be 8cdf cd3e
000001e0: f1fa f63d 2c36 b9be 0033 df3e 74bc 003e
000001f0: 0255 d43d 3daf 823e 2408 1abf c45e e63e
00000200: f008 5ebd c0aa 18be 916c 48be 9846 ba3d
00000210: df2f dbbc b841 a63d 3c31 1d3d 2a3a 24be
00000220: 965d ac3e 81f9 373e ff43 3fbe 5c58 e6be
00000230: ba76 4c3e e1ec 473c ad99 9d3c 988b edbe
00000240: c203 36be c83f 59be 7590 c5bc b1fe 57be
00000250: 266e e8bd 4762 20bd acbe 06bd 4540 febd
00000260: 3006 06be 4ef3 1d3d ba05 b43e 1409 82be
00000270: 994d 91bb f9d7 623d ed47 42be 150f 47be
00000280: 0496 4cbe c8cd 49be 76f4 913d 304d 0dbe
00000290: 0748 b43d d916 353e be6e b3bd 1396 55be
000002a0: bbf1 aabd 8377 3e3e f980 ddbe cce3 42ba
000002b0: e715 03bf 7d00 5abe 59c0 52be b748 9c3e
000002c0: 6bcb 7b3e 19c3 b7be 1fd8 17bf a8ec 3bbe
000002d0: ab00 65be 01bf 5ebc 9c1a a2bd 5bd2 9a3e
000002e0: 24ec 793e 9501 a93c 8620 0dbf 7cc9 943a
000002f0: 4505 a83e 1f7c ccbd 3ad8 c23c b9c4 abbd
00000300: 4964 31be f8ce 81bb f25b 913d 72d7 703d
00000310: 08bc 8cbd 8408 b3bd b74c be3d 3e41 90be
00000320: 7194 0dbd 3758 7fbe 6436 21be ab73 56bd
00000330: 1842 1fbd a6d5 8a3d bcf8 2cbe 6645 1bbd
00000340: 993d 0b3f eac2 7cbd d3d6 b6be 3c47 1ebf
00000350: 3506 48be 5042 213d f6ea 30be dd9e b43e
00000360: 0813 dc3c 97f1 023f 5ca5 18be 843f c5be
00000370: 44fb 9bbe 8c48 5e3e 4317 0ebe f408 aa3e
00000380: 2c2e a2be 00b0 5f3c 7ed1 b73e 3cc7 dbbe
00000390: 38ec 2f3f 4ed4 7ebe a7e5 28be 4678 c1bd
000003a0: 0630 8fbe c8a0 d83e b546 e9bd 8714 48bf
000003b0: c89b a2be 2b13 be3e ba74 103d c05d e33c
000003c0: 4f6f 923e 70c9 ac3e 4c7f 8bbe 42e3 b0be
000003d0: 65ee 073d c8f0 0dbe 7e90 02bf 0528 a93d
000003e0: a559 56be ee14 a73e 87d4 093e 68e7 e9bb
000003f0: 4973 41bd df33 abbd 8a5c 313d 2e56 e43d
-0.3270041 0.48555344 -0.053337116 0.5119028 0.16553447 0.0837875 0.54245085 -0.5331188
-0.42819035 0.35876742 0.2553157 -0.10337956 0.26800692 0.21582265 -0.6841957 0.32804626
0.48486385 0.5740178 -0.77599233 -0.28489473 0.24960403 0.35400203 0.38219315 0.26557073
0.27821317 -0.05192107 -0.40911874 0.2850252 -0.07184299 0.4322963 0.3869969 0.6945758
-0.12974344 0.020771824 0.10532128 0.008271965 0.2528302 -0.008506357 0.22003415 0.17382014
-0.025830792 0.037572015 -0.106209315 0.4114338 0.3174689 0.036858715 0.13949324 0.28690743
-0.11281482 0.54184633 -0.03268684 0.2255004 -0.022280574 0.51861346 0.41399723 -0.32066238
0.13219872 -1.1050395 0.3140979 0.1774405 -0.25011197 -0.06239534 0.1323105 0.23360066
0.25191888 -0.121257745 -0.8208015 0.069280356 -0.1867748 -0.29373053 0.037076145 0.5814725
0.31621394 -0.4346809 0.6057821 0.4134905 -0.030568097 0.17739102 0.16643958 0.7614599
-0.2074797 0.043203715 0.09899642 0.45243227 -0.042051688 0.4412221 -0.035092007 0.40743446
0.19563496 0.7216253 0.43832564 0.21592033 -0.46251687 0.083582714 -0.2520076 -0.41052255
-0.15056756 -0.39020145 0.117244385 0.033785183 0.30655432 0.07657248 0.005762373 0.047542114
0.21428427 -0.2287776 0.045892477 -0.37058008 -0.28226185 0.4564334 0.09975598 0.2839727
-0.2773021 0.1568517 -0.3751856 0.082746156 0.7650385 -0.04560041 -0.13169836 0.40209615
0.12059582 -0.36174142 0.43593597 0.12571889 0.103677765 0.2552432 -0.6016867 0.44994175
-0.054207742 -0.14908886 -0.19572665 0.09095496 -0.026756225 0.081180036 0.03837703 -0.16037813
0.3366515 0.17966272 -0.18678282 -0.44989288 0.19967166 0.012202472 0.019238317 -0.46395564
-0.17774871 -0.21215737 -0.024116734 -0.21093251 -0.11349134 -0.039156225 -0.032896683 -0.12414602
-0.13088298 0.03856211 0.3516062 -0.2539755 -0.004434299 0.05538175 -0.1897275 -0.19439347
-0.19979101 -0.19707406 0.07126705 -0.13798976 0.088028006 0.17684497 -0.08761357 -0.2085803
-0.08346888 0.18600278 -0.4326246 -0.0007434457 -0.51205295 -0.21289249 -0.20581187 0.30524227
0.24589317 -0.35891035 -0.5931415 -0.18351996 -0.22363536 -0.013595344 -0.079152316 0.30238613
0.24406487 0.020630637 -0.5512775 0.0011351551 0.3281652 -0.09984612 0.023784745 -0.08387131
-0.17323412 -0.00396144 0.07097615 0.058799215 -0.068718016 -0.087418586 0.09291976 -0.28174776
-0.034565393 -0.24935995 -0.15743405 -0.052356403 -0.03888139 0.067790315 -0.1689176 -0.03790798
0.54390866 -0.061709322 -0.35710773 -0.61827445 -0.19533618 0.03936988 -0.1727713 0.35277453
0.026864544 0.51149887 -0.1490683 -0.3852502 -0.30465138 0.21707362 -0.13876061 0.33209956
-0.3167585 0.0136528015 0.35902017 -0.4292544 0.68719816 -0.24885675 -0.16493855 -0.094467685
-0.27966326 0.42310166 -0.113904394 -0.7815632 -0.31759477 0.37124 0.03526757 0.027754664
0.28600547 0.33747435 -0.27245557 -0.34548384 0.033186335 -0.13861382 -0.5100173 0.08259586
-0.20932634 0.32633156 0.13459979 -0.0071381815 -0.047229085 -0.08359503 0.043301143 0.1114925

rnn.bias_ih_l0_reverse f4 [48]
00000000: 7e0e 633e 28e0 86bd ee3f d5bd c210 77be
00000010: 556c b3be 66b1 763e fc3f e3bc 09f4 ecbd
00000020: 28ac 433e dd13 403e 41a7 ed3e 91ba c23d
00000030: 805b c73d 832a a6be 7548 293d 84e1 e7bd
00000040: 041f 113e ed7c 5dbe 0937 67be 87e7 903e
00000050: 2667 64be 4525 debd 9c96 88be 1294 353f
00000060: 75bf f73d ae3f 25bf 9a44 a3be 4b6d 3bbe
00000070: 4471 88be b64d 37bd 4014 aebd f0fb 0bbf
00000080: f32e 99be eed4 2ebd 0d49 aabe 5aee cabe
00000090: dabc 88be 8e77 11bf dc86 5fbe 1b8d 32be
000000a0: c2d4 09bf 7c43 993e e4b1 81be a788 40be
000000b0: 2b46 9b3c d0f5 1cbd d32d 30bf 2562 4d3e
0.22173497 -0.06585723 -0.10412584 -0.24127486 -0.35043588 0.2409111 -0.027740471 -0.115699835
0.19108641 0.18757577 0.46416667 0.09508241 0.09734249 -0.3245431 0.041328866 -0.113223106
0.14171988 -0.21629687 -0.22579588 0.2830164 -0.22304973 -0.10846952 -0.26677406 0.7092906
0.120970644 -0.6455029 -0.31888276 -0.1830341 -0.26648915 -0.044751845 -0.08499956 -0.546813
-0.29918632 -0.042683534 -0.33258858 -0.39634973 -0.26706582 -0.5682305 -0.21828789 -0.1743664
-0.5384027 0.299343 -0.25331032 -0.18802129 0.018954357 -0.038320363 -0.6881992 0.2005697

rnn.bias_hh_l0_reverse f4 [48]
00000000: 0f0f 203e 2047 b3bd fb50 4dbd 7c03 36be
00000010: 58ea b6be 03dd 833e 7964 39bc eb4f 6f3d
00000020: f250 2f3e a501 3f3e 6ebc 083f 08cd 0e3e
00000030: 7af3 ca3d c70b b7be 1012 80bb 9204 e6bd
00000040: f53e 1c3e af0f 95be 42f4 88be 6869 7f3e
00000050: 5f7d 69be 2642 c6bc b3c9 95be 61f0 3f3f
00000060: cf95 843e 97c2 28bf fc77 8bbe 979d 4fbe
00000070: b71a 94be b0ab 4dbd f996 91bd a2cc 15bf
00000080: 7aa9 263e fae2 90bd 48a6 66be f056 9cbd
00000090: 6ebd ecbe 3359 b73e ff7c a9be 07a9 883e
000000a0: 67a3 97be ebbe e9bc 43f8 4ebf 4456 793e
000000b0: f09a 01bd c068 4abe 4c56 e0bd 49c9 08be
0.15630744 -0.087538004 -0.050126057 -0.17774767 -0.35725665 0.25754556 -0.011315458 0.058425825
0.17120722 0.18652971 0.5341252 0.139454 0.09909721 -0.35751173 -0.003908403 -0.112313405
0.15258391 -0.29113528 -0.26748854 0.24942553 -0.22801732 -0.024201464 -0.29255447 0.74976164
0.25895545 -0.6592192 -0.27239978 -0.2027496 -0.28926632 -0.050212562 -0.07108874 -0.5851537
0.16275588 -0.07074542 -0.22524369 -0.076337695 -0.46238273 0.3581024 -0.33103177 0.26691458
-0.29616854 -0.02853342 -0.8084757 0.24349314 -0.0316419 -0.19766521 -0.1095396 -0.13358034
