emulation/models/checkpoint/rnn/best_RNN1_iscxvpn.pth (torch, 149605 bytes, 10 tensors)

len_embedding.weight f4 [1501, 10]
4.91196e-40 -4.93724e-40 -4.9318e-40 -5.02857e-40 -4.92882e-40 5.18413e-40 -4.93352e-40 -4.91058e-40
4.95118e-40 -5.8987e-40 -4.9376e-40 -4.93093e-40 -4.92123e-40 4.93432e-40 -4.95164e-40 4.9127e-40
-4.92472e-40 -4.94151e-40 4.92439e-40 4.98403e-40 -4.92168e-40 -4.93867e-40 4.96722e-40 -4.99849e-40
4.95883e-40 4.93131e-40 4.91626e-40 -4.92287e-40 4.91138e-40 -4.90724e-40 4.97858e-40 -4.93089e-40
-4.93556e-40 4.91881e-40 4.94358e-40 -4.91646e-40 4.9248e-40 -5.16706e-40 4.99287e-40 -4.90927e-40
-4.93435e-40 4.91948e-40 -4.91116e-40 -4.94225e-40 4.94458e-40 4.91238e-40 4.92905e-40 -4.92793e-40
4.94783e-40 4.95697e-40 4.94934e-40 -4.9478e-40 -4.91829e-40 -5.03129e-40 -4.94825e-40 4.9349e-40
4.91915e-40 4.93278e-40 -4.91487e-40 -4.9207e-40 -4.94311e-40 4.94398e-40 -4.94542e-40 4.9146e-40
4.9534e-40 4.90704e-40 -4.93627e-40 4.93628e-40 -4.93528e-40 4.91653e-40 -4.93358e-40 -4.93243e-40
-4.90938e-40 -4.95394e-40 4.90482e-40 -4.91966e-40 -4.92649e-40 -4.95341e-40 4.96867e-40 4.92119e-40
4.92104e-40 4.95238e-40 -4.92828e-40 4.92332e-40 -4.9136e-40 -4.96902e-40 -4.94752e-40 4.91313e-40
-4.91144e-40 -5.31871e-40 -4.93278e-40 -4.93641e-40 4.90488e-40 -4.99861e-40 -4.93469e-40 4.90665e-40
-5.2105e-40 4.92457e-40 -4.90732e-40 5.02672e-40 -4.94567e-40 5.19325e-40 4.96581e-40 -4.94455e-40
-4.9274e-40 4.9059e-40 -4.93194e-40 -4.95045e-40 -4.93088e-40 5.36738e-40 -4.95627e-40 -4.95506e-40
-4.95432e-40 4.90948e-40 -4.95063e-40 4.96151e-40 4.91473e-40 -4.95346e-40 -4.90701e-40 -4.91689e-40
4.92512e-40 4.94391e-40 4.95047e-40 -4.90691e-40 4.95066e-40 4.96245e-40 4.93883e-40 4.91427e-40
-4.92221e-40 -4.95781e-40 -4.92195e-40 5.84362e-40 4.92052e-40 -4.94143e-40 4.94528e-40 -5.11509e-40
4.95355e-40 -4.94902e-40 4.91682e-40 4.94494e-40 -4.95278e-40 4.9738e-40 -4.92346e-40 4.98148e-40
-4.94925e-40 -4.95671e-40 4.90568e-40 5.19698e-40 -5.03538e-40 4.95352e-40 -4.94171e-40 -4.9512e-40
-4.92458e-40 -4.96976e-40 4.91616e-40 -4.92928e-40 -4.91476e-40 4.97195e-40 -4.94227e-40 -4.90784e-40
-4.95112e-40 4.93843e-40 6.13207e-40 4.95307e-40 -4.92996e-40 -5.13764e-40 4.95397e-40 -4.95152e-40
-4.91494e-40 -4.9088e-40 4.9407e-40 -4.92055e-40 -4.94696e-40 -4.92726e-40 -4.9487e-40 4.91494e-40
4.9058e-40 -4.98717e-40 -4.94213e-40 -4.95915e-40 -4.9362e-40 4.93439e-40 4.91675e-40 4.90932e-40
-4.93368e-40 -4.94848e-40 -4.94958e-40 -4.91543e-40 4.91276e-40 -4.93505e-40 5.0561e-40 4.94403e-40
4.95844e-40 4.95126e-40 4.926e-40 4.9333e-40 -4.90812e-40 4.91804e-40 -4.95058e-40 -4.93839e-40
4.939e-40 -4.91655e-40 -5.08506e-40 -4.92146e-40 -4.90812e-40 -4.99283e-40 -5.65067e-40 -4.93682e-40
4.91605e-40 -4.9188e-40 5.14557e-40 -5.0386e-40 -4.93364e-40 -5.63772e-40 -4.93404e-40 -4.95086e-40
-4.90571e-40 4.94642e-40 -4.92139e-40 -4.9168e-40 -4.95118e-40 4.93855e-40 4.91574e-40 -4.92565e-40
-4.9514e-40 4.94881e-40 -4.92338e-40 4.95466e-40 -4.96371e-40 5.07982e-40 4.92855e-40 4.91587e-40
-4.99042e-40 4.92691e-40 6.21315e-40 4.93656e-40 4.96411e-40 -4.9245e-40 -4.90497e-40 4.91067e-40
-4.93718e-40 -5.89494e-40 -4.99147e-40 -4.9378e-40 4.93826e-40 4.92276e-40 4.92667e-40 4.91766e-40
-4.94633e-40 4.94252e-40 4.932e-40 -4.9391e-40 -4.94706e-40 4.94045e-40 4.94562e-40 -4.92775e-40
00000000: 4159 0500 4d60 0580 c95e 0580 c379 0580
00000010: f45d 0580 20a5 0500 445f 0580 df58 0580
00000020: 3064 0500 516c 0680 6760 0580 8b5e 0580
00000030: d75b 0580 7d5f 0500 5164 0580 7659 0500
00000040: d05c 0580 7e61 0580 b85c 0500 586d 0500
00000050: f75b 0580 b360 0580 a968 0500 6071 0580
00000060: 5266 0500 a65e 0500 745a 0500 4c5c 0580
00000070: 1859 0500 f057 0580 d36b 0500 885e 0580
00000080: d55f 0580 2a5b 0500 1262 0500 825a 0580
00000090: d55c 0500 5ea0 0580 cf6f 0500 8158 0580
000000a0: 7f5f 0580 5a5b 0500 0859 0580 b361 0580
000000b0: 5962 0500 5f59 0500 055e 0500 b55d 0580
000000c0: 4163 0500 cd65 0500 ad63 0500 3f63 0580
000000d0: 055b 0580 857a 0580 5f63 0580 a65f 0500
000000e0: 425b 0500 0f5f 0500 115a 0580 b15b 0580
000000f0: f061 0580 2e62 0500 9562 0580 fe59 0500
00000100: ce64 0500 e257 0500 0860 0580 0960 0500
00000110: c15f 0580 875a 0500 485f 0580 f65e 0580
00000120: 8958 0580 f564 0580 4457 0500 675b 0580
00000130: 4e5d 0580 cf64 0580 1069 0500 d45b 0500
00000140: c95b 0500 8664 0500 ce5d 0580 6c5c 0500
00000150: b659 0580 2969 0580 2b63 0580 9559 0500
00000160: 1c59 0580 a4ca 0580 0f5f 0580 1260 0580
00000170: 4857 0500 6971 0580 975f 0580 c657 0500
00000180: 7aac 0580 c55c 0500 f657 0580 3f79 0500
00000190: a762 0580 aba7 0500 4468 0500 5762 0580
000001a0: 8f5d 0580 9157 0500 d35e 0580 fc63 0580
000001b0: 875e 0580 35d8 0500 9b65 0580 4565 0580
000001c0: 1065 0580 9058 0500 0964 0580 1167 0500
000001d0: 075a 0500 d364 0580 e057 0580 a15a 0580
000001e0: ec5c 0500 2962 0500 fd63 0500 d957 0580
000001f0: 0b64 0500 5467 0500 bf60 0500 e659 0500
00000200: 1d5c 0580 0966 0580 0a5c 0580 f75c 0600
00000210: a45b 0500 7861 0580 8b62 0500 e191 0580
00000220: d964 0500 9663 0580 9c5a 0500 7362 0500
00000230: a264 0580 7e6a 0500 765c 0580 a26c 0500
00000240: a663 0580 bb65 0580 8157 0500 b5a8 0500
00000250: a97b 0580 d764 0500 8c61 0580 3164 0580
00000260: c65c 0580 5e69 0580 6d5a 0500 155e 0580
00000270: 095a 0580 fa69 0500 b461 0580 1b58 0580
00000280: 2c64 0580 a260 0500 5fad 0600 b764 0500
00000290: 465e 0580 2a98 0580 f764 0500 4864 0580
000002a0: 165a 0580 6058 0580 4461 0500 a65b 0580
000002b0: 0363 0580 855d 0580 7f63 0580 165a 0500
000002c0: 8a57 0500 386e 0580 aa61 0580 6966 0580
000002d0: 0360 0580 825f 0500 975a 0500 8558 0500
000002e0: 4f5f 0580 6f63 0580 be63 0580 395a 0580
000002f0: 7a59 0500 b15f 0580 6f81 0500 3262 0500
00000300: 3666 0500 3664 0500 2b5d 0500 345f 0500
00000310: 2f58 0580 f35a 0500 0564 0580 9f60 0580
00000320: cb60 0500 895a 0580 8289 0580 e75b 0580
00000330: 2f58 0580 cc6f 0580 2d27 0680 2f60 0580
00000340: 655a 0500 295b 0580 609a 0500 8f7c 0580
00000350: 4c5f 0580 9123 0680 695f 0580 1964 0580
00000360: 8357 0580 dc62 0500 e25b 0580 9b5a 0580
00000370: 3064 0580 ab60 0500 4f5a 0500 125d 0580
00000380: 4064 0580 8763 0500 705c 0580 2865 0500
00000390: ae67 0580 0c88 0500 e15d 0500 585a 0500
000003a0: 206f 0580 6c5d 0500 f9c3 0600 1d60 0500
000003b0: cb67 0500 c05c 0580 4e57 0580 e558 0500
000003c0: 4960 0580 456b 0680 6b6f 0580 7560 0580
000003d0: 9660 0500 445c 0500 5b5d 0500 d85a 0500
000003e0: d662 0580 c661 0500 d75e 0500 d260 0580
000003f0: 0a63 0580 3261 0500 a362 0500 a85d 0580

ipd_embedding.weight f4 [2561, 8]
0.74935716 0.9355234 0.3372904 -0.3399814 0.3596031 0.24086712 1.1485358 0.621652
-0.05096937 0.048968107 0.044006627 -0.018089015 0.008715685 -0.059894405 -0.05161824 -0.05656569
-0.26985216 0.23303574 0.15754324 -0.07973781 -0.053869717 -0.34199086 -0.28170207 -0.19597805
0.043276213 -0.0069168685 -0.08192016 0.009054287 -0.023963623 0.11740102 0.050905798 0.19191588
-0.40943444 0.13912182 -0.049014192 0.0046872757 -0.025324047 0.054906197 -0.06942734 -0.10679024
-0.36694685 0.018833557 0.05122501 0.009439575 -0.005716036 -0.36698413 -0.53997266 -0.47315523
-0.71441585 0.9473745 0.46349093 -0.09418519 0.10002615 0.9126947 -0.4825613 -0.41346878
-0.47553924 0.46807396 0.18417005 0.0068069343 0.008781073 0.33797252 -0.81905836 -0.64577496
0.5154672 0.19122139 -0.46625224 0.19292365 -0.035306673 -0.29073992 0.021625401 0.94317955
-0.3966067 0.27998084 0.5796324 0.20968616 0.580567 0.37342522 0.33347183 0.91326547
0.64438266 0.6180799 0.12112344 -0.31676003 0.037968766 0.1590952 -0.021039136 -0.45942193
0.4551181 1.4362847 -0.12174002 -0.053476807 -0.14029938 -0.19143768 0.47403523 -1.2741349
-0.11298324 0.42310056 -0.7521957 -0.036002982 -0.06227998 -0.76103926 -0.8289549 -0.3143463
0.8415279 -0.12131737 -0.093875036 0.17807649 0.16578123 -0.7871827 -0.46846575 -0.417434
-0.41981518 -0.4342289 -0.1839372 -0.033072297 -0.027360883 -0.085121565 0.1294313 -0.10880191
-0.2527052 -0.4997811 0.42331997 0.06540089 -0.18049446 0.13086443 -0.696395 0.24227953
0.09882299 -0.29716375 -0.46803945 0.400921 -0.26227942 -0.11865368 -1.1316149 -0.7959493
-0.054677 0.08641419 0.41252378 0.18077506 -0.48085222 -0.24152923 -0.66309446 0.080054514
0.5573466 0.12045855 -0.0751778 0.3811429 -0.003599751 0.14266714 -0.9010737 -0.03703481
0.018400824 -0.07607611 0.53514 0.17386697 0.109055944 0.5417334 0.3211103 -0.5386895
1.1393087 -0.5007402 0.07598728 0.08953367 -0.5044131 -0.41048396 0.33292612 0.31327608
0.4853011 -0.2034021 -0.09501608 0.32438976 -0.38243487 0.20553884 1.2556685 -0.7528108
0.44261432 0.26326594 0.26354373 -0.16033016 0.1366608 -0.33737993 -0.37327105 0.12582003
0.4137548 -0.6956612 0.6880985 -0.16055293 -0.37083077 -0.13530457 -0.37891686 -0.1980505
-0.64409614 -0.2232943 0.20927994 0.08115076 0.1293469 -0.017584627 0.14721657 -0.4396144
-0.32869515 0.2614471 0.8524455 0.15211244 -0.061874248 -0.52936584 0.44301915 0.9166032
0.27753216 -0.14615074 0.6264419 0.00079663296 0.32873014 0.4219195 0.12806582 -0.69754946
-0.47407466 -0.17120825 0.23328263 0.02258899 -0.2377968 -0.7849107 1.3483672 0.009259275
-1.7327907 0.92696726 -0.12090483 0.3835626 0.16704506 0.37467724 0.13729653 0.89261717
-0.4073037 -0.64105415 0.056187022 -0.0776994 -0.25365502 -0.66872454 0.28763434 0.38392285
1.0341403 0.22294313 0.5603119 0.068508044 -0.017596496 -0.8344476 -0.03574399 -0.14154088
-1.3412577 -0.5594211 -0.7690239 -0.022447739 -0.32900757 -0.29322943 0.40604752 -0.088996634
00000000: dfd5 3f3f 767e 6f3f 54b1 ac3e 0b12 aebe
00000010: e61d b83e dfa5 763e 3903 933f 9624 1f3f
00000020: 42c5 50bd c892 483d 4b40 343d 6a2f 94bc
00000030: 3ccc 0e3c d653 75bd a66d 53bd 6db1 67bd
00000040: 102a 8abe eca0 6e3e 0453 213e 944d a3bd
00000050: 7ea6 5cbd 6d19 afbe 413b 90be 78ae 48be
00000060: 6642 313d e6a6 e2bb c2c5 a7bd 6f58 143c
00000070: 5c4f c4bc f26f f03d 9982 503d 9985 443e
00000080: 64a1 d1be f375 0e3e 1bc3 48bd b897 993b
00000090: 6074 cfbc 52e5 603d ec2f 8ebd d7b4 dabd
000000a0: 75e0 bbbe d548 9a3c 51d1 513d 72a8 1a3c
000000b0: 964d bbbb 58e5 bbbe a63b 0abf 6741 f2be
000000c0: f5e3 36bf 2387 723f af4e ed3e 2ae4 c0bd
000000d0: 83da cc3d 5ca6 693f 4612 f7be 2eb2 d3be
000000e0: e179 f3be 64a7 ef3e 1397 3c3e b40c df3b
000000f0: 7dde 0f3c bc0a ad3e cfad 51bf 8251 25bf
00000100: a9f5 033f 8acf 433e 9db8 eebe c78d 453e
00000110: bb9d 10bd dddb 94be c127 b13c 3774 713f
00000120: 0910 cbbe a659 8f3e ca62 143f f8b7 563e
00000130: 0aa0 143f 9731 bf3e d2bc aa3e c4cb 693f
00000140: 43f6 243f 7c3a 1e3f 910f f83d 5f2e a2be
00000150: 2385 1b3d dae9 223e 445a acbc 5a39 ebbe
00000160: 3d05 e93e 2dd8 b73f d552 f9bd 7f0a 5bbd
00000170: a4aa 0fbe 3d08 44be bfb4 f23e da16 a3bf
00000180: c263 e7bd a3a0 d83e e68f 40bf dd77 13bd
00000190: 4b19 7fbd 78d3 42bf 6336 54bf 00f2 a0be
000001a0: 5f6e 573f 3e75 f8bd 8e41 c0bd af59 363e
000001b0: 8ec2 293e ce84 49bf beda efbe e9b9 d5be
000001c0: 04f2 d6be 4053 debe 095a 3cbe d176 07bd
000001d0: ee23 e0bc 3754 aebd a489 043e 89d3 debd
000001e0: 9362 81be 4fe3 ffbe 65bd d83e e7f0 853d
000001f0: 8ad3 38be 5301 063e f146 32bf 2018 783e
00000200: b563 ca3d d925 98be dea2 efbe 8445 cd3e
00000210: 7d49 86be b300 f3bd c2d8 90bf 55c3 4bbf
00000220: fdf4 5fbd ecf9 b03d 5136 d33e 191d 393e
00000230: 4332 f6be 7053 77be 8fc0 29bf 9ff3 a33d
00000240: 44ae 0e3f f9b2 f63d d2f6 99bd 2a25 c33e
00000250: cde9 6bbb 5617 123e c4ac 66bf d0b1 17bd
00000260: 53bd 963c cbcd 9bbd effe 083f 2f0a 323e
00000270: b958 df3d 0aaf 0a3f 9268 a43e 8ee7 09bf
00000280: ded4 913f 8230 00bf 389f 9b3d 6e5d b73d
00000290: 3821 01bf f42a d2be 4b75 aa3e b965 a03e
000002a0: 6379 f83e a448 50be ca97 c2bd 6a16 a63e
000002b0: 81ce c3be c678 523e bfb9 a03f 35b8 40bf
000002c0: 589e e23e cbca 863e 34ef 863e 972d 24be
000002d0: cff0 0b3e 10bd acbe 621d bfbe f7d6 003e
000002e0: abd7 d33e da16 32bf 3927 303f fd67 24be
000002f0: 88dd bdbe 488d 0abe 6401 c2be c0cd 4abe
00000300: 7ce3 24bf 43a7 64be 7b4d 563e 5f32 a63d
00000310: 8473 043e a30d 90bc f1bf 163e 2315 e1be
00000320: bb4a a8be 65dc 853e de39 5a3f 5dc3 1b3e
00000330: da6f 7dbd 8584 07bf 68d3 e23e 82a6 6a3f
00000340: b218 8e3e 8aa8 15be 7f5e 203f 22d5 503a
00000350: 514f a83e d505 d83e b023 033e 9a92 32bf
00000360: eab9 f2be 3751 2fbe a4e1 6e3e 8c0c b93c
00000370: 0181 73be e8ef 48bf 4c97 ac3f 37b4 173c
00000380: 16cc ddbf ba4d 6d3f f49c f7bd 5162 c43e
00000390: dc0d 2b3e b2d5 bf3e 7697 0c3e 8f82 643f
000003a0: 1c8a d0be 201c 24bf 5d24 663d dd20 9fbd
000003b0: 12df 81be 8831 2bbf cf44 933e 8991 c43e
000003c0: b65e 843f 344b 643e 9a70 0f3f f24d 8c3d
000003d0: 8726 90bc 5c9e 55bf 4a68 12bd 18f0 10be
000003e0: 55ae abbf 3936 0fbf c0de 44bf 52e4 b7bc
000003f0: ae73 a8be 2b22 96be 76e5 cf3e de43 b6bd

rnn.x2h.weight f4 [16, 12]
0.011068933 0.082845755 -0.106686026 0.24118444 -0.09526819 0.23044552 0.066303335 0.096709475
0.17351587 0.07613759 -0.07337474 0.058189686 -0.10430073 0.11718926 0.30041543 0.06162091
-0.2831478 -0.49690643 -0.08695014 0.060103487 -0.46805975 -0.024958963 0.18143211 -0.15600479
0.22952652 0.10248673 -0.15977167 0.0430194 0.03712055 0.14305222 0.29910642 0.038998824
0.16458715 0.078491144 -0.0149400225 -0.33156452 -0.20814086 0.06803328 0.30649713 -0.021251548
-0.18127626 -0.111274906 -0.10222359 -0.18191653 0.01907834 -0.09489398 -0.14018191 -0.2176069
-0.19544367 -0.03201951 0.21536587 0.03729133 0.23153724 0.058508888 0.13492103 0.071885794
-0.23536596 -0.1138286 -0.008336392 0.19961306 0.1514738 0.2195316 -0.07806315 -0.093072124
-0.10212214 -0.013490497 0.09166369 -0.011718351 0.14817806 -0.12015531 -0.09827578 -0.3128098
0.5851808 -0.05844724 -0.1288871 0.006824324 -0.24249847 0.29111168 -0.013436692 0.23048015
0.22238795 -0.10533866 -0.08118326 0.2344285 -0.30050853 -0.0026727964 0.22198953 0.017521722
0.08936125 -0.105210826 -0.12459634 -0.06495185 -0.3525567 0.119661614 -0.2741724 0.29213652
-0.12508753 0.13390979 -0.055723727 -0.16968371 -0.1281215 0.049468588 0.2590215 0.004390928
0.050103303 -0.2581855 0.07941156 -0.09490475 0.31373587 0.050096862 -0.17626439 0.017394684
0.15580651 0.19000885 -0.050346494 0.2796534 0.28167996 -0.15085258 -0.08440835 0.2570429
0.13061209 0.24784657 -0.15729144 -0.30583984 -0.21890856 -0.16628511 -0.009616565 0.0815517
0.041528217 -0.071074255 -0.00873574 -0.1297565 -0.08595337 0.057876352 -0.19229843 0.33592245
0.0038085987 0.22326817 0.14928381 0.16490814 -0.16070455 0.31078255 -0.23509848 0.106645755
0.103674896 -0.30544254 -0.29302028 0.016030218 -0.11919552 0.5531905 0.38856384 -0.2034304
0.18390141 0.23683912 0.38626578 -0.1617702 -0.31940287 -0.29135093 -0.030433375 0.08368809
0.11900639 -0.44787833 -0.24967143 -0.22666425 -0.07698237 -0.21172404 0.03270669 0.10392363
-0.14703858 0.3513624 0.036142524 -0.337658 0.025748683 -0.27714944 0.012191588 0.0011528763
-0.23736426 -0.41353363 0.24413227 -0.17765148 0.3765407 -0.23727004 -0.2888922 0.27611095
-0.19942138 0.07017818 0.2041735 0.10543666 0.08599596 0.35445473 -0.056348145 -0.11308354
00000000: 785a 353c 09ab a93d 347e dabd 0ef9 763e
00000010: f81b c3bd e9f9 6b3e 0bca 873d 9e0f c63d
00000020: 25ae 313e 06ee 9b3d 7f45 96bd 4f58 6e3d
00000030: 9f9b d5bd ec00 f03d 0dd0 993e 3566 7c3d
00000040: c0f8 90be 856a febe ea12 b2bd 132f 763d
00000050: 87a5 efbe bd76 ccbc 57c9 393e b8bf 1fbe
00000060: 0009 6b3e 90e4 d13d 2f9b 23be 1c35 303d
00000070: b80b 183d 487c 123e 7a24 993e 3bbd 1f3d
00000080: 8989 283e f7bf a03d ffc6 74bc d3c2 a9be
00000090: e122 55be 0855 8b3d 31ed 9c3e ba17 aebc
000000a0: 7ca0 39be 19e4 e3bd 9a5a d1bd 5448 3abe
000000b0: 2e4a 9c3c c657 c2bd d98b 0fbe 58d4 5ebe
000000c0: 6322 48be e426 03bd df88 5c3e cbbe 183d
000000d0: 1918 6d3e 04a7 6f3d bd28 0a3e dc38 933d
000000e0: c603 71be f81e e9bd 5d95 08bc 5e67 4c3e
000000f0: f31b 1b3e e4cc 603e 93df 9fbd 999c bebd
00000100: 6a25 d1bd 3f07 5dbc 2cba bb3d 54fe 3fbc
00000110: fdbb 173e fd13 f6bd d044 c9bd 9b28 a0be
00000120: 69ce 153f 6066 6fbd fbfa 03be 949e df3b
00000130: 8551 78be 970c 953e 9225 5cbc fd02 6c3e
00000140: abb9 633e ccbb d7bd 6943 a6bd 060e 703e
00000150: 41dc 99be 152a 2fbb 3951 633e b789 8f3c
00000160: 0803 b73d c678 d7bd 5e2c ffbd 7a05 85bd
00000170: 5082 b4be 2611 f53d 5360 8cbe eb92 953e
00000180: f216 00be a61f 093e 903e 64bd 91c1 2dbe
00000190: 4832 03be 939f 4a3d 779e 843e c6e1 8f3b
000001a0: 1f39 4d3d e430 84be 87a2 a23d 6c5d c2bd
000001b0: fda1 a03e 5e32 4d3d a77e 34be 4c7f 8e3c
000001c0: be8b 1f3e ae91 423e 2038 4ebd bb2e 8f3e
000001d0: 5b38 903e 1979 1abe 49de acbd 219b 833e
000001e0: 2dbf 053e 7ecb 7d3e 0211 21be 0a97 9cbe
000001f0: 9129 60be a546 2abe cc8e 1dbc 9404 a73d
00000200: 7e19 2a3d 618f 91bd 5920 0fbc e3de 04be
00000210: 5208 b0bd c10f 6d3d e1e9 44be 07fe ab3e
00000220: af99 793b 69a0 643e dbdd 183e aedd 283e
00000230: bc8f 24be e41e 9f3e a8bd 70be 1769 da3d
00000240: 8153 d43d f762 9cbe c106 96be ce51 833c
00000250: c81c f4bd e59d 0d3f d7f1 c63e 0f50 50be
00000260: a750 3c3e f485 723e a1c4 c53e 16a7 25be
00000270: c688 a3be f32b 95be 6a4f f9bc a964 ab3d
00000280: 9fb9 f33d 4f50 e5be dea9 7fbe ac1a 68be
00000290: efa8 9dbd 30ce 58be 73f7 053d ead5 d43d
000002a0: 4891 16be c6e5 b33e 2f0a 143d 82e1 acbe
000002b0: e7ee d23c 88e6 8dbe 3abf 473c 1c1c 973a
000002c0: 9e0f 73be aeba d3be cffd 793e 45ea 35be
000002d0: f1c9 c03e ebf6 72be aee9 93be 6a5e 8d3e
000002e0: 1e35 4cbe 94b9 8f3d dc12 513e 2def d73d
000002f0: a61e b03d 177b b53e 50cd 66bd 5898 e7bd

rnn.x2h.bias f4 [16]
0.0650822 0.11504468 -0.0060252273 -0.121503994 -0.19685319 -0.20826922 0.032546036 0.2913972
-0.41232854 0.21761179 -0.14859425 0.2921189 -0.13439862 0.21191624 -0.025284212 -0.107949324
00000000: d149 853d 8c9c eb3d 456f c5bb 16d7 f8bd
00000010: e293 49be 8744 55be fe4e 053d 0432 953e
00000020: ba1c d3be a0d5 5e3e 1729 18be 9c90 953e
00000030: cb9f 09be 9200 593e d620 cfbc 8914 ddbd

rnn.h2h.weight f4 [16, 16]
0.3034074 0.13853842 -0.117328815 -0.02220073 0.111191005 -0.14111377 -0.046363365 0.33350992
-0.14957091 -0.089156024 -0.29620424 -0.32927474 -0.26987293 0.53196007 0.070484616 -0.4815015
-0.099269204 0.121627636 -0.10000546 0.19184956 -0.12960207 0.16433609 -0.020332068 0.041101716
0.041930217 -0.55000097 -0.10629708 -0.15370157 -0.11949708 0.10313821 0.3840193 -0.23162934
-0.098628394 0.057800595 0.08190469 -0.008785389 -0.18666202 0.23028229 -0.031269282 -0.13881019
0.2587372 -0.14141847 0.2581002 0.037411824 0.048588116 0.025091588 0.04117575 -0.20670412
0.107677884 0.31432512 0.15037511 0.06875216 0.117857836 -0.10293099 -0.44554108 -0.2694823
-0.098521344 -0.2870533 -0.105537996 -0.27973366 -0.1565649 -0.03716999 0.20921884 -0.23184803
0.07791791 -0.20680699 -0.28576377 0.18454883 0.21522829 -0.47028583 -0.17746988 0.4127123
-0.35028258 0.13130456 -0.31018612 0.091932125 -0.31404117 0.03298599 0.025166402 0.10379771
-0.19033621 0.020304304 0.010749371 0.06269564 -0.027446698 0.24314724 0.1701511 -0.20103984
0.029814146 -0.14381923 0.17812371 0.101989776 0.15702777 0.10182626 -0.15351671 0.18699817
-0.24087662 -0.28521562 0.12462776 0.004261088 0.27565175 0.049019735 0.27891162 0.06409213
-0.071250945 0.22458072 0.1836634 0.0062423255 0.123177566 0.06941517 -0.19014232 0.44518584
0.23593464 0.011699026 -0.26248384 -0.1390306 0.27495694 0.021141052 0.07300269 0.28342286
0.05092246 0.29537928 -0.28795922 -0.1864483 -0.11306404 -0.060905915 0.207913 0.028369563
-0.3865962 -0.065367 0.0059681 -0.21302073 -0.018806258 0.0044700075 0.057518966 -0.23002793
0.04322682 -0.26877004 0.2358546 -0.05688524 0.12613596 -0.3717606 -0.19164555 -0.004129332
-0.16272435 -0.57840437 -0.124856874 -0.21555752 -0.07535678 -0.08650709 0.3927752 0.27928838
-0.1498956 0.5466695 0.048187878 0.29527667 0.008144691 0.22166938 -0.41740984 0.16400196
-0.26800916 0.00046597546 0.1723748 -0.06525674 -0.14628083 0.17570235 0.0045426344 -0.19113602
0.2070766 -0.073010705 0.13514954 0.13102563 0.21006532 -0.05640615 -0.0104671875 -0.012554721
-0.19842222 -0.30852914 0.089662045 -0.17004195 -0.25489262 0.047206372 0.28001302 -0.1968286
-0.07417203 0.24453118 0.24951151 0.1634948 -0.11306799 -0.26336595 -0.3059077 0.13933012
-0.13616453 -0.38190252 -0.042672798 0.018707253 0.103210844 -0.13707227 -0.0649464 0.03598014
0.1417816 0.18054946 -0.038082 -0.245686 0.2261698 -0.025835773 0.20678379 -0.150066
-0.09480287 0.46188316 0.18215005 0.39376137 -0.23590794 -0.09606184 -0.6224055 0.18651085
-0.019739714 -0.12851639 -0.16876611 0.18665527 -0.10871616 0.60792965 0.029965147 -0.3634182
0.30409765 0.088410676 0.20392147 -0.039502095 0.0726669 -0.11900372 -0.41074595 -0.22884575
-0.21566586 -0.3104391 0.14234902 -0.34458554 -0.1508609 0.090281956 0.17795184 -0.2273133
-0.107142985 0.023063283 -0.012878567 0.088067956 0.17384456 -0.066049576 0.4607426 0.16359855
0.23482901 0.45706365 -0.2316694 -0.22307569 0.11171946 -0.31774387 -0.1595309 0.5318197
00000000: 3758 9b3e 04dd 0d3e 174a f0bd 4ede b5bc
00000010: 1cb8 e33d 2180 10be 83e7 3dbd d0c1 aa3e
00000020: 1e29 19be 6f97 b6bd 15a8 97be b396 a8be
00000030: c92c 8abe 892e 083f 3d5a 903d 5d87 f6be
00000040: a74d cbbd e917 f93d aacf ccbd 3674 443e
00000050: 68b6 04be b847 283e 708f a6bc 465a 283d
00000060: 05bf 2b3d ddcc 0cbf 49b2 d9bd f263 1dbe
00000070: e3ba f4bd 203a d33d 2d9e c43e 3e30 6dbe
00000080: affd c9bd 51c0 6c3d a5bd a73d 98f0 0fbc
00000090: 5424 3fbe 1fcf 6b3e 3814 00bd 4224 0ebe
000000a0: 3479 843e 01d0 10be b625 843e 243d 193d
000000b0: 5504 473d e08c cd3c e7a7 283d 3faa 53be
000000c0: 3986 dc3d 39ef a03e effb 193e efcd 8c3d
000000d0: 735f f13d 7ccd d2bd f61d e4be 96f9 89be
000000e0: 8fc5 c9bd a6f8 92be 4e24 d8bd 4039 8fbe
000000f0: 8d52 20be 8f3f 18bd 773d 563e 9269 6dbe
00000100: 6d93 9f3d 36c5 53be a14f 92be 5efa 3c3e
00000110: ce64 5c3e 4ec9 f0be aaba 35be 074f d33e
00000120: 3d58 b3be b474 063e b7d0 9ebe e946 bc3d
00000130: 01ca a0be 511c 073d c529 ce3c e593 d43d
00000140: 7fe7 42be 3655 a63c 211e 303c 9266 803d
00000150: e6d7 e0bc 97fb 783e 173c 2e3e 63dd 4dbe
00000160: cc3c f43c 5945 13be 1066 363e 04e0 d03d
00000170: e3cb 203e 498a d03d 7c33 1dbe 737c 3f3e
00000180: 5ca8 76be c807 92be d73c ff3d 99a0 8b3b
00000190: 3a22 8d3e ebc8 483d 81cd 8e3e bc42 833d
000001a0: 04ec 91bd 7df8 653e 4212 3c3e 6c8c cc3b
000001b0: 8544 fc3d 8a29 8e3d abb4 42be 66ef e33e
000001c0: da98 713e 46ad 3f3c 4864 86be 0a5e 0ebe
000001d0: 28c7 8c3e 0030 ad3c 6f82 953d cd1c 913e
000001e0: 1294 503d f43b 973e 646f 93be 4eec 3ebe
000001f0: 1f8e e7bd 7b78 79bd 25e7 543e 4967 e83c
00000200: f0ef c5be 22df 85bd 0d90 c33b 1b22 5abe
00000210: 950f 9abc 2479 923b 0299 6b3d 718c 6bbe
00000220: 9b0e 313d 3a9c 89be de83 713e 7f00 69bd
00000230: c929 013e 6857 bebe bb3e 44be 594f 87bb
00000240: 36a1 26be 4f12 14bf f6b4 ffbd 1cbb 5cbe
00000250: a854 9abd a12a b1bd d519 c93e e3fe 8e3e
00000260: 3b7e 19be 88f2 0b3f a760 453d 812e 973e
00000270: 4f71 053c 4cfd 623e beb6 d5be 21f0 273e
00000280: 7f38 89be 2b4e f439 0583 303e 53a5 85bd
00000290: a4ca 15be 51eb 333e 61da 943b 29b9 43be
000002a0: e30b 543e a386 95bd a464 0a3e 952b 063e
000002b0: 5d1b 573e 230a 67bd 917e 2bbc 51b2 4dbc
000002c0: 322f 4bbe 88f7 9dbe bca0 b73d 7a1f 2ebe
000002d0: 4981 82be 785b 413d de5d 8f3e 708d 49be
000002e0: 81e7 97bd 6266 7a3e f27f 7f3e 2e6b 273e
000002f0: 3190 e7bd e7d7 86be ef9f 9cbe 8eac 0e3e
00000300: b76e 0bbe ba88 c3be acc9 2ebd f43f 993c
00000310: 3560 d33d ac5c 0cbe 9e02 85bd e95f 133d
00000320: 322f 113e f5e1 383e dffb 1bbd 1c95 7bbe
00000330: 0e99 673e 8ba5 d3bc 21bf 533e e7aa 19be
00000340: 0228 c2bd f37b ec3e 8b85 3a3e 179b c93e
00000350: da91 71be 12bc c4bd f855 1fbf b3fc 3e3e
00000360: 2eb5 a1bc cd99 03be 06d1 2cbe 8f22 3f3e
00000370: 94a6 debd 47a1 1b3f 7879 f53c f311 babe
00000380: b0b2 9b3e a810 b53d cad0 503e f3cc 21bd
00000390: 62d2 943d 39b8 f3bd 4b4d d2be 8a56 6abe
000003a0: 83d7 5cbe e0f1 9ebe f1c3 113e 846d b0be
000003b0: 487b 1abe bfe5 b83d 0239 363e d1c4 68be
000003c0: c86d dbbd 36ef bc3c a000 53bc f95c b43d
000003d0: 4f04 323e 0045 87bd 74e6 eb3e 6186 273e
000003e0: 0477 703e 3f04 ea3e be3a 6dbe f46d 64be
000003f0: 2ccd e43d 53af a2be 115c 23be 5625 083f

rnn.h2h.bias f4 [16]
0.14317569 -0.16788483 -0.09341461 0.08171379 -0.071906164 -0.17401408 0.24804167 0.20845823
-0.1861139 0.43763 -0.07928408 0.10250884 -0.2716708 0.11005921 0.1285595 -0.2503693
00000000: a69c 123e 00ea 2bbe 2950 bfbd 8f59 a73d
00000010: 8a43 93bd bf30 32be a3fe 7d3e 1376 553e
00000020: a494 3ebe 0a11 e03e b15f a2bd 28f0 d13d
00000030: 6f18 8bbe b966 e13d 1aa5 033e 6830 80be

fc1.weight f4 [12, 18]
-0.3232689 -0.30497944 0.18612787 0.022265589 -0.39508384 -0.32420188 0.07905306 -0.23250802
0.20814906 0.18538877 -0.108369246 0.2385853 0.2220546 0.050518136 -0.0560687 -0.06896942
-0.3147547 -0.21944799 0.17614745 0.29949299 -0.17954116 0.030391935 0.06662355 0.13605788
-0.2231793 0.32459342 0.012084092 0.2659888 0.29729816 0.059844427 -0.18500324 -0.0007921368
-0.024042096 0.08906179 0.19207741 0.30731896 0.28312415 0.33933878 -0.1664463 0.35898224
0.35072625 0.18979669 -0.14246611 0.17045109 -0.02662112 0.031331763 0.16898164 -0.012582734
-0.04368742 0.087780595 -0.09765554 0.17201476 0.20887263 0.21154347 -0.09202656 -0.31722602
0.016180826 -0.19683452 0.0019218504 -0.400767 0.054913048 -0.06488228 0.14298044 -0.15398113
0.041890483 -0.16270263 0.025968462 -0.19562973 0.15492089 -0.23386446 -0.1941466 -0.021401387
-0.06102331 -0.00994364 -0.17743911 -0.2293561 0.18661769 0.09238674 -0.21995467 -0.032369282
-0.13967283 0.32148796 0.021781014 -0.18039544 0.1318859 0.11659838 -0.18120721 -0.26754743
0.003334879 0.068302 -0.2829 -0.49020782 0.1402719 -0.23297308 -0.36397514 -0.10331061
0.16350949 -0.08448428 0.24825284 0.2198492 -0.23188959 0.3222577 0.18661068 -0.007957896
-0.04933428 -0.30922508 -0.04408031 -0.031034531 0.027658625 -0.33612603 0.064995885 -0.28331396
-0.033756703 0.07767523 -0.012395758 -0.35036254 -0.025014136 -0.31711045 0.043449614 0.3312493
-0.018435352 -0.110999346 -0.26399168 -0.37133884 0.073369734 -0.3470655 -0.22064276 -0.11653952
0.08727813 -0.14683804 -0.36841944 -0.09768837 -0.03331463 -0.11217618 0.21907797 0.03050498
-0.13754839 0.045568824 0.013232754 0.090594746 0.038875476 -0.3916999 -0.033696454 -0.13609178
-0.42869428 -0.33509403 0.061044242 -0.3933574 -0.3026807 -0.1346619 0.16513589 -0.102661
-0.05386922 0.2236726 -0.08269596 0.26918057 0.070869945 0.09920731 -0.06535294 -0.23139362
-0.03178086 0.09471384 -0.037885156 -0.35956496 0.12043244 -0.18560772 0.09987537 -0.060549814
0.094777614 -0.04971921 0.39504856 -0.32246524 -0.14777052 0.09152891 0.13165683 -0.039914154
0.041165177 -0.050290287 -0.18141472 -0.29483584 0.35147926 0.023401974 -0.12415752 0.23534948
0.020176556 0.12824579 -0.042561803 0.08722911 -0.088056214 0.115994476 0.18227513 -0.02705947
-0.24240384 0.0011324672 -0.081486724 0.10820521 0.15673316 0.16973004 0.020937422 -0.078872494
0.13554884 -0.3389687 -0.2523785 -0.34829426 -0.023762265 0.13521889 -0.10100443 0.114369184
-0.28777957 0.0109384 0.15740247 -0.28231505 0.24195491 -0.18249652 0.046714302 -0.14651363
00000000: 8083 a5be 4426 9cbe 4e98 3e3e 5366 b63c
00000010: 6e48 cabe cafd a5be 92e6 a13d 9516 6ebe
00000020: 0725 553e 8ed6 3d3e b2f0 ddbd b44f 743e
00000030: 4862 633e 1bec 4e3d 4ba8 65bd d73f 8dbd
00000040: 8727 a1be f9b6 60be ff5f 343e 2557 993e
00000050: a3d9 37be 82f8 f83c ee71 883d c252 0b3e
00000060: 1d89 64be 1c31 a63e 5bfc 453c af2f 883e
00000070: 7737 983e 6e1f 753d 7d71 3dbe 67a7 4fba
00000080: eef3 c4bc 0766 b63d f1af 443e e958 9d3e
00000090: a6f5 903e d0bd ad3e e670 2abe 85cc b73e
000000a0: 6492 b33e 105a 423e a3e2 11be bb8a 2e3e
000000b0: 8914 dabc bc55 003d 8609 2d3e d027 4ebc
000000c0: 95f1 32bd 50c6 b33d a1ff c7bd a324 303e
000000d0: b5e2 553e da9e 583e 6c78 bcbd 736b a2be
000000e0: a78d 843c fd8e 49be 99e6 fb3a 5531 cdbe
000000f0: 81ec 603d 00e1 84bd 7769 123e 3bad 1dbe
00000100: 5b95 2b3d 859b 26be d0bb d43c 2953 48be
00000110: 95a3 1e3e 2a7a 6fbe 5ece 46be f651 afbc
00000120: 94f3 79bd a6ea 22bc 99b2 35be 53dc 6abe
00000130: b518 3f3e 4235 bd3d cc3b 61be a795 04bd
00000140: 6506 0fbe 129a a43e 196e b23c 95b9 38be
00000150: 190d 073e 22cb ee3d 628e 39be fafb 88be
00000160: fc8d 5a3b ebe1 8b3d 45d8 90be 85fc fabe
00000170: 70a3 0f3e 7f90 6ebe f35a babe 8394 d3bd
00000180: 086f 273e 1806 adbd fe35 7e3e 2620 613e
00000190: 7774 6dbe f6fe a43e df16 3f3e d661 02bc
000001a0: be12 4abd c052 9ebe 8e8d 34bd 213c febc
000001b0: 5794 e23c b618 acbe 901c 853d 870e 91be
000001c0: 7844 0abd 3114 9f3d 9417 4bbc b862 b3be
000001d0: 72ea ccbc 4d5c a2be 39f8 313d 8299 a93e
000001e0: bc05 97bc a053 e3bd eb29 87be 2020 bebe
000001f0: df42 963d 92b2 b1be 2df0 61be 46ac eebd
00000200: e0be b23d b65c 16be 79a1 bcbe d710 c8bd
00000210: ec74 08bd a0bc e5bd fa55 603e 94e5 f93c
00000220: 7cd9 0cbe 60a6 3a3d 31ce 583c bd89 b93d
00000230: e43b 1f3d e48c c8be 4b05 0abd a55b 0bbe
00000240: d17d dbbe 7291 abbe 8709 7a3d 2466 c9be
00000250: f7f8 9abe cfe4 09be 6219 293e ee3f d2bd
00000260: f9a5 5cbd 6e0a 653e 805c a9bd 09d2 893e
00000270: 4324 913d 342d cb3d c3d7 85bd 73f2 6cbe
00000280: a62c 02bd 54f9 c13d 772d 1bbd e618 b8be
00000290: 48a5 f63d f30f 3ebe 758b cc3d 1503 78bd
000002a0: c41a c23d 5fa6 4bbd ce43 ca3e 2a1a a5be
000002b0: 2851 17be 8273 bb3d 0cd1 063e 067d 23bd
000002c0: d19c 283d 30fd 4dbd c8c4 39be b9f4 96be
000002d0: 17f5 b33e 7fb5 bf3c 4c46 febd 74ff 703e
000002e0: 4e49 a53c dd52 033e 4955 2ebd 2da5 b23d
000002f0: d156 b4bd 838e ed3d 55a6 3a3e d2ab ddbc
00000300: b638 78be 4b6f 943a 83e2 a6bd b19a dd3d
00000310: a87e 203e b6cd 2d3e f584 ab3c e787 a1bd
00000320: 51cd 0a3e 4e8d adbe c137 81be a053 b2be
00000330: 15a9 c2bc d276 0a3e 69db cebd 643a ea3d
00000340: d857 93be fa36 333c 1d2e 213e 998b 90be
00000350: 07c3 773e 5ee0 3abe 7f57 3f3d ab07 16be

fc1.bias f4 [12]
-0.0492271 -0.111049995 0.21736525 -0.12680718 0.2690655 0.05227913 -0.11319639 0.19614425
0.046926837 0.04209147 -0.24067503 0.36005455
00000000: 5ba2 49bd 2e6e e3bd ff94 5e3e bed9 01be
00000010: f4c2 893e a422 563d 82d3 e7bd 0ada 483e
00000020: 5b36 403d 1b68 2c3d 8473 76be 1259 b83e

fc2.weight f4 [7, 16]
0.1538119 0.5615631 -0.2980442 0.41860554 0.55981153 -0.49419576 -0.52637804 0.42818487
-0.3616847 -0.44699237 -0.29800665 -0.7443109 -0.34246504 0.40592134 0.6872062 -0.6214373
-0.47038218 -0.13686708 0.33222494 -0.056242216 -0.61492145 0.33405477 0.15359637 -0.49716994
0.60714906 -0.058526766 0.56395465 0.31103882 0.47482884 -0.26371083 -0.18276961 0.22171961
-0.567415 -0.11510858 0.43940324 -0.052798405 -0.46495843 0.47132385 0.22602397 -0.44572958
0.6528734 -0.07305774 0.38776645 0.15901427 0.3907094 -0.34875113 -0.2695517 0.18747184
-0.48174345 -0.09124152 0.37453246 -0.15965326 -0.67635113 0.36103138 0.09306286 -0.4571704
0.5815119 -0.06336099 0.32777676 0.2867685 0.2982222 -0.33660161 -0.18288542 0.2729237
-0.5422585 -0.13081728 0.58522034 -0.20343973 -0.5334376 0.56985277 0.13698883 -0.28756693
0.5829193 -0.04918793 0.3084573 0.18452074 0.29112002 -0.11298984 -0.21036433 0.32331118
0.35736212 -0.7005194 -0.50905114 -0.8774237 0.613303 -0.6530385 0.60133016 0.37580597
-0.6553444 0.43978882 -0.5454084 0.61812073 -0.6328502 -1.0063579 -0.8702451 0.8328866
-0.37277213 -0.13204667 0.60954237 -0.061293427 -0.64267385 0.2923154 0.17553419 -0.5454805
0.3271934 -0.05614504 0.56740075 0.14609689 0.34977242 -0.3845408 -0.20632184 0.32982004
00000000: de80 1d3e 99c2 0f3f 4099 98be 7753 d63e
00000010: cf4f 0f3f 3a07 fdbe b6c0 06bf 0c3b db3e
00000020: bd2e b9be 2fdc e4be 5494 98be 298b 3ebf
00000030: 9457 afbe ecd4 cf3e bfec 2f3f 8416 1fbf
00000040: efd5 f0be e226 0cbe 6319 aa3e 3d5e 66bd
00000050: 7e6b 1dbf 3a09 ab3e 5e48 1d3e 0f8d febe
00000060: 1f6e 1b3f c3b9 6fbd 555f 103f 7b40 9f3e
00000070: c41c f33e 1b05 87be f527 3bbe 770a 633e
00000080: 1c42 11bf 0cbe ebbd 76f9 e03e 2443 58bd
00000090: 080f eebe 5c51 f13e d472 673e ab36 e4be
000000a0: b622 273f 4c9f 95bd 5389 c63e a3d4 223e
000000b0: 100b c83e 828f b2be ae02 8abe 9ef8 3f3e
000000c0: 14a7 f6be d6dc babd b8c2 bf3e 257c 23be
000000d0: 5925 2dbf 1bd9 b83e be97 be3d 3d12 eabe
000000e0: f7dd 143f 68c3 81bd 5bd2 a73e 52d3 923e
000000f0: 95b0 983e 0c57 acbe 5146 3bbe a8bc 8b3e
00000100: 74d1 0abf f7f4 05be 00d1 153f 8152 50be
00000110: 5e8f 08bf dfe1 113f cd46 0c3e f93b 93be
00000120: 333a 153f 4879 49bd 1dee 9d3e 01f3 3c3e
00000130: af0d 953e 3867 e7bd bf69 57be 0b89 a53e
00000140: 2bf8 b63e 3d55 33bf 2d51 02bf d79e 60bf
00000150: 6d01 1d3f 882d 27bf c6f0 193f a469 c03e
00000160: a7c4 27bf 002c e13e e39f 0bbf 293d 1e3f
00000170: 7902 22bf 56d0 80bf 62c8 5ebf 0e38 553f
00000180: fddb bebe 3e37 07be f80a 1c3f d10e 7bbd
00000190: 4686 24bf 5daa 953e 3cbf 333e 9ca4 0bbf
000001a0: e585 a73e 57f8 65bd 2d41 113f 6c9a 153e
000001b0: 5f15 b33e 88e2 c4be 0846 53be 2cde a83e

fc2.bias f4 [7]
0.24336474 -0.16987194 -0.19341718 -0.34654665 -0.37534827 0.5532414 -0.25332165
00000000: 9b34 793e e9f2 2dbe 270f 46be 906e b1be
00000010: a62d c0be 3aa1 0d3f 60b3 81be
