emulation/models/checkpoint/rnn/best_RNNTeacher_iscxvpn.pth (torch, 168858 bytes, 16 tensors)

len_embedding.weight f4 [1501, 10]
-4.9417e-40 -4.92083e-40 4.95432e-40 4.92761e-40 -4.94534e-40 4.9217e-40 5.11963e-40 -4.90785e-40
-4.96777e-40 4.9459e-40 -4.91065e-40 -4.91246e-40 -6.27388e-40 -4.92772e-40 4.92447e-40 -4.94143e-40
-4.94267e-40 4.9397e-40 -4.91445e-40 4.93938e-40 4.93453e-40 -4.9381e-40 -6.15281e-40 -4.95265e-40
5.11939e-40 -4.91556e-40 4.91316e-40 -4.93556e-40 -4.94807e-40 -4.95751e-40 4.91919e-40 4.94598e-40
4.94967e-40 4.92213e-40 -4.92325e-40 -4.95597e-40 -4.93896e-40 4.92392e-40 4.938e-40 4.92444e-40
-4.96577e-40 -4.91078e-40 4.96002e-40 -4.94244e-40 -4.93083e-40 -4.92681e-40 -4.92437e-40 4.95056e-40
-4.9413e-40 4.9187e-40 4.94293e-40 4.95047e-40 -6.0811e-40 4.90683e-40 4.90523e-40 4.94302e-40
4.92332e-40 -4.94328e-40 -4.95505e-40 4.93116e-40 4.93188e-40 -4.95229e-40 -4.9133e-40 4.92534e-40
4.93383e-40 4.91008e-40 4.9071e-40 4.93002e-40 4.90973e-40 -4.9218e-40 -4.9466e-40 4.93181e-40
-4.96416e-40 4.964e-40 5.2148e-40 4.93421e-40 4.96966e-40 -4.93099e-40 4.9097e-40 -4.95154e-40
-6.08042e-40 4.92285e-40 4.92046e-40 4.92862e-40 -4.93546e-40 -4.94371e-40 4.9072e-40 5.18307e-40
-4.99591e-40 -4.94996e-40 -6.26928e-40 -6.21634e-40 -4.955e-40 4.94527e-40 -4.96076e-40 -4.93742e-40
4.92886e-40 4.92922e-40 4.9308e-40 -5.2809e-40 -4.93596e-40 -5.97797e-40 4.94569e-40 4.95527e-40
-4.92849e-40 4.91702e-40 4.92123e-40 -4.91144e-40 4.95279e-40 -4.93305e-40 -5.7451e-40 4.94026e-40
-4.92771e-40 -4.94528e-40 5.03356e-40 -4.94727e-40 -4.94045e-40 4.93896e-40 -5.08135e-40 -4.93669e-40
-4.91671e-40 4.93064e-40 4.91287e-40 4.9182e-40 -4.94087e-40 4.92426e-40 4.92359e-40 -4.93736e-40
4.93478e-40 -4.93243e-40 -5.15356e-40 4.94377e-40 -4.91109e-40 4.9186e-40 5.64254e-40 -4.94234e-40
4.90942e-40 -4.94274e-40 -4.90802e-40 -4.92704e-40 4.96537e-40 4.9291e-40 -4.92048e-40 -4.91178e-40
-4.92977e-40 -4.95145e-40 5.56498e-40 -4.90561e-40 4.92601e-40 4.92995e-40 -4.91791e-40 -4.91058e-40
5.04026e-40 4.91916e-40 -4.92594e-40 5.10322e-40 -4.96142e-40 -4.94883e-40 -4.92655e-40 -4.90589e-40
-4.94423e-40 4.92142e-40 -5.11586e-40 -4.93729e-40 4.90656e-40 5.736e-40 -4.94123e-40 4.9236e-40
-4.90718e-40 4.94152e-40 -4.93574e-40 4.9178e-40 -4.93354e-40 4.93962e-40 -6.17074e-40 4.95195e-40
4.94047e-40 4.96907e-40 -5.16097e-40 -4.91829e-40 -5.02332e-40 -4.918e-40 -4.9108e-40 4.90806e-40
-4.96004e-40 4.9514e-40 -4.92317e-40 -4.94763e-40 -4.92917e-40 -4.95335e-40 -4.92985e-40 4.90866e-40
-4.90767e-40 4.92978e-40 -4.91732e-40 -4.95033e-40 -5.06665e-40 4.94329e-40 4.94989e-40 4.90885e-40
4.94291e-40 -4.98031e-40 4.9159e-40 -5.30243e-40 -4.90669e-40 4.95456e-40 -4.9418e-40 4.93648e-40
4.91547e-40 -5.21206e-40 4.91625e-40 -4.92647e-40 -4.97645e-40 -4.93855e-40 -4.9126e-40 -5.20238e-40
4.91549e-40 4.94632e-40 -4.93847e-40 4.9503e-40 -4.91512e-40 -4.91779e-40 5.03544e-40 4.93149e-40
-4.93509e-40 4.91912e-40 4.92517e-40 -4.97034e-40 4.94876e-40 6.0654e-40 -5.11684e-40 4.90669e-40
-4.9773e-40 4.94349e-40 -4.91658e-40 -4.95139e-40 -4.93952e-40 4.93934e-40 4.94294e-40 4.91029e-40
4.93124e-40 4.93215e-40 -4.92226e-40 -4.91966e-40 -4.94996e-40 -4.94559e-40 -4.9508e-40 -5.31784e-40
-4.9207e-40 -4.91127e-40 -4.94592e-40 4.90858e-40 -4.95153e-40 -4.92079e-40 -4.93385e-40 -4.92195e-40
00000000: 8b61 0580 ba5b 0580 1065 0500 9e5d 0500
00000010: 8f62 0580 f85b 0500 2593 0500 1c58 0580
00000020: d068 0580 b762 0500 e458 0580 6559 0580
00000030: e7d4 0680 a65d 0580 be5c 0500 7861 0580
00000040: d161 0580 fd60 0500 f359 0580 e660 0500
00000050: 8c5f 0500 8b60 0580 27b3 0680 9964 0580
00000060: 1493 0500 425a 0580 9759 0500 d55f 0580
00000070: 5263 0580 f465 0580 455b 0500 bd62 0500
00000080: c463 0500 175c 0500 675c 0580 8665 0580
00000090: c860 0580 975c 0500 8360 0500 bc5c 0500
000000a0: 4168 0580 ed58 0580 a766 0500 c061 0580
000000b0: 845e 0580 655d 0580 b75c 0580 0464 0500
000000c0: 6f61 0580 225b 0500 e361 0500 fd63 0500
000000d0: 2a9f 0680 d357 0500 6157 0500 ea61 0500
000000e0: 6c5c 0500 fc61 0580 4465 0580 9b5e 0500
000000f0: cf5e 0500 7f64 0580 a159 0580 fc5c 0500
00000100: 5a5f 0500 bb58 0500 e657 0500 4a5e 0500
00000110: a258 0500 ff5b 0580 e962 0580 ca5e 0500
00000120: ce67 0580 c367 0500 adad 0500 755f 0500
00000130: 5769 0500 8f5e 0580 a058 0500 4a64 0580
00000140: f99e 0680 4a5c 0500 a05b 0500 e65d 0500
00000150: ce5f 0580 1b62 0580 ed57 0500 d4a4 0500
00000160: a870 0580 d963 0580 9fd3 0680 ddc4 0680
00000170: 4165 0580 8a62 0500 dc66 0580 5a60 0580
00000180: f75d 0500 115e 0500 825e 0500 1ac0 0580
00000190: f25f 0580 6a82 0680 a862 0500 5465 0500
000001a0: dd5d 0580 aa5a 0500 d75b 0500 1c59 0580
000001b0: a364 0500 225f 0580 8041 0680 2561 0500
000001c0: a55d 0580 8b62 0580 277b 0500 1963 0580
000001d0: 3261 0580 c860 0500 7988 0580 2660 0580
000001e0: 945a 0580 765e 0500 8259 0500 fe5a 0500
000001f0: 5061 0580 af5c 0500 7f5c 0500 5660 0580
00000200: 9e5f 0500 f65e 0580 9a9c 0580 1f62 0500
00000210: 0359 0580 1b5b 0500 e924 0600 b961 0580
00000220: 8c58 0500 d661 0580 2858 0580 755d 0580
00000230: 2568 0500 085e 0500 a15b 0580 3459 0580
00000240: 385e 0580 4364 0580 4a0f 0600 7c57 0580
00000250: 2c5d 0500 455e 0500 ea5a 0580 df58 0580
00000260: 057d 0500 435b 0500 275d 0580 928e 0500
00000270: 0b67 0580 8863 0580 525d 0580 9057 0580
00000280: 4062 0580 e45b 0500 1892 0580 5160 0580
00000290: c057 0500 f73e 0600 6a61 0580 805c 0500
000002a0: ec57 0580 7f61 0500 e25f 0580 e25a 0500
000002b0: 455f 0580 f760 0500 27b8 0680 6764 0500
000002c0: 3461 0500 2d69 0500 ab9e 0580 055b 0580
000002d0: 4c78 0580 f05a 0580 ee58 0580 2b58 0500
000002e0: a866 0580 4064 0500 615c 0580 3363 0580
000002f0: 0d5e 0580 cb64 0580 3e5e 0580 5658 0500
00000300: 0f58 0580 395e 0500 c05a 0580 f363 0580
00000310: 6084 0580 fd61 0500 d463 0500 6358 0500
00000320: e261 0500 4f6c 0580 5a5a 0500 1ac6 0580
00000330: c957 0580 2165 0500 9361 0580 1760 0500
00000340: 3c5a 0500 e9ac 0580 735a 0500 4d5d 0580
00000350: 3b6b 0580 ab60 0580 6f59 0580 36aa 0580
00000360: 3d5a 0500 d562 0500 a560 0580 f163 0500
00000370: 235a 0580 e15a 0580 ad7b 0500 b35e 0500
00000380: b45f 0580 405b 0500 f05c 0500 8769 0580
00000390: 8363 0500 c99a 0600 5e92 0580 c957 0500
000003a0: 786b 0580 0b62 0500 8b5a 0580 3f64 0580
000003b0: f060 0580 e360 0500 e461 0500 ca58 0500
000003c0: a15e 0500 e25e 0500 205c 0580 675b 0580
000003d0: d963 0580 a162 0580 1564 0580 66ca 0580
000003e0: b15b 0580 1059 0580 b962 0580 5058 0500
000003f0: 4964 0580 b75b 0580 5b5f 0580 0a5c 0580

ipd_embedding.weight f4 [2561, 8]
-0.042911466 0.837011 0.095059484 -0.1318967 -0.7030784 0.43040475 0.8983975 -0.506594
0.39462838 0.777813 0.8517396 -0.04799976 -0.72927636 0.2395018 0.39535657 -0.6080869
-0.072201915 -0.11333859 -0.23296922 0.04097304 0.71681553 -0.095810935 1.8124185 -0.32603136
-0.4708389 -0.5335739 1.060852 -1.3307159 -1.8044269 0.47624734 -0.14834124 0.6179475
-1.0673307 -0.81275356 0.6835075 -1.0366553 -0.9710724 0.18869346 -0.64090014 0.9874348
-0.92724425 -0.44805512 0.26075158 -0.3006418 -0.944794 -0.23274422 -0.45732585 0.82402325
-0.8558817 -0.4290332 0.46094948 -0.17898807 -0.59037733 -1.0809445 0.057833284 -0.07845273
-0.33353445 -1.0631796 0.808593 -0.5598728 -0.21495445 -0.60095567 0.25652388 -0.043480054
-0.88407403 -0.7132486 -0.60853016 -0.5793263 0.76633394 -0.69771326 0.48700094 -0.2915718
-1.0199281 -1.4610857 -0.73260856 -0.82284886 -0.2323397 -0.29731154 2.1894896 0.33790216
-1.0280323 -0.95628583 -0.76097035 -1.0162874 -0.3723649 -0.53620696 1.5701194 -0.14791992
-0.16303049 -0.7554038 0.41673166 -0.1564518 -0.6791072 -0.79356706 0.69237494 -0.3665142
-0.4961252 -0.94141626 0.26676336 -0.5234102 -0.0026251618 -0.7773327 0.21745135 -0.582614
-0.64703375 -0.3494721 -0.2014847 -1.0540348 -0.24938804 -0.77552325 0.3731963 0.38043344
-0.7906569 -0.2839026 -0.13101956 -0.55395 -0.5870725 -0.71508336 0.94175625 0.6042319
-0.77662015 -0.17067404 -0.5133533 -0.24336007 -0.050933685 -0.34603012 0.9159179 1.1630434
0.05273162 -0.9386411 -0.30620173 0.14886925 0.09902315 -0.47885078 0.7116811 0.08003423
0.5255316 -0.5820213 -1.5945711 -0.14654882 0.9092763 -0.022679439 0.9143831 -0.545322
-0.4714297 0.07026744 -0.73651814 0.271015 0.20069492 -0.1317976 0.8870304 0.19303377
-0.05906288 -0.58584535 0.21100354 0.120796606 -0.12100069 -0.5381347 0.7006488 0.075768866
-0.15969971 -0.29899248 0.3088455 0.41013587 -0.3773103 -0.11316068 0.8429811 0.2804143
-0.44695005 -0.011858727 -0.20947044 -0.39387757 -0.6427193 -0.36611712 0.4276578 0.08750647
-0.5999966 -0.10376078 -0.3156979 -0.15271096 -0.30185202 -0.4053135 0.35361603 0.08380286
0.49379706 0.03194326 -0.1579445 -0.46496627 0.24717806 0.6794751 0.6957382 0.47929105
-0.5749801 0.47086388 -0.30116636 -1.5840766 0.8990956 0.94116706 0.0061993916 0.88989836
0.597431 -0.04328767 -0.008015939 -0.5465258 -0.026566835 1.0200222 0.17790626 0.68122447
1.0211095 -0.17417365 0.49217823 -1.1324468 0.0871881 0.9697409 0.6365748 0.5776177
0.65092254 -0.09245034 0.09506144 -0.49084476 0.027385976 0.681649 0.70208454 0.5603869
-0.06389411 0.12172891 0.019770738 0.24985078 -0.2894282 0.44842866 0.47579116 1.0463424
-0.3702598 0.37661502 0.12853393 -0.075360015 -0.017272592 0.49279335 0.4709995 1.1815915
0.23969616 -0.6802101 0.052742355 0.5502496 -0.5344696 -0.31655583 0.16917093 0.49251035
0.13275905 -0.013490125 -0.51074684 -0.08062832 -0.06970499 0.18860604 0.22026043 0.13686922
00000000: efc3 2fbd 5a46 563f 8cae c23d ee0f 07be
00000010: f2fc 33bf 035e dc3e 61fd 653f 25b0 01bf
00000020: bb0c ca3e c11e 473f 9b0b 5a3f 659b 44bd
00000030: dbb1 3abf f63f 753e 2d6c ca3e 95ab 1bbf
00000040: 99de 93bd 101e e8bd 7c8f 6ebe 59d3 273d
00000050: 3981 373f 8638 c4bd 54fd e73f 95ed a6be
00000060: cc11 f1be 4d98 08bf 00ca 873f e654 aabf
00000070: 76f7 e6bf b1d6 f33e c4e6 17be cf31 1e3f
00000080: 4b9e 88bf 9e10 50bf 59fa 2e3f 1fb1 84bf
00000090: 3398 78bf dc38 413e 0812 24bf 87c8 7c3f
000000a0: e15f 6dbf 7b67 e5be 3b81 853e b9ed 99be
000000b0: 05de 71bf 8054 6ebe 9d26 eabe 30f3 523f
000000c0: 101b 5bbf 3daa dbbe 9201 ec3e a648 37be
000000d0: f822 17bf 645c 8abf 98e2 6c3d d3ab a0bd
000000e0: 07c5 aabe 4516 88bf f3ff 4e3f d353 0fbf
000000f0: 051d 5cbe 3bd8 19bf 1957 833e 2418 32bd
00000100: ad52 62bf 7697 36bf a2c8 1bbf ba4e 14bf
00000110: 762e 443f 569d 32bf 3058 f93e e648 95be
00000120: 018d 82bf db04 bbbf 3c8c 3bbf 39a6 52bf
00000130: 75ea 6dbe 3839 98be 9920 0c40 8301 ad3e
00000140: 9096 83bf 26cf 74bf f4ce 42bf b515 82bf
00000150: 9da6 bebe dc44 09bf acf9 c83f 5278 17be
00000160: 77f1 26be 2562 41bf da5d d53e e734 20be
00000170: f8d9 2dbf 3627 4bbf 7c3f 313f c0a7 bbbe
00000180: 1f04 febe a800 71bf 3595 883e 36fe 05bf
00000190: e80a 2cbb 47ff 46bf 91ab 5e3e 3126 15bf
000001a0: 01a4 25bf 02ee b2be 0152 4ebe 9dea 86bf
000001b0: 945f 7fbe b188 46bf 9613 bf3e 2cc8 c23e
000001c0: 7e68 4abf ae5b 91be fe29 06be abcf 0dbf
000001d0: 624a 16bf b40f 37bf f016 713f f1ae 1a3f
000001e0: 94d0 46bf 2dc5 2ebe 1f6b 03bf 6233 79be
000001f0: d79f 50bd dc2a b1be 9879 6a3f 9bde 943f
00000200: 1cfd 573d c84a 70bf 79c6 9cbe 2e71 183e
00000210: a6cc ca3d ee2b f5be bc30 363f fde8 a33d
00000220: 3d89 063f 59ff 14bf e81a ccbf e510 16be
00000230: 55c6 683f 3bca b9bc 0315 6a3f 399a 0bbf
00000240: 3c5f f1be 60e8 8f3d 748c 3cbf 7ac2 8a3e
00000250: f882 4d3e f3f5 06be 6d14 633f a5aa 453e
00000260: ebeb 71bd f6f9 15bf 5011 583e 3664 f73d
00000270: 36cf f7bd 32c3 09bf b85d 333f b52c 9b3d
00000280: 5288 23be 8b15 99be ff20 9e3e 54fd d13e
00000290: d12e c1be c9c0 e7bd 9ccd 573f 7792 8f3e
000002a0: a3d6 e4be 1b4b 42bc 6b7f 56be 52aa c9be
000002b0: 4189 24bf b473 bbbe f7f5 da3e 9836 b33d
000002c0: 6199 19bf 8880 d4bd 28a3 a1be 4360 1cbe
000002d0: 598c 9abe 4085 cfbe 290d b53e d5a0 ab3d
000002e0: f8d2 fc3e f0d6 023d 34bc 21be 0f10 eebe
000002f0: 3f1c 7d3e 15f2 2d3f e61b 323f a365 f53e
00000300: e531 13bf 1215 f13e 7a32 9abe 06c3 cabf
00000310: 212b 663f 53f0 703f 4424 cb3b 61d0 633f
00000320: 3df1 183f 694e 31bd 4955 03bc 1de9 0bbf
00000330: b1a2 d9bc 1690 823f 0f2d 363e ba64 2e3f
00000340: b7b3 823f 945a 32be c9fe fb3e 04f4 90bf
00000350: ad8f b23d f140 783f 91f6 223f c1de 133f
00000360: dca2 263f 9b56 bdbd 92af c23d 0150 fbbe
00000370: 8e58 e03c 8d80 2e3f d0bb 333f 8475 0f3f
00000380: eada 82bd 024d f93d 3ef6 a13c e2d8 7f3e
00000390: ef2f 94be 7198 e53e e69a f33e 8cee 853f
000003a0: b192 bdbe afd3 c03e 669e 033e 5a56 9abd
000003b0: 407f 8dbc 694f fc3e d926 f13e 643e 973f
000003c0: e972 753e 4022 2ebf 5e08 583d 28dd 0c3f
000003d0: 00d3 08bf 9b13 a2be 253b 2d3e 512a fc3e
000003e0: fdf1 073e af05 5dbc 4ec0 02bf 7620 a5bd
000003f0: 7dc1 8ebd f121 413e f38b 613e 7227 0c3e

proj.0.weight f4 [12, 18]
-0.49246725 0.25440624 0.71067554 -0.5874359 0.25867686 0.30811355 -0.3583084 0.42998287
1.0197464 1.4401397 -0.11413522 0.22120072 -0.6130308 0.029087711 -0.6522072 1.6409127
-0.4661318 -0.204657 0.6447618 -0.9568786 -1.7222518 -1.2756898 0.5231672 0.4388099
-1.1535091 0.7949539 -0.02374829 -1.4952195 0.46956843 -0.5099978 -0.47580838 -0.167407
0.18109757 -1.061029 0.106009774 0.9369942 0.5316305 0.7645775 0.23080516 0.5931557
-0.18700053 0.07056098 -1.7225838 1.7658745 1.2287585 -1.2034972 0.77201164 0.30012476
-0.24576034 0.040213574 -0.49295992 -0.5152532 0.47168308 0.432718 -0.019349419 1.5339
-1.2096776 0.10087666 -1.9094014 -0.76379466 -0.47916496 0.96640074 0.98676723 -0.044806276
1.1687042 0.4137201 -0.34694964 0.54332256 -0.4871948 -0.30400887 0.674686 0.35930577
-0.43492585 0.25021347 0.47768337 -0.7812166 0.8874882 0.58576137 0.104754195 -0.49684408
0.9243287 0.68374085 -0.5390211 -1.0215607 -0.6408616 -0.096614316 -0.019452946 0.28977564
0.9074555 0.06675799 -0.026840545 -0.39540243 -0.9042173 -0.037183046 0.9872701 0.3098402
-0.3253393 0.47274405 1.7898319 0.80425936 -1.184723 -0.85347384 0.11360676 0.51872647
-0.6250257 0.67555255 -0.93901193 0.2952459 -0.5642259 -0.029673805 0.23945184 1.1537182
0.21926779 -0.13013399 0.27258402 -2.114331 -1.498452 1.4776605 0.5766648 1.0692052
1.1894584 1.1093735 1.2781763 0.11689256 -0.116468534 -0.7516132 0.83298296 0.9001928
0.16526799 -0.23287177 -1.28434 -0.51593465 -2.4047985 -1.1118703 1.061932 -0.99331826
0.22446585 0.6209756 0.011635705 -0.03103383 -0.059216283 0.11084733 0.37868908 0.44565213
-0.6565485 0.37850326 -0.089861885 -0.95607495 0.8644929 0.62186533 -0.3942601 -0.57070464
0.6762241 1.3215505 -0.85299027 -0.9752686 0.032853913 -0.24763504 -0.10675583 0.11414066
0.9291622 -0.15535232 0.82420146 -1.381238 -0.8085165 0.6743621 0.15110707 0.19144249
-0.7525572 0.4902773 1.7443225 1.7023453 0.5402844 -0.27418613 0.16572253 -0.60774463
-0.5106971 0.92900795 -0.66489315 0.52344406 0.009363028 -0.41173357 0.2552921 -0.6258239
0.56476355 0.24360843 -0.47774437 0.677041 1.6869315 1.8413574 0.12914674 0.073848754
-0.5940768 -0.30363885 -1.0147893 1.1286004 -0.13978438 0.09901014 0.053532172 -0.72539747
-1.8946631 -2.1314433 1.019327 -0.13526906 -1.5522966 -0.27476406 -2.232669 1.0805287
-0.69399244 -0.24879429 1.6843917 -0.30924958 -0.92643243 -0.038293667 -0.98275983 0.35823122
00000000: ab24 fcbe 8941 823e d5ee 353f 3362 16bf
00000010: 4b71 843e 0fc1 9d3e 3374 b7be b726 dc3e
00000020: 0d87 823f 7f56 b83f babf e9bd 7182 623e
00000030: 96ef 1cbf 5a49 ee3c 0df7 26bf 6d09 d23f
00000040: d4a8 eebe 9b91 51be 1c0f 253f fff5 74bf
00000050: bf72 dcbf ce49 a3bf 49ee 053f b1ab e03e
00000060: 30a6 93bf 1982 4b3f c68b c2bc 5a63 bfbf
00000070: 466b f03e 378f 02bf 289d f3be be6c 2bbe
00000080: a471 393e cccf 87bf a71b d93d dade 6f3f
00000090: f018 083f 5abb 433f 3058 6c3e 0dd9 173f
000000a0: 117d 3fbe 4682 903d a07d dcbf 2d08 e23f
000000b0: f547 9d3f 320c 9abf 8ea2 453f f4a9 993e
000000c0: 99a8 7bbe fdb6 243d 3e65 fcbe a2e7 03bf
000000d0: 7280 f13e 378d dd3e ac82 9ebc d656 c43f
000000e0: b7d6 9abf 6c98 ce3d 4467 f4bf 0c88 43bf
000000f0: 1c55 f5be 0a66 773f c79c 7c3f c986 37bd
00000100: 1998 953f 1fd3 d33e 62a3 b1be 3017 0b3f
00000110: 9971 f9be 0da7 9bbe 39b8 2c3f edf6 b73e
00000120: 9aae debe fb1b 803e ea92 f43e d0fd 47bf
00000130: 6d32 633f 75f4 153f 5e89 d63d 5962 febe
00000140: cea0 6c3f a409 2f3f 49fd 09bf 80c2 82bf
00000150: 810f 24bf badd c5bd c95b 9fbc 795d 943e
00000160: 014f 683f 6ab8 883d b4e0 dbbc 3072 cabe
00000170: c97a 67bf 404d 18bd bcbd 7c3f 60a3 9e3e
00000180: df92 a6be 820b f23e 3619 e53f f1e3 4d3f
00000190: 01a5 97bf 437d 5abf a9aa e83d 42cb 043f
000001a0: af01 20bf 03f1 2c3f 1663 70bf 782a 973e
000001b0: 1c71 10bf 7b16 f3bc dd32 753e 0aad 933f
000001c0: bc87 603e d841 05be 2290 8b3e 3351 07c0
000001d0: 46cd bfbf fb23 bd3f 4ea0 133f b7db 883f
000001e0: 2c40 983f f3ff 8d3f 489b a33f 5e65 ef3d
000001f0: 0e87 eebd b969 40bf 5f3e 553f 0973 663f
00000200: 033c 293e f075 6ebe 4165 a4bf 4b14 04bf
00000210: 38e8 19c0 c451 8ebf 63ed 873f 1b4a 7ebf
00000220: 60da 653e 42f8 1e3f afa3 3e3c a93a febc
00000230: c68c 72bd ed03 e33d 89e3 c13e 842c e43e
00000240: 9013 28bf 2ecb c13e 8209 b8bd 54c1 74bf
00000250: 684f 5d3f 9132 1f3f 76dc c9be b319 12bf
00000260: 061d 2d3f 9128 a93f 925d 5abf 34ab 79bf
00000270: d391 063d 0a94 7dbe cda2 dabd 94c2 e93d
00000280: 93dd 6d3f ae14 1fbe defe 523f 68cc b0bf
00000290: f0fa 4ebf ffa2 2c3f d0bb 1a3e 8009 443e
000002a0: 97a7 40bf a005 fb3e f645 df3f 73e6 d93f
000002b0: 1450 0a3f 2062 8cbe 2bb3 293e 2795 1bbf
000002c0: 0cbd 02bf 77d3 6d3f 7036 2abf 6e00 063f
000002d0: 6367 193c bece d2be a5b5 823e ff35 20bf
000002e0: 5894 103f 7d74 793e e99a f4be 8f52 2d3f
000002f0: 5fed d73f 99b1 eb3f 0b3f 043e 043e 973d
00000300: 6b15 18bf 8d76 9bbe 9ee4 81bf fa75 903f
00000310: a323 0fbe d4c5 ca3d 8d44 5b3d a6b3 39bf
00000320: 5284 f2bf 9169 08c0 4f79 823f f983 0abe
00000330: a8b1 c6bf e0ad 8cbe 0de4 0ec0 c44e 8a3f
00000340: 7da9 31bf eec3 7ebe 269a d73f f655 9ebe
00000350: ad2a 6dbf d2d9 1cbd 2696 7bbf 156a b73e

proj.0.bias f4 [12]
-0.4320915 -0.26246378 -0.010680335 -0.512818 -0.46647385 0.016137956 0.3259689 0.21605405
-0.43737113 -0.352481 -0.26296052 0.26138502
00000000: 193b ddbe a761 86be 92fc 2ebc 0a48 03bf
00000010: a9d5 eebe bf33 843c 65e5 a63e 463d 5d3e
00000020: 1cef dfbe 6478 b4be c3a2 86be 42d4 853e

rnn.weight_ih_l0 f4 [48, 12]
0.06291953 0.13859403 0.18047811 0.28907204 0.19421497 -0.48141673 -0.9177222 -0.5371351
0.411244 -1.6908776 -0.11966752 -0.760833 -0.5119547 0.16722108 -1.2713021 -0.9875616
-0.07650808 0.6572111 -0.7525341 -0.5828661 0.07625029 -0.6558413 -0.58399653 0.5338266
0.1282079 -0.74146724 -0.13574274 -0.30186418 -0.3767904 1.1282169 -0.3118594 0.485407
1.0717738 -0.34810156 0.043249216 0.15731888 -0.51166683 -0.8894166 -0.72542447 -0.6452351
0.21589392 0.18364637 0.20538135 -0.25906837 0.19536763 0.70294493 -0.28483066 -0.15428588
0.45868203 0.4770463 0.0060345214 -0.066888124 1.4783671 0.3593168 0.16093646 -0.36128002
-0.8126966 1.0082338 -0.17776416 -0.28616753 0.050502528 0.4045233 0.37276036 0.60110754
-0.7811966 0.098984376 -0.07225403 0.24874544 -0.6067766 -0.2155033 -0.07141125 -0.3386022
0.6972073 0.37914342 0.33494666 -0.03765139 0.9797437 0.1634194 -0.73011684 -0.22851431
0.13723513 -1.1029826 0.7217797 0.6217843 0.010809175 -0.02761566 -0.28435168 -0.3309895
0.051768675 0.6021084 -0.38191205 -0.1738839 -0.36441788 -0.155563 0.11705538 -0.9651388
-0.65512776 -1.2962891 -0.8041903 -0.52851146 -0.8177928 0.9422542 -0.7843204 -0.062429287
-1.163092 -0.07561044 -0.6184733 -0.6247066 0.5779321 -0.558781 -0.1007972 -0.11293141
0.09176598 0.5250697 -0.80977 -0.23214346 -0.09561612 0.25888214 0.6703956 -1.0131791
0.3363625 -0.152698 -0.00017610178 -0.38741875 0.05216879 -0.40711287 -0.6915215 1.3094593
0.0973313 0.4163799 1.0513589 0.08329678 0.8065818 -1.2228248 -0.7326041 -0.09936854
-0.2841563 -0.5932173 0.07342086 -0.39432812 -0.6995588 0.102150984 -0.02405452 -1.5280651
-0.24106286 0.0052605337 0.548855 -0.17550737 -0.08400162 -0.18599194 -0.26191354 0.099509135
-0.15310833 0.31529918 -0.009101791 -0.0777693 0.18883365 -0.5933479 -0.33915687 -0.3855322
0.068512015 0.7926057 0.032106385 -0.45767447 0.16292459 1.491935 0.472291 2.6708376
0.32988283 -0.58568865 -0.7739323 -0.6535293 0.25591332 -0.23054405 0.030230792 -0.24340202
0.1514217 -0.27218056 0.4139974 -0.4808601 -0.98288924 0.2331577 -0.16286884 -0.45298618
-0.40548265 -0.79056376 -0.08305898 -0.25876302 -0.39076725 -0.46794066 -0.48874533 -0.33984756
0.576665 -0.21422069 -0.051418744 0.03237857 0.152947 -0.23521309 -0.23792794 -0.20413156
0.20611207 -0.6025385 0.705687 -0.35245997 -2.2583604 0.13531078 -1.3691459 -1.1958319
-0.20816593 0.20820208 -0.58509487 0.37952635 -0.013973909 -0.16045575 -1.0703504 0.2856869
0.82432604 -0.19426452 -0.9199834 0.086489104 -2.3815475 0.45586914 -0.88894826 0.33290455
-1.7104882 -0.30428767 0.14146484 -0.33345905 0.5136809 0.2471865 -0.5437927 -0.008762832
-0.06638528 -0.1849439 1.3451706 0.5764156 -0.1260112 0.6167136 0.21569712 0.0042620534
-0.5883827 -0.2581171 -0.07247462 -0.2529159 0.89685047 0.3978427 -1.1424335 -0.43779355
-0.14784539 0.7423516 -0.122399494 -0.1375735 0.13323556 -0.6130732 -0.326761 -0.6345104
00000000: f4db 803d 98eb 0d3e 41cf 383e 4001 943e
00000010: 4ae0 463e 417c f6be d8ef 6abf b081 09bf
00000020: 938e d23e ad6e d8bf 3f14 f5bd f4c5 42bf
00000030: 770f 03bf 013c 2b3e 07ba a2bf d6d0 7cbf
00000040: 45b0 9cbd fd3e 283f 13a6 40bf b636 15bf
00000050: 1d29 9c3d 37e5 27bf cc80 15bf dca8 083f
00000060: ef48 033e ccd0 3dbf 2500 0bbe f18d 9abe
00000070: acea c0be 6969 903f 09ac 9fbe 4487 f83e
00000080: e22f 893f 5e3a b2be 1726 313d 3318 213e
00000090: 99fc 02bf ceb0 63bf 6bb5 39bf 212e 25bf
000000a0: 4c13 5d3e cb0d 3c3e 7d4f 523e 9ca4 84be
000000b0: 740e 483e 33f4 333f 53d5 91be 1efd 1dbe
000000c0: 5fd8 ea3e 6a3f f43e 3cbd c53b a4fc 88bd
000000d0: 223b bd3f 5ff8 b73e 87cc 243e b2f9 b8be
000000e0: e20c 50bf ce0d 813f cf07 36be 8d84 92be
000000f0: bddb 4e3d ae1d cf3e 72da be3e 2fe2 193f
00000100: 80fc 47bf 52b8 ca3d ecf9 93bd 20b7 7e3e
00000110: b655 1bbf e6ac 5cbe 1040 92bd 445d adbe
00000120: 2d7c 323f 161f c23e 217e ab3e 5838 1abd
00000130: 7cd0 7a3f 6a57 273e f0e8 3abf a8ff 69be
00000140: 5e87 0c3e 892e 8dbf 8ec6 383f 422d 1f3f
00000150: f718 313c 3d3a e2bc 8b96 91be 7577 a9be
00000160: 640b 543d c723 1a3f fa89 c3be 9f0e 32be
00000170: fb94 babe e84b 1fbe bbba ef3d 5613 77bf
00000180: 74b6 27bf cdec a5bf 6adf 4dbf 874c 07bf
00000190: de5a 51bf 9237 713f 39c9 48bf dab5 7fbd
000001a0: 33e0 94bf a5d9 9abd 4454 1ebf c6ec 1fbf
000001b0: 5cf3 133f 460c 0fbf c36e cebd 9548 e7bd
000001c0: cdef bb3d f86a 063f 164d 4fbf 04b7 6dbe
000001d0: 62d2 c3bd 338c 843e 0c9f 2b3f daaf 81bf
000001e0: b537 ac3e dd5c 1cbe f6a7 38b9 c05b c6be
000001f0: f1ae 553d 1971 d0be 8e07 31bf 5d9c a73f
00000200: a255 c73d bf2f d53e ee92 863f 8197 aa3d
00000210: 257c 4e3f 8685 9cbf f18b 3bbf bc81 cbbd
00000220: ef7c 91be 17dd 17bf ad5d 963d 60e5 c9be
00000230: 4916 33bf 8934 d13d fc0d c5bc a397 c3bf
00000240: 2fd9 76be 8e60 ac3b c381 0c3f 34b8 33be
00000250: 0b09 acbd ac74 3ebe 8819 86be 72cb cb3d
00000260: 6ec8 1cbe e56e a13e ae1f 15bc 8345 9fbd
00000270: 9c5d 413e a6e5 17bf f8a5 adbe 7a64 c5be
00000280: 0750 8c3d 35e8 4a3f fc81 033d 4f54 eabe
00000290: b4d5 263e baf7 be3f 20d0 f13e 01ef 2a40
000002a0: 67e6 a83e b1ef 15bf 6d20 46bf b24d 27bf
000002b0: 1207 833e bd13 6cbe 91a6 f73c 613e 79be
000002c0: 4a0e 1b3e 405b 8bbe 78f7 d33e 4c33 f6be
000002d0: a19e 7bbf e4c0 6e3e 17c7 26be ceed e7be
000002e0: 6c9b cfbe 6362 4abf d41a aabd 967c 84be
000002f0: a512 c8be eb95 efbe d43c fabe 8000 aebe
00000300: 51a0 133f ab5c 5bbe 769c 52bd 649f 043d
00000310: 239e 1c3e b3db 70be 62a3 73be dd07 51be
00000320: 0b0f 533e f73f 1abf e7a7 343f a275 b4be
00000330: fa88 10c0 e98e 0a3e 2c40 afbf 0511 99bf
00000340: 7329 55be ed32 553e c7c8 15bf 4751 c23e
00000350: d3f2 64bc 834e 24be 3e01 89bf 8e45 923e
00000360: 0807 533f 47ed 46be 0884 6bbf 3321 b13d
00000370: 466b 18c0 ae67 e93e 1d92 63bf 7772 aa3e
00000380: 47f1 dabf 98cb 9bbe 29dc 103e 25bb aabe
00000390: 9780 033f 751e 7d3e 0036 0bbf fb91 0fbc
000003a0: 01f5 87bd ef61 3dbe 8d2e ac3f f98f 133f
000003b0: 1409 01be f1e0 1d3f b5df 5c3e b2a8 8b3b
000003c0: 40a0 16bf ed27 84be 936d 94bd 317e 81be
000003d0: fe97 653f 0ab2 cb3e 433b 92bf 7a26 e0be
000003e0: c864 17be c10a 3e3f 96ac fabd 11e0 0cbe
000003f0: e76e 083e 5ef2 1cbf 384d a7be 466f 22bf

rnn.weight_hh_l0 f4 [48, 16]
-0.58903235 0.28130546 1.2719811 -0.5261975 0.4608447 -0.7737068 0.39091167 -1.0180014
-0.278991 0.45025206 -0.8537722 0.21667475 0.7028105 -0.213487 0.2772657 -1.1596603
-0.866634 -0.18442369 -0.43278956 0.04079171 0.20180772 0.16583897 -0.07749431 0.77592546
0.3994817 0.97110873 0.35754803 -0.046457212 0.17142943 -0.6881665 -0.08620142 0.0640212
-0.21526572 0.45888358 0.57966816 0.5316833 0.29384783 1.040954 0.39914155 0.32218748
0.16487749 -0.20028031 -1.1783451 0.06698081 -0.019577459 0.9938991 -0.2477797 0.4392336
0.104828365 -0.027240505 -0.7871269 0.29131174 -0.13645422 -0.19838859 -0.2560931 0.59110236
1.1233636 0.3956891 0.43559954 0.4127618 0.256615 0.44854766 0.071010366 0.2548113
-0.33765885 -0.038047094 -0.22707051 0.35290116 0.041083347 0.027910084 0.0639215 0.2128545
-1.0669124 0.005560978 -0.24213822 0.5344429 -0.7071123 0.31661052 0.304992 0.23359345
1.3942335 -0.5313024 0.063449 -0.5196335 0.974993 1.2933062 -0.094625525 -1.3639873
-0.40957478 -0.8512172 -0.21883866 0.16957527 -0.4178716 0.34087494 -0.109117344 -0.6298433
-0.24802974 -0.8053979 0.1099284 -0.12325103 -0.5907884 -0.7740706 0.6878869 -0.11764245
0.40660086 0.37042016 -0.054581672 0.88843584 0.815238 -0.37353745 0.027034184 -0.39697647
-0.86990696 -0.50090003 -0.58502 0.1687881 0.7074379 -0.2016964 0.35651696 -0.061264805
-0.16410264 -0.3890314 0.15775554 0.54298013 -0.29816023 -0.006668469 -0.07354387 -0.26332667
-0.03047782 0.119648 0.34050712 0.24302901 0.02494483 -0.12055809 0.37764496 -1.4804453
0.38307634 -0.28582308 -0.55889297 0.4269698 0.25600052 -0.3879563 -0.45185438 -0.04048717
0.8708261 0.5101873 -0.17666899 -0.82257 0.7440964 1.1019328 -0.6358615 -0.58402795
0.69910026 0.5710951 0.19995667 -0.17751461 -0.23877 -0.14747587 -0.42833006 -0.027116913
-0.6560406 -0.08977626 -0.5239166 0.31027606 -0.4705449 -0.18632276 0.080091834 -1.0400755
0.2159075 0.21293291 0.020235335 0.38172898 -0.15636913 -0.1332731 -0.64459234 -0.016739877
-0.38090053 -0.84242755 -1.5971614 -0.09361174 -0.43220744 -0.6986849 -0.14262275 -0.6171789
-0.47558385 -0.068046704 -0.14421564 -0.5286299 -0.17834967 0.4336475 0.29757535 0.09919174
0.44106707 -0.4023233 -0.068082005 0.10836794 0.052680552 -0.31156045 0.40205693 -1.2745874
0.87128407 0.48018864 0.533349 0.25476196 0.69414026 0.024571555 0.25683582 0.21151286
0.1098874 -0.25097102 -0.016078351 0.6444529 -0.16299541 0.46511373 0.24075475 0.2991543
-0.5947544 -0.01623994 -0.22401789 0.09916515 0.14759065 0.99908495 -0.55806375 0.22271682
0.77333087 -0.24735337 -1.0711718 -0.24456757 -0.6553267 0.5246348 0.12707882 -0.6524177
0.18347459 -0.81011534 -0.010969032 -0.77442926 -0.5721986 0.31811288 -0.045188334 -0.5478428
0.31540516 -0.3518163 -0.2009381 0.5057941 0.08491753 -0.31223696 0.3828547 -0.7066587
0.25270623 0.4519076 0.40596056 0.31439593 0.1271451 -0.36837786 -0.3983631 -0.12510307
00000000: d3ca 16bf 4507 903e 47d0 a23f e1b4 06bf
00000010: d6f3 eb3e a611 46bf 9325 c83e df4d 82bf
00000020: e9d7 8ebe 7087 e63e d190 5abf fcdf 5d3e
00000030: 64eb 333f 569c 5abe c5f5 8d3e c06f 94bf
00000040: badb 5dbf 90d9 3cbe 9896 ddbe 3515 273d
00000050: afa6 4e3e b1d1 293e 56b5 9ebd 0da3 463f
00000060: de88 cc3e 959a 783f 8910 b73e eb49 3ebd
00000070: 328b 2f3e ae2b 30bf 5f8a b0bd 8c1d 833d
00000080: 9e6e 5cbe caf2 ea3e 2265 143f 661c 083f
00000090: 3973 963e fb3d 853f 485c cc3e c2f5 a43e
000000a0: a5d5 283e 4816 4dbe 03d4 96bf 3c2d 893d
000000b0: e860 a0bc 2c70 7e3f f6b9 7dbe 3ae3 e03e
000000c0: 41b0 d63d 7b27 dfbc 2681 49bf d026 953e
000000d0: a8ba 0bbe 6126 4bbe a31e 83be 7c52 173f
000000e0: 61ca 8f3f c397 ca3e e706 df3e 8455 d33e
000000f0: 0b63 833e 0aa8 e53e e26d 913d a076 823e
00000100: 9fe1 acbe 45d7 1bbd 2c85 68be 76af b43e
00000110: 0347 283d b0a3 e43c 47e9 823d 88f6 593e
00000120: 9690 88bf dd38 b63b 15f3 77be 40d1 083f
00000130: 5005 35bf c61a a23e e927 9c3e 1f33 6f3e
00000140: 3e76 b23f 6f03 08bf 8df1 813d b306 05bf
00000150: 2499 793f 0f8b a53f 07cb c1bd 2397 aebf
00000160: c9b3 d1be 5fe9 59bf 3e17 60be 24a5 2d3e
00000170: 44f3 d5be 2987 ae3e ea78 dfbd 693d 21bf
00000180: 82fb 7dbe 8f2e 4ebf 2422 e13d 096b fcbd
00000190: e93d 17bf 7e29 46bf 5b19 303f 86ee f0bd
000001a0: fd2d d03e b6a7 bd3e 0891 5fbd 8870 633f
000001b0: 70b3 503f 4d40 bfbe cb76 dd3c 8040 cbbe
000001c0: 39b2 5ebf fc3a 00bf dfc3 15bf cad6 2c3e
000001d0: a61a 353f 8089 4ebe 6489 b63e cef0 7abd
000001e0: 860a 28be 202f c7be ab8a 213e bf00 0b3f
000001f0: 75a8 98be 2c83 dabb 2b9e 96bd c1d2 86be
00000200: 9fac f9bc 030a f53d f356 ae3e 99dc 783e
00000210: 1a59 cc3c 29e7 f6bd ae5a c13e 3b7f bdbf
00000220: 9522 c43e 6757 92be 9c13 0fbf c99b da3e
00000230: 8012 833e 35a2 c6be 7559 e7be e0d5 25bd
00000240: 76ee 5e3f a39b 023f b7e8 34be f393 52bf
00000250: 1a7d 3e3f 220c 8d3f d2c7 22bf db82 15bf
00000260: 3cf8 323f 4a33 123f 71c1 4c3e 64c6 35be
00000270: 1f80 74be ea03 17be 144e dbbe 4a24 debc
00000280: 47f2 27bf 9edc b7bd 661f 06bf 81dc 9e3e
00000290: 43eb f0be 65cb 3ebe 3007 a43d 3221 85bf
000002a0: db16 5d3e 160b 5a3e 93c4 a53c fb71 c33e
000002b0: 3b1f 20be be78 08be 0104 25bf 1122 89bc
000002c0: 6505 c3be 55a9 57bf c96f ccbf 83b7 bfbd
000002d0: 4b4a ddbe 03dd 32bf b30b 12be 70ff 1dbf
000002e0: ba7f f3be 125c 8bbd 44ad 13be 4a54 07bf
000002f0: 4ca1 36be 0c07 de3e cc5b 983e 0a25 cb3d
00000300: 8bd3 e13e 52fd cdbe 946e 8bbd 03f0 dd3d
00000310: 90c7 573d da84 9fbe 68da cd3e ae25 a3bf
00000320: 790c 5f3f 49db f53e 8f89 083f 2970 823e
00000330: 2db3 313f 494a c93c fc7f 833e d496 583e
00000340: a50c e13d 467f 80be bfb6 83bc defa 243f
00000350: 45e8 26be 6323 ee3e 6a88 763e c12a 993e
00000360: d341 18bf 9f09 85bc f264 65be 1917 cb3d
00000370: 0122 173e 08c4 7f3f 44dd 0ebf e10f 643e
00000380: 03f9 453f 344a 7dbe 281c 89bf ec6f 7abe
00000390: 7ec3 27bf 774e 063f f320 023e d904 27bf
000003a0: c3e0 3b3e b863 4fbf 74b7 33bc ff40 46bf
000003b0: 9c7b 12bf b1df a23e 6717 39bd 6d3f 0cbf
000003c0: c97c a13e 4421 b4be b8c2 4dbe b97b 013f
000003d0: 3ee9 ad3d 86dd 9fbe 8805 c43e 96e7 34bf
000003e0: b662 813e 6f60 e73e 10da cf3e 81f8 a03e
000003f0: 5332 023e 069c bcbe 40f6 cbbe 051b 00be

rnn.bias_ih_l0 f4 [48]
-0.36849308 0.26400924 0.09832985 -0.04342143 -0.084728576 -0.1959093 0.06421651 0.30432355
0.51334035 -0.14477916 -0.25759515 0.0022925602 -0.08969126 -0.7436134 0.22540468 0.21074978
-0.27919686 0.07070129 0.13543794 0.19544984 -0.8004896 0.13155004 -0.41593382 0.3484282
-0.14070629 -0.19458626 -0.10152413 0.21553124 0.38539487 -0.2136277 -0.28355017 0.015549448
0.2250272 -0.55125624 -0.11153151 0.14256644 0.14518626 -0.052222334 0.42849877 0.08353234
-0.024247011 -0.10989854 -0.40637276 -0.06804404 0.038209546 -0.15044107 -0.0793203 -0.18660581
00000000: 20ab bcbe 382c 873e 2961 c93d abda 31bd
00000010: 2d86 adbd 739c 48be f283 833d 4cd0 9b3e
00000020: 466a 033f fd40 14be 83e3 83be c73e 163b
00000030: 0db0 b7bd 735d 3ebf 7cd0 663e cace 573e
00000040: e4f2 8ebe d7cb 903d 3eb0 0a3e 0124 483e
00000050: e3ec 4cbf 0eb5 063e 47f5 d4be 2e65 b23e
00000060: 4f15 10be 9f41 47be e2eb cfbd 39b4 5c3e
00000070: 7a52 c53e 38c1 5abe 7d2d 91be 1dc3 7e3c
00000080: 886d 663e 211f 0dbf a26a e4bd f0fc 113e
00000090: b5ab 143e 16e7 55bd 3164 db3e 0113 ab3d
000000a0: aba1 c6bc 7c12 e1bd 1710 d0be ac5a 8bbd
000000b0: 9d81 1c3d 390d 1abe ae72 a2bd 9815 3fbe

rnn.bias_hh_l0 f4 [48]
-0.34940982 0.30543578 0.28400797 -0.06601629 0.03601971 -0.15917808 -0.124914885 0.21662527
0.25050473 -0.1997372 -0.23141812 0.108223185 -0.00967085 -0.4071082 0.31669658 0.23980367
-0.10670461 0.07469086 -0.02043178 0.23134294 -0.7414776 0.23011573 -0.4505612 0.3887958
-0.27980235 -0.22563311 -0.090333365 0.073902585 0.5341717 -0.15841007 -0.22136511 -0.09171502
-0.3052314 -1.0618523 -0.9004593 0.016531331 0.067994244 0.5194553 -0.961938 -0.6823607
0.8342385 0.1513538 0.22237234 0.17655317 -0.16853158 0.06276247 -0.9124781 0.102688715
00000000: d8e5 b2be 1462 9c3e 7e69 913e 8c33 87bd
00000010: 6789 133d 94ff 22be 60d3 ffbd 04d3 5d3e
00000020: 2842 803e e987 4cbe dff8 6cbe 1ea4 dd3d
00000030: 7c72 1ebc 7c70 d0be 0e26 a23e 188f 753e
00000040: f287 dabd 86f7 983d 8c60 a7bc 2ae5 6c3e
00000050: 7ad1 3dbf 75a3 6b3e f5af e6be 3e10 c73e
00000060: 4142 8fbe 5e0c 67be b300 b9bd 3d5a 973d
00000070: 7abf 083f 4036 22be 89ad 62be 16d5 bbbd
00000080: 4a47 9cbe c7ea 87bf 8084 66bf b76c 873c
00000090: 9140 8b3d 06fb 043f 9241 76bf 31af 2ebf
000000a0: a890 553f 7efc 1a3e 93b5 633e 5bca 343e
000000b0: 8b93 2cbe 9c89 803d 2a98 69bf 764e d23d

rnn.weight_ih_l0_reverse f4 [48, 12]
-0.50596344 -0.55416334 -1.0854341 -1.3588047 -0.0032454426 -0.11343746 -1.6349918 -0.17185299
-0.24171212 -0.13126335 -0.0023244384 -0.96153575 -1.3059075 0.074685186 0.07593163 -0.23772393
-0.18653275 -0.31923324 -1.2676078 -0.30655387 0.0693437 0.4749414 0.12816118 -0.58712935
-0.9613537 -0.15639308 -0.0053482754 -0.6203994 0.24562621 0.19998856 -0.9364102 -0.11282789
-0.6345783 0.31003577 -0.19300924 -0.81366414 0.18368559 -0.46119437 0.07644193 0.1112067
0.18079242 0.9054961 0.4596862 -0.33155516 0.21786231 -0.94909674 0.46600628 0.6743886
-0.38431764 -0.31474447 -0.71608937 -0.17084576 -0.7223669 0.7124734 -1.15481 -0.5935592
-0.5492138 0.5246497 -0.2248168 0.16097312 0.460655 0.12794936 0.1047108 -1.0736021
-0.5814517 0.9784333 -1.2346436 -0.81670433 0.2100777 0.3295123 0.36742344 -0.40910292
0.9784392 -1.1770842 0.3595859 0.73099685 1.4296393 0.07091706 0.5663436 -0.21364748
1.0285739 -0.16381687 0.6919358 0.21910666 0.0025656947 0.13644087 -0.6668281 -0.80906993
0.7931315 0.12469297 -0.97114354 -0.4968426 -0.86334 -0.22358142 -0.88296056 -1.4443791
-0.2821419 -0.4822441 -1.4820988 -1.2651894 0.3177462 -0.17598031 -0.6453252 -0.72642946
0.29501155 0.183103 -0.31078902 -0.041758537 0.13258122 0.8265408 0.54602164 -0.75571775
0.24875072 -0.008205514 -1.4000753 1.3983799 0.23294176 0.22360489 0.60794944 0.11697168
0.054927155 -1.0131034 0.10417915 -2.3686187 -0.27640396 0.36861834 -0.09444279 0.43503252
0.9842687 0.03908035 0.39212355 -0.4157735 0.2604506 -0.7818624 0.016948475 -0.18377899
0.017321056 -0.6680037 -0.09330603 0.3606661 -0.19883922 1.2754159 0.83779246 -0.4699626
0.004875236 0.8665218 0.6238259 1.1084512 -0.40067533 0.25458756 -0.24055257 0.14183687
-0.3271196 -0.57170266 -0.3559639 0.1965075 0.32629037 -0.11942072 -0.374671 -0.135562
1.4472667 0.5418233 -0.10192199 -0.35271364 0.598701 -0.39981386 0.06741618 -0.31812918
-0.6517457 0.24454655 0.35442886 0.73274815 -6.092476e-05 -0.16552927 1.057865 -0.8958413
-0.0057239933 -0.1662255 -1.7442797 -0.60630065 0.10491036 -0.40941453 -0.43056908 -0.74958616
1.5157801 0.56452173 -1.0901725 -0.75980043 0.22158316 -0.5934703 0.34284568 -0.42745313
-0.16812974 -0.33435798 -0.01547369 -0.18071023 -0.10814426 0.50837886 -0.12641756 0.5975447
1.2680207 0.6831332 0.7315378 0.560884 0.113953546 0.3236354 -0.30817777 0.28219992
0.0023170402 0.9344744 -0.4802234 0.45766455 0.1852453 -0.51485604 -0.26977065 0.10801256
-0.20275815 1.799532 0.7304588 0.30816463 0.02806757 0.34314167 -1.1351005 -1.120491
0.068258345 -0.39444253 0.5437659 -0.40119743 0.31271797 -0.2353561 -0.009459684 -0.5183118
0.08233446 0.06554939 -1.2189933 0.2309928 0.073370986 0.12398544 0.45507666 0.33045015
0.054291658 0.15196279 -1.3084773 -1.3329061 -0.02092482 -0.2052692 -2.086877 -0.44760576
-0.23721892 0.78850853 0.89034927 -0.46575055 0.030449778 -0.6424625 -0.2478911 -1.0283706
00000000: d286 01bf a6dd 0dbf 81ef 8abf 50ed adbf
00000010: 7eb1 54bb e651 e8bd 6947 d1bf 3bfa 2fbe
00000020: 6283 77be e669 06be 9b55 18bb 3527 76bf
00000030: fa27 a7bf 8cf4 983d 0b82 9b3d e76d 73be
00000040: 7102 3fbe 8a72 a3be f940 a2bf a1f4 9cbe
00000050: 1204 8e3d 852b f33e af3c 033e 1c4e 16bf
00000060: 471b 76bf 8225 20be 9640 afbb 7fd2 1ebf
00000070: 7085 7b3e cdc9 4c3e 94b8 6fbf 4f12 e7bd
00000080: b973 22bf 02bd 9e3e 37a4 45be 4b4c 50bf
00000090: 1318 3c3e ab21 ecbe 968d 9c3d 57c0 e33d
000000a0: a621 393e 98ce 673f fd5b eb3e 99c1 a9be
000000b0: 4c17 5f3e 01f8 72bf 6098 ee3e bba4 2c3f
000000c0: 48c5 c4be 3026 a1be a251 37bf 31f2 2ebe
000000d0: 0aed 38bf a864 363f d0d0 93bf 7ff3 17bf
000000e0: 4799 0cbf 714f 063f 6036 66be 23d6 243e
000000f0: f9da eb3e 2805 033e 9e72 d63d cb6b 89bf
00000100: 05da 14bf 9b7a 7a3f cd08 9ebf 8913 51bf
00000110: 9c1e 573e d6b5 a83e ed1e bc3e f075 d1be
00000120: fe7a 7a3f b2aa 96bf a51b b83e 9c22 3b3f
00000130: 6cfe b63f f73c 913d e5fb 103f 68c6 5abe
00000140: 4fa8 833f 9cbf 27be b422 313f 7f5d 603e
00000150: 3725 283b 28b7 0b3e 3fb5 2abf 351f 4fbf
00000160: aa0a 4b3f 075f ff3d dd9c 78bf 2762 febe
00000170: da03 5dbf 87f2 64be b409 62bf 6ae1 b8bf
00000180: e774 90be b3e8 f6be 6ab5 bdbf baf1 a1bf
00000190: a1af a23e 2f34 34be 0834 25bf 48f7 39bf
000001a0: c10b 973e 5a7f 3b3e bd1f 9fbe 000b 2bbd
000001b0: 5fc3 073e 2e98 533f 13c8 0b3f b876 41bf
000001c0: 82b8 7e3e 6c70 06bc ab35 b3bf 1dfe b23f
000001d0: 4988 6e3e aef8 643e 93a2 1b3f d98e ef3d
000001e0: 4cfb 603d 5fad 81bf e15b d53d 7397 17c0
000001f0: d284 8dbe 8bbb bc3e 396b c1bd 95bc de3e
00000200: 09f9 7b3f b812 203d 6bc4 c83e 44e0 d4be
00000210: c859 853e 2228 48bf 87d7 8a3c 8f30 3cbe
00000220: e3e4 8d3c 4a02 2bbf 3b17 bfbd 3aa9 b83e
00000230: 829c 4bbe d440 a33f 9179 563f f09e f0be
00000240: 72c0 9f3b 5fd4 5d3f 0eb3 1f3f bbe1 8d3f
00000250: 5125 cdbe 4d59 823e 6a53 76be af3d 113e
00000260: 387c a7be 1b5b 12bf e640 b6be 4339 493e
00000270: 880f a73e da92 f4bd e1d4 bfbe c4d0 0abe
00000280: 0940 b93f efb4 0a3f 7abc d0bd e296 b4be
00000290: 7844 193f 67b4 ccbe 7f11 8a3d d4e1 a2be
000002a0: ced8 26bf 696a 7a3e b377 b53e 6295 3b3f
000002b0: 7789 7fb8 8180 29be 1f68 873f db55 65bf
000002c0: 5690 bbbb 0437 2abe 8f44 dfbf 8536 1bbf
000002d0: 3edb d63d c89e d1be 8d73 dcbe e1e4 3fbf
000002e0: 1505 c23f 7f84 103f c68a 8bbf 4882 42bf
000002f0: b2e6 623e abed 17bf 7889 af3e 23db dabe
00000300: 342a 2cbe f830 abbe 5c85 7dbc 1a0c 39be
00000310: bd7a ddbd 1e25 023f 9b73 01be b1f8 183f
00000320: 814e a23f d1e1 2e3f 1046 3b3f 1896 0f3f
00000330: 7a60 e93d 8ab3 a53e 7ac9 9dbe 827c 903e
00000340: 7cd9 173b b739 6f3f d7df f5be 0253 ea3e
00000350: f2b0 3d3e 9bcd 03bf 611f 8abe b035 dd3d
00000360: d59f 4fbe 1157 e63f 59ff 3a3f c1c7 9d3e
00000370: f6ed e53c 44b0 af3e f94a 91bf 406c 8fbf
00000380: 08cb 8b3d 5ff4 c9be 3e34 0b3f c069 cdbe
00000390: 921c a03e 3101 71be cafc 1abc 15b0 04bf
000003a0: f89e a83d c23e 863d f907 9cbf 6089 6c3e
000003b0: 8743 963d 14ec fd3d cfff e83e c330 a93e
000003c0: ee60 5e3d 229c 1b3e 2f7c a7bf ab9c aabf
000003d0: 876a abbc 1732 52be 658f 05c0 952c e5be
000003e0: 84e9 72be b2db 493f eeed 633f db76 eebe
000003f0: d071 f93c 6c78 24bf 2ad7 7dbe a6a1 83bf

rnn.weight_hh_l0_reverse f4 [48, 16]
0.23067611 0.4345186 0.13892505 0.822741 -0.32157066 1.150185 -0.8874982 -0.60361904
0.5571437 -0.4312094 0.14829789 0.019962506 0.75377685 -0.23138645 0.50033194 0.14681955
0.48962867 -0.46474072 -0.22448035 -0.6687373 -0.06220593 0.058848284 0.20826814 0.014333983
0.29766667 -1.2381644 0.6935354 0.34242117 0.5269167 -0.6082172 -0.23112497 0.51629895
-0.37934464 0.48866343 0.117247365 -0.13016084 0.060889665 -0.16734472 -0.39180034 0.40030414
-0.2665544 0.4630709 -0.123685196 0.12560497 -1.1162059 1.057271 -0.27627897 0.43441406
0.6738028 -1.0227028 -0.82164454 0.24714595 0.87099195 1.356442 0.20565076 0.30117166
0.312537 -0.23713984 0.97566503 -0.6420213 0.115318604 0.19558671 -0.2739046 -0.586421
0.06400006 0.22366513 0.47457284 -0.35314685 -0.36032853 0.49925014 0.024362465 -0.5490658
0.36754578 0.38687545 -0.019974321 0.79754394 -0.5382108 -0.2429907 0.32748905 0.46364063
-0.18373282 0.6729121 -0.30877897 -0.5343343 -0.83915603 -0.95220375 -1.4422174 -0.5642112
-0.5468318 0.2026632 0.2595502 -0.010580246 -0.05175206 0.6435332 -1.3495551 0.82510084
-0.043648865 0.72599506 0.32870308 0.58951694 -0.1939324 0.40063304 0.11811422 0.3935018
0.7408047 -0.3823789 0.5580257 0.9041843 0.45812482 1.0942298 -0.4722944 -0.15452418
-0.34664473 0.35109586 0.12898473 -0.47507516 0.114450976 -0.7957083 0.2729029 -0.40734172
-0.3126098 0.15357122 0.0065555545 0.30776697 0.107452095 0.6363306 1.2866083 1.3041
-1.2653217 0.67055494 0.08152886 0.4773909 0.03846589 0.07294093 -0.35741585 0.9362968
-0.6324317 -0.77274704 -0.11000616 -0.070555195 -0.22004098 -0.55058384 -0.3814202 -0.094641455
-0.55396837 -0.41971794 0.20352449 0.95194185 0.110530294 -0.06621584 0.19541883 -0.6243585
0.2679292 0.5554926 0.21426442 0.2983872 0.13380145 -0.25508517 1.0834332 0.91880983
-0.101354375 -0.11833474 -0.37077796 -0.28257632 -0.06847771 0.59805745 0.68773687 -0.31863943
-0.7061692 0.3668083 -0.026336655 0.29065344 0.36816233 -0.29396877 -0.5298826 0.19633497
0.58690196 -0.71349835 -0.34076595 0.38616413 0.5216536 1.1314008 0.87635654 -0.5406645
0.5559023 -0.23846216 0.1437563 -0.9447451 -0.06921242 -0.32069758 -0.01414129 -0.8424215
-0.052897837 -0.19166707 0.17637832 -0.38164595 -0.53849214 -0.49857306 0.5915758 -0.005145497
0.25614718 -0.9627303 -0.2583493 0.2668451 0.4357818 -0.066732794 0.037576053 -0.101842925
0.6006178 -0.468852 -0.5280072 -0.61491525 0.4197736 0.24473791 0.115108326 0.3817543
0.0032959972 -0.56204283 -0.14337216 -0.6237398 0.29922062 0.115208104 0.6070832 -0.29718503
-0.18674168 -0.4715079 0.11362633 -0.11185197 -0.16997933 0.6971441 -0.01716939 -0.77316266
-0.4824285 -0.288528 -0.27735662 1.5028481 0.112007625 0.23859525 -0.36445683 0.32738233
-1.0416155 0.7478932 -0.5759108 0.3400245 0.72009254 -0.07981605 0.24410215 0.14594026
0.32561043 -1.2388412 0.76783067 -0.0593884 -0.5206776 -0.006503082 0.64649874 -0.3939886
00000000: 5c36 6c3e 3979 de3e 5e42 0e3e 279f 523f
00000010: e9a4 a4be 4339 933f 1533 63bf c786 1abf
00000020: f8a0 0e3f 7ac7 dcbe 67db 173e 6988 a33c
00000030: 85f7 403f 92f0 6cbe c115 003f dd57 163e
00000040: 9cb0 fa3e 7ff2 edbe 2dde 65be 5e32 2bbf
00000050: a5cb 7ebd e60a 713d 3e44 553e 15d9 6a3c
00000060: c467 983e 2c7c 9ebf 898b 313f d451 af3e
00000070: 03e4 063f 1fb4 1bbf 06ac 6cbe 2b2c 043f
00000080: 7639 c2be 1832 fa3e 631f f03d e248 05be
00000090: 7167 793d 6a5c 2bbe 0e9a c8be aaf4 cc3e
000000a0: d179 88be a117 ed3e aa4e fdbd 979e 003e
000000b0: d6df 8ebf a854 873f 7074 8dbe 856b de3e
000000c0: 577e 2c3f ede7 82bf 4c57 52bf d413 7d3e
000000d0: 54f9 5e3f e49f ad3f 1d96 523e 2c33 9a3e
000000e0: da04 a03e c9d4 72be 2fc5 793f 825b 24bf
000000f0: 292c ec3d e247 483e 393d 8cbe b01f 16bf
00000100: 7712 833d 7908 653e 36fb f23e aacf b4be
00000110: fb7c b8be b79d ff3e cb93 c73c 948f 0cbf
00000120: f62e bc3e 8a14 c63e 30a1 a3bc d72b 4c3f
00000130: 2fc8 09bf 8ed2 78be a5ac a73e 4e62 ed3e
00000140: 7524 3cbe f843 2c3f 4718 9ebe 22ca 08bf
00000150: eed2 56bf a0c3 73bf 949a b8bf 2570 10bf
00000160: 2bfd 0bbf f186 4f3e c4e3 843e c558 2dbc
00000170: f8f9 53bd 97be 243f 39be acbf cf39 533f
00000180: 27c9 32bd d0da 393f c54b a83e 95ea 163f
00000190: 3796 46be c61f cd3e dee5 f13d 1179 c93e
000001a0: 60a5 3d3f 2bc7 c3be c6da 0e3f 9f78 673f
000001b0: 568f ea3e b90f 8c3f 92d0 f1be 963b 1ebe
000001c0: 6b7b b1be d6c2 b33e 9314 043e 0d3d f3be
000001d0: 4665 ea3d 8ab3 4bbf eeb9 8b3e 188f d0be
000001e0: 640e a0be c641 1d3e facf d63b a293 9d3e
000001f0: d80f dc3d 90e6 223f 95af a43f c0ec a63f
00000200: 10f6 a1bf 7da9 2b3f 9af8 a63d 946c f43e
00000210: 698e 1d3d 0e62 953d 36ff b6be 26b1 6f3f
00000220: 0be7 21bf c0d2 45bf e94a e1bd 3e7f 90bd
00000230: 6c52 61be 10f3 0cbf 8249 c3be 61d3 c1bd
00000240: dfd0 0dbf 45e5 d6be b968 503e 76b2 733f
00000250: b55d e23d 2c9c 87bd e01b 483e f5d5 1fbf
00000260: 042e 893e c334 0e3f 2268 5b3e 35c6 983e
00000270: 3f03 093e 869a 82be f0ad 8a3f 1f37 6b3f
00000280: e292 cfbd 7c59 f2bd 9cd6 bdbe d8ad 90be
00000290: 0b3e 8cbd 4b1a 193f 860f 303f b524 a3be
000002a0: 81c7 34bf 4cce bb3e f8bf d7bc 87d0 943e
000002b0: c67f bc3e 1383 96be 63a6 07bf 090c 493e
000002c0: 353f 163f d4a7 36bf e078 aebe 4eb7 c53e
000002d0: 178b 053f bed1 903f e758 603f fd68 0abf
000002e0: 9d4f 0e3f 6d2f 74be da34 133e d1da 71bf
000002f0: 3ebf 8dbd 7932 a4be dfb0 67bc efa8 57bf
00000300: 67ab 58bd 5f44 44be 859c 343e 1967 c3be
00000310: 9fda 09bf f844 ffbe 8371 173f 8f9b a8bb
00000320: b925 833e 7e75 76bf 5c46 84be ec9f 883e
00000330: cb1e df3e 34ab 88bd 59e9 193d 0693 d0bd
00000340: 17c2 193f 5f0d f0be 7b2b 07bf 166b 1dbf
00000350: 91ec d63e 939c 7a3e eabd eb3d 4d75 c33e
00000360: a801 583b 0ae2 0fbf 27d0 12be 69ad 1fbf
00000370: 7233 993e 3af2 eb3d ce69 1b3f a328 98be
00000380: 3639 3fbe 7c69 f1be ecb4 e83d a512 e5bd
00000390: 100f 2ebe 0978 323f d2a6 8cbc fded 45bf
000003a0: de00 f7be f1b9 93be b001 8ebe 545d c03f
000003b0: 4164 e53d 5052 743e 169a babe a89e a73e
000003c0: a853 85bf ee75 3f3f e46e 13bf b117 ae3e
000003d0: fc57 383f 9976 a3bd eaf5 793e 5d71 153e
000003e0: 69b6 a63e 5992 9ebf 8d90 443f 4041 73bd
000003f0: 214b 05bf ce17 d5bb f180 253f e0b8 c9be

rnn.bias_ih_l0_reverse f4 [48]
-0.075434126 -0.11035266 -0.055385422 -0.23578137 0.16834201 -0.18549523 0.09802863 0.18559203
0.023712039 -0.20198618 -0.030144885 -0.30428618 0.27060074 0.31464985 -0.31559733 -0.5058784
-1.2894161 -0.29843056 0.013055933 -0.094712764 -0.3161204 0.28327388 -0.3021396 -0.096029975
1.0083321 0.032273978 -0.7580175 -0.16640575 0.056077395 0.14462501 0.38174114 -0.46612376
0.1418852 -0.12433501 -0.19980988 0.024897236 -0.05644774 -0.082025014 -0.5385174 -0.43354654
-0.049025524 -0.1159536 -0.32571265 -0.30639318 -0.06437883 0.027227573 0.1037416 0.14710622
00000000: 357d 9abd 9300 e2bd d3db 62bd ac70 71be
00000010: d961 2c3e 76f2 3dbe 3cc3 c83d d60b 3e3e
00000020: c03f c23c 77d5 4ebe 68f2 f6bc 66cb 9bbe
00000030: 2e8c 8a3e c919 a13e f995 a1be 3f81 01bf
00000040: 960b a5bf e4cb 98be 8de8 553c c4f8 c1bd
00000050: 88da a1be 4609 913e 0bb2 9abe 5dab c4bd
00000060: 0711 813f b831 043d 6f0d 42bf 4566 2abe
00000070: 69b1 653d 9418 143e 9373 c33e c6a7 eebe
00000080: 5b4a 113e 5ba3 febd f69a 4cbe 4af5 cb3c
00000090: bf35 67bd bbfc a7bd 47dc 09bf d0f9 ddbe
000000a0: fdce 48bd 1579 edbd cfc3 a6be 91df 9cbe
000000b0: 0cd9 83bd 5c0c df3c 7a76 d43d 03a3 163e

rnn.bias_hh_l0_reverse f4 [48]
-0.013956873 -0.1732939 -0.00514815 -0.09723246 0.17077492 -0.01599104 0.10030967 0.27366516
0.03137962 -0.21316126 -0.15799223 -0.31391752 0.26138562 0.17468627 -0.29230917 -0.41690165
-1.3735207 -0.13017812 -0.23606475 -0.24187143 -0.3926411 0.36246425 -0.22904919 -0.14044067
0.91916454 -0.106013775 -0.58458436 -0.14104998 0.10539664 -0.02840696 0.36743724 -0.58579904
0.15765728 0.18585467 0.14492996 -0.4463517 -0.60645604 0.11003821 -0.17455922 0.2800787
0.39552283 -0.14244397 0.6724545 0.5462259 0.20484634 0.17896725 -0.03379597 -0.21213116
00000000: 5eab 64bc f573 31be d0b1 a8bb d021 c7bd
00000010: 9fdf 2e3e a4ff 82bc 286f cd3d d71d 8c3e
00000020: eb87 003d f246 5abe b7c8 21be ccb9 a0be
00000030: 56d4 853e f5e0 323e 8ca9 95be 2274 d5be
00000040: 87cf afbf 6a4d 05be f5ba 71be 25ad 77be
00000050: 4108 c9be ea94 b93e df8b 6abe aecf 0fbe
00000060: 5e4e 6b3f c01d d9bd 52a7 15bf 686f 10be
00000070: 32da d73d b7b5 e8bc bc20 bc3e edf6 15bf
00000080: e970 213e b050 3e3e 8568 143e 3688 e4be
00000090: b440 1bbf b75b e13d a7bf 32be 7a66 8f3e
000000a0: f881 ca3e d5dc 11be fa25 2c3f 76d5 0b3f
000000b0: 3dc3 513e 3143 373e a56d 0abd e938 59be
