emulation/models/checkpoint/mlp/best_MLP1_cic-ids-2018.pth (torch, 4169 bytes, 6 tensors)

linear_relu_stack.0.weight f4 [8, 16]
0	0xbea6d041	-0.3258076
1	0x3e63f82b	0.22262637
2	0x3f1cda01	0.6127015
3	0xbf43447b	-0.7627637
4	0x3e9d3378	0.3070333
5	0x3f863a93	1.0486625
6	0x3e5be3b6	0.21473584
7	0xbe80b4c1	-0.25137904
8	0x3e439fa7	0.19103871
9	0xbecec87b	-0.4038733
10	0x3f9be099	1.2177917
11	0xbf807f98	-1.0038939
12	0xbe084f29	-0.13311447
13	0x3d257887	0.040398147
14	0x3e21d8ba	0.15805331
15	0xbedfd6fa	-0.43718702
16	0xbe4b3383	-0.19843869
17	0xb9369023	-0.00017410568
18	0xbe44c6d3	-0.1921647
19	0x3e932a18	0.28743052
20	0x3e00a929	0.1256453
21	0xbf827c99	-1.0194274
22	0xbe505f4a	-0.2034885
23	0x3da05ad7	0.07829826
24	0xbcf75c65	-0.030195424
25	0xbdf0332c	-0.1172851
26	0xbd5a9ef3	-0.053374242
27	0xbd43a365	-0.047763247
28	0x3eae649e	0.3406114
29	0x3dd8f8a1	0.10594297
30	0xbe261269	-0.1621796
31	0xbdde481d	-0.10853598
32	0xbf087023	-0.5329611
33	0x3f5c0e44	0.8595927
34	0x3f27eaa9	0.6559244
35	0x3f8a753f	1.0817031
36	0xbe0e2daa	-0.13884607
37	0xbe924346	-0.2856695
38	0xbf4d00fc	-0.8007963
39	0xbf7c4dcb	-0.985562
40	0x3ea6b118	0.32556987
41	0x3f5faec9	0.87376076
42	0xbf8acdf5	-1.0844103
43	0xbe3cc8ea	-0.18436018
44	0xbf098cbf	-0.53730386
45	0xbf707c62	-0.93939793
46	0x3ddaf69a	0.10691567
47	0x3fa7de29	1.3114673
48	0x3f13af8c	0.5768974
49	0x3edfdb36	0.43721932
50	0xbe71726c	-0.23578805
51	0x3fc1d8e9	1.5144321
52	0xbe2f0617	-0.17092167
53	0xbe9ed72c	-0.31023538
54	0xbe0a0b41	-0.13480856
55	0xbec14854	-0.37750494
56	0x3eaa8087	0.33301184
57	0x3e56d226	0.20978603
58	0xbde547d8	-0.11195344
59	0xbed9fe18	-0.4257667
60	0xbeca52bd	-0.3951625
61	0xbe826de0	-0.25474453
62	0xbe532f03	-0.20623402
63	0x3f2add77	0.6674418
64	0x3f1e3d3e	0.618122
65	0xbeeec7e7	-0.46636888
66	0x3e0873f9	0.1332549
67	0xc00dadb3	-2.2137268
68	0xbdbdae94	-0.09261814
69	0xbeb88fed	-0.36047307
70	0xbf44ccb7	-0.7687487
71	0xbe557da5	-0.20848711
72	0x3d29aaa6	0.04142251
73	0xbe176e09	-0.14788069
74	0xbd8fdda0	-0.070246935
75	0xbea32f4b	-0.3187202
76	0x3f2beb35	0.6715577
77	0x3ef777d5	0.48333612
78	0xbf6bd0e1	-0.921156
79	0xbf6cecb4	-0.9254868
80	0x3dbac3bd	0.09119365
81	0x3e3717c8	0.17880166
82	0x3dbb3b5a	0.0914218
83	0x3f7f3ad5	0.99699146
84	0xbea0c996	-0.31403798
85	0x3ccca7d7	0.024982376
86	0xbd8dc24b	-0.06921824
87	0xbd7413b0	-0.059589088
88	0x3da7b40e	0.081886396
89	0xbcfa6a78	-0.030568346
90	0xbe7702a6	-0.24122104
91	0x3de14ea3	0.11001327
92	0xbe97bc6c	-0.29635942
93	0x3d2c9469	0.042133722
94	0xbeabf432	-0.33584744
95	0xbe3552be	-0.17707345
96	0xc00c949f	-2.196571
97	0xbe280ac7	-0.16410361
98	0x3c89ef67	0.016837789
99	0x3f433290	0.7624903
100	0xbaa0a1f1	-0.0012255294
101	0x3de40d03	0.11135294
102	0xbf62c6b0	-0.88584423
103	0xbeee8fb7	-0.4659402
104	0xbf42aa69	-0.76041275
105	0xbea6a3a9	-0.32546738
106	0xbed95815	-0.42450014
107	0xbe569d6d	-0.2095849
108	0xbe91dfc9	-0.28491047
109	0xbe486855	-0.1957105
110	0xbef99ce4	-0.4875251
111	0x3f26dd7f	0.65181726
112	0xbff2dcf8	-1.8973684
113	0xbf0d5cf9	-0.5521999
114	0xbfa580f3	-1.2929977
115	0x3e82c622	0.25541788
116	0xbdd1814e	-0.10229741
117	0x3f8fa50c	1.1222243
118	0x3edc64f3	0.43045768
119	0xbf1596c9	-0.58433205
120	0xbecec817	-0.4038703
121	0xbe76d1fa	-0.24103537
122	0x3ee7058f	0.45121428
123	0x3ebe5746	0.3717596
124	0xbead7f9d	-0.33886424
125	0xbdd41e15	-0.103573
126	0xbef7918c	-0.4835323
127	0xbe793586	-0.24336824

linear_relu_stack.0.bias f4 [8]
0	0x3f8b2be3	1.0872768
1	0xbe0e7d6d	-0.13915034
2	0x3f2395b1	0.63900286
3	0x3e1ac270	0.15113235
4	0xbce06896	-0.02739362
5	0x3c972574	0.018450476
6	0x3eaa6365	0.33278957
7	0x3e884a86	0.26619357

linear_relu_stack.2.weight f4 [4, 8]
0	0xbdb07c2c	-0.08617434
1	0x3e9956f1	0.29949144
2	0xbebfb4fe	-0.37442774
3	0xbee68889	-0.45026043
4	0x3fbca4fb	1.4737848
5	0x3e7a36ae	0.24434921
6	0xbf4dc96a	-0.8038546
7	0xbfcc7871	-1.5974256
8	0x3f747a95	0.95499545
9	0xbedd024a	-0.4316581
10	0x3d770b5e	0.060313575
11	0xbe9571bd	-0.29188338
12	0xbe7475bf	-0.23873042
13	0xbf0cc8d8	-0.54993963
14	0x3f948f91	1.1606313
15	0x3f9bc128	1.2168322
16	0x3fa68699	1.3009826
17	0x3ea990a4	0.33118165
18	0x3f775378	0.9661174
19	0x3f1d8283	0.6152727
20	0xbf9ba7b2	-1.2160552
21	0x3f48f436	0.78497636
22	0x3f86fe32	1.0546324
23	0x3fcf3cca	1.6190426
24	0xb72fdf4e	-1.0482805e-05
25	0x387f6b2c	6.089655e-05
26	0x00056aa8	4.97439e-40
27	0x00056288	4.94524e-40
28	0xba0ea85d	-0.0005441958
29	0xb725994a	-9.870457e-06
30	0xb6a75415	-4.9867763e-06
31	0xa6883b8c	-9.453036e-16

linear_relu_stack.2.bias f4 [4]
0	0xbea9d7b6	-0.33172387
1	0xbc972bd7	-0.018453522
2	0xbaecd4d2	-0.0018068796
3	0xb890e659	-6.909361e-05

linear_relu_stack.4.weight f4 [2, 4]
0	0xbfe2d658	-1.7721663
1	0x4006d3a2	2.106667
2	0x400647e7	2.0981386
3	0xb1f233b0	-7.049003e-09
4	0x3fb5f977	1.4216756
5	0xbfe149dd	-1.7600666
6	0xbf3d0725	-0.73839027
7	0xb0935d20	-1.0722125e-09

linear_relu_stack.4.bias f4 [2]
0	0xbe8f5c70	-0.28000212
1	0x3e8f5ae3	0.2799903
