emulation/models/checkpoint/mlp/best_MLP1Teacher_cic-ids-2018.pth (torch, 59265 bytes, 14 tensors)

linear_relu_stack.0.weight f4 [128, 16]
0.064327404 0.14875238 0.009704871 -0.033232257 0.0008965956 -0.21332876 -0.16428429 0.22756882
-0.22861178 0.124367155 -0.1259331 0.077641465 -0.08765447 0.08118111 0.0943481 -0.100999214
-0.08808879 -0.01956303 -0.07739555 0.115065366 0.059245005 0.2532053 0.19460526 0.12184061
0.15131542 0.08063215 0.12076211 0.12723179 0.14932886 0.09601039 0.2376056 -0.40111428
0.008114539 0.043057524 -0.061506957 -0.026387071 -0.21841118 0.1598334 -0.79534715 -0.36833376
-0.089519486 0.010712697 0.10042532 -0.017886125 -0.14337167 -0.10006613 0.14163718 -0.3058009
-0.31526646 -0.0013618583 0.025815636 -0.005005397 -0.3212281 0.06746618 -0.5825003 -0.6108062
-0.034675367 -0.24542722 0.06012552 -0.15813372 -0.0300622 0.028772864 -0.35360008 -0.049954936
0.30188027 0.14349936 0.14926155 -0.06967675 0.14578223 0.17548086 0.06579963 0.0588784
-0.22272214 0.11420817 -0.14877455 -0.06531657 -0.012016562 0.048841827 -0.1400974 0.18999699
-0.110759325 -0.24401529 -0.41636103 -0.13726194 -0.0024283202 0.12468732 -0.03848656 0.51724344
0.0046821157 0.1709337 0.1589239 0.06289494 -0.16937505 -0.09347791 -0.17970917 0.086858444
-0.13525048 0.17653888 0.1835434 -0.31479192 -0.25899523 -0.04458559 0.023416124 -0.15290876
-0.015889049 -0.031036058 0.06764851 0.021909703 0.08425146 0.0785649 0.2651948 0.09027005
-0.03115469 -0.15654753 0.16583061 -0.011908092 0.22811672 0.12781262 0.110522136 0.1908613
-0.021920212 -0.11660574 -0.13762964 -0.10989057 -0.11018533 -0.13893364 0.22775473 -0.17388691
0.10205384 0.02632239 -0.09770963 -0.18959156 -0.27040407 -0.16735275 0.06395647 0.16504619
-0.12008289 0.032474715 -0.07865732 -0.082387954 0.15752254 -0.1144817 0.096053965 -0.005508096
-0.14547935 0.06149267 -0.2037817 0.038232688 0.26127532 0.2784379 -0.025876144 0.4549988
0.14010088 -0.05967201 -0.02272659 -0.12143742 -0.077622734 0.074102685 0.1354864 -0.114236176
0.15098035 0.21101794 0.23553991 0.12428219 -0.24651344 -0.22787978 -0.38313043 -0.3561357
-0.024664799 -0.02373436 0.030962544 0.07457154 -0.17148286 0.1303999 -0.14281943 -0.18649565
0.118321955 -0.15500344 -0.067506626 0.11563355 0.21373439 0.048515588 -0.17859015 -1.5865027
0.11913396 0.04757282 0.17169347 -0.12110676 0.20053554 -0.14721246 -0.1735401 -0.066460684
-0.07971212 0.22418606 -0.122688234 -0.14970331 -0.16355278 0.051130194 0.054836374 -0.15253973
-0.23137784 0.033759106 -0.1648563 0.12056945 -0.08978462 0.17831704 0.115996554 -0.09608992
-0.0050815446 0.12820964 0.10185648 0.009138557 -0.08305753 -0.23524135 -0.15179297 0.3390189
-0.18425043 -0.20058599 0.22592098 0.084696844 0.12382144 0.23367298 -0.052590057 0.032730695
0.08721155 0.1673889 0.18080264 0.009515498 -0.093879834 -0.21858406 -0.31378433 0.36888704
-0.14001557 -0.1482264 0.05051999 0.112256154 0.024515515 -0.12030116 0.15014029 -0.2833392
0.0019394078 -0.048675176 -0.03212537 0.10233884 -0.13081785 -0.044612527 -0.2900271 -0.42722642
-0.20299992 0.12854217 -0.0080414405 0.12152642 0.108306766 -0.16408558 -0.1244506 0.04075647
00000000: 16be 833d 8b52 183e 2e01 1f3c 8c1e 08bd
00000010: 8309 6b3a db72 5abe 243a 28be cd07 693e
00000020: 3519 6abe 35b4 fe3d 9bf4 00be 7d02 9f3d
00000030: 3084 b3bd 4842 a63d 9439 c13d add8 cebd
00000040: e567 b4bd a642 a0bc 8f81 9ebd 64a7 eb3d
00000050: e4aa 723d 20a4 813e 9a46 473e 9287 f93d
00000060: 6ef2 1a3e 7822 a53d 2052 f73d 0d49 023e
00000070: aae9 183e 18a1 c43d e24e 733e da5e cdbe
00000080: d8f2 043c 165d 303d b8ee 7bbd b329 d8bc
00000090: 2ea7 5fbe 5eab 233e df9b 4bbf 3e96 bcbe
000000a0: fe55 b7bd 4f84 2f3c caab cd3d ec85 92bc
000000b0: 06d0 12be 79ef ccbd 5609 113e f091 9cbe
000000c0: 9b6a a1be 6280 b2ba 507b d33c 5004 a4bb
000000d0: 0278 a4be b52b 8a3d bd1e 15bf cc5d 1cbf
000000e0: c207 0ebd 4651 7bbe 2d46 763d ceed 21be
000000f0: 0145 f6bc 12b5 eb3c 120b b5be 8c9d 4cbd
00000100: 0d90 9a3e 7ff1 123e 05d8 183e afb2 8ebd
00000110: f047 153e 41b1 333e f5c1 863d 7a2a 713d
00000120: 4611 64be f9e5 e93d 5b58 18be b2c4 85bd
00000130: 1de1 44bc 5e0e 483d b175 0fbe 928e 423e
00000140: c9d5 e2bd 25df 79be 462d d5be 658e 0cbe
00000150: 7424 1fbb 115c ff3d 15a4 1dbd 116a 043f
00000160: 6f6c 993b 3e09 2f3e f2bc 223e 10cf 803d
00000170: a770 2dbe 5971 bfbd ae05 38be d7e2 b13d
00000180: 1a7f 0abe 9cc6 343e cdf2 3b3e 682c a1be
00000190: 069b 84be 619f 36bd 2cd3 bf3c 1d94 1cbe
000001a0: c029 82bc 553f febc 4d8b 8a3d fa7b b33c
000001b0: 088c ac3d a2e6 a03d 9dc7 873e 81df b83d
000001c0: 1f38 ffbc ff4d 20be 80cf 293e 281a 43bc
000001d0: 6e97 693e 50e1 023e 6e59 e23d 2571 433e
000001e0: 0492 b3bc fdce eebd c9ee 0cbe 4f0e e1bd
000001f0: d9a8 e1bd 9f44 0ebe 8938 693e 690f 32be
00000200: 9b01 d13d 0ea2 d73c fd1b c8bd 4a24 42be
00000210: 6772 8abe 855e 2bbe 9cfb 823d de01 293e
00000220: 05ee f5bd 3504 053d 1717 a1bd 04bb a8bd
00000230: 974d 213e 6275 eabd f1b7 c43d 427d b4bb
00000240: 8af8 14be bddf 7b3d 26ac 50be e199 1c3d
00000250: e1c5 853e 6a8f 8e3e 35fa d3bc 9af5 e83e
00000260: 9b76 0f3e a36a 74bd 1d2d babc 2fb4 f8bd
00000270: abf8 9ebd 26c3 973d f2bc 0a3e a8f4 e9bd
00000280: 989a 1a3e 1615 583e 6031 713e a987 fe3d
00000290: 056e 7cbe 5159 69be ac29 c4be 6b57 b6be
000002a0: d50d cabc 8f6e c2bc 29a5 fd3c f7b8 983d
000002b0: 3499 2fbe 8d87 053e 423f 12be b7f8 3ebe
000002c0: c852 f23d 39b9 1ebe ea40 8abd 48d1 ec3d
000002d0: 30dd 5a3e 48b8 463d 56e0 36be 8512 cbbf
000002e0: 81fc f33d b8db 423d 6ad0 2f3e d206 f8bd
000002f0: 3059 4d3e ddbe 16be 7fb4 31be 8a1c 88bd
00000300: 1c40 a3bd 0891 653e f843 fbbd d34b 19be
00000310: 617a 27be e56d 513d 1b9c 603d 6033 1cbe
00000320: 50ee 6cbe fd46 0a3d 17d0 28be 1eed f63d
00000330: 00e1 b7bd be98 363e 9a8f ed3d cbca c4bd
00000340: 1683 a6bb 6349 033e 219a d03d e3b9 153c
00000350: 111a aabd 1ce3 70be 9e6f 1bbe e393 ad3e
00000360: 25ac 3cbe 6a66 4dbe d457 673e 8a75 ad3d
00000370: 1896 fd3d f847 6f3e ac68 57bd 9f10 063d
00000380: f89b b23d ff67 2b3e 5424 393e e4e6 1b3c
00000390: 1244 c0bd 80d4 5fbe 57a8 a0be c3de bc3e
000003a0: 3e60 0fbe a9c8 17be 0dee 4e3d 8ee6 e53d
000003b0: c3d4 c83c 7460 f6bd 60be 193e d611 91be
000003c0: ba33 fe3a 9f5f 47bd e495 03bd 0797 d13d
000003d0: 1df5 05be a0bb 36bd 6f7e 94be 6cbd dabe
000003e0: 36df 4fbe 8fa0 033e 3fc0 03bc d8e2 f83d
000003f0: f0cf dd3d 0d06 28be f5df febd 42f0 263d

linear_relu_stack.0.bias f4 [128]
0.015399359 0.005118516 -0.04331909 0.015490545 -0.026740665 0.019426655 0.009058462 -0.02450007
-0.027287152 -0.010968086 0.028312284 -0.072657935 0.023404375 0.038294956 0.0052996688 0.044233542
0.05570257 -0.006472052 0.0023939156 -0.0028361597 0.017938206 0.024225388 0.034622118 0.047639433
0.03423032 -0.025295714 0.035167538 0.04991461 0.048754945 0.006710796 0.05124183 -0.0028282234
-0.0034550168 0.04925475 -0.1023485 -0.009216833 0.006791492 0.038008206 -0.023420718 0.04747232
-0.023891836 0.005431856 0.010879579 0.056317355 -0.036191795 0.0060193264 0.029314384 0.011223021
-0.008842095 -0.02638086 0.04375581 0.037762206 -0.015444862 0.015494526 -0.041872654 0.033584435
-0.013028691 0.030614994 0.05483715 0.036307886 0.031489436 0.053411108 0.02285761 0.06499788
0.0075605945 -0.0028081613 0.061285302 0.052433852 0.018409027 0.0060388446 0.04720144 0.029306453
0.015971197 0.03572877 0.001438527 0.020607252 0.029195545 -0.0042439513 0.048043463 -0.013406458
-0.082841255 0.013808086 0.059284598 -0.061185773 -0.015885081 0.01529264 0.018631758 0.03839696
-0.005004203 0.040225927 0.028091146 -0.06751012 0.0028034716 -0.0018201224 -0.036248025 0.030086862
0.022551615 0.045472085 0.05495469 -0.019147983 0.03576449 -0.048778195 0.023145173 0.032061256
0.043242496 0.034381744 0.02321763 0.044259608 0.020076632 0.030988052 -0.026488682 0.021337401
0.01909716 0.031027643 -0.00013367034 -0.011717635 0.0301 0.0031803309 0.006562206 -0.01183644
0.038161963 0.011500497 0.06656667 -0.012528213 0.07081942 0.008485559 0.035677515 0.016203878
00000000: 984d 7c3c 39b9 a73b 5c6f 31bd 0ecc 7d3c
00000010: 3d0f dbbc a624 9f3c f269 143c 5fb4 c8bc
00000020: 4e89 dfbc 7db3 33bc 2aef e73c afcd 94bd
00000030: 88ba bf3c 2cdb 1c3d d8a8 ad3b 3b2e 353d
00000040: 6128 643d 8213 d4bb 3de3 1c3b ddde 39bb
00000050: 25f3 923c 5274 c63c eccf 0d3d 9121 433d
00000060: 1835 0c3d f538 cfbc d60b 103d 4373 4c3d
00000070: 44b3 473d 3de6 db3b f4e2 513d b759 39bb
00000080: 906d 62bb 59bf 493d 179c d1bd 3302 17bc
00000090: 2a8b de3b 7eae 1b3d cedc bfbc 5672 423d
000000a0: d0b8 c3bc b6fd b13b 4340 323c 07ad 663d
000000b0: d93d 14bd c53d c53b b824 f03c c3e0 373c
000000c0: 6fde 10bc ac1c d8bc 4b39 333d 8bac 1a3d
000000d0: 720c 7dbc c1dc 7d3c a982 2bbd d58f 093d
000000e0: 4a76 55bc 4ccc fa3c eb9c 603d 94b7 143d
000000f0: 11fb 003d 9bc5 5a3d e23f bb3c 9c1d 853d
00000100: ddbe f73b 2109 38bb 4c06 7b3d e1c4 563d
00000110: 87ce 963c 80e1 c53b 4c56 413d 1614 f03c
00000120: 07d6 823c 5558 123d f58c bc3a 8ad0 a83c
00000130: 7f2b ef3c d810 8bbb 39c9 443d c3a6 5bbc
00000140: ada8 a9bd 4f3b 623c 68d4 723d ef9d 7abd
00000150: 6e21 82bc fb8d 7a3c a1a1 983c 2146 1d3d
00000160: 4cfa a3bb f1c3 243d 671f e63c bf42 8abd
00000170: 73ba 373b 2c91 eeba cf78 14bd b978 f63c
00000180: 2abe b83c f040 3a3d 2b18 613d 3bdc 9cbc
00000190: c97d 123d a5cb 47bd f29a bd3c aa52 033d
000001a0: 0b1f 313d dfd3 0c3d e632 be3c 9049 353d
000001b0: c077 a43c a8da fd3c cbfe d8bc c6cb ae3c
000001c0: a671 9c3c af2d fe3c dc29 0cb9 53fb 3fbc
000001d0: 4694 f63c 196d 503b c607 d73b a1ed 41bc
000001e0: b84f 1c3d 956c 3c3c 1b54 883d 2243 4dbc
000001f0: c609 913d 0407 0b3c 9622 123d ffbd 843c

linear_relu_stack.2.weight f4 [64, 128]
0.015824355 0.1451687 -0.1531052 -0.06968166 -0.1414146 -0.068695016 -0.10317775 0.15588793
-0.06666402 0.08679738 0.03650095 0.06524603 -0.18963194 -0.15083097 -0.09051445 -0.0048350263
0.011725715 0.21270078 -0.13564898 -0.1727906 -0.06687175 0.06210096 0.16379833 0.110828
-0.2977418 -0.11110163 0.11198544 0.075506404 0.060588762 -0.052825388 0.054511987 -0.03160944
-0.064939596 0.0887261 0.041176923 0.12816758 0.024710706 -0.12965544 -0.0061556366 0.014695989
-0.11031966 -0.22399573 0.0852299 0.1635134 -0.006650605 0.1266512 0.10247695 0.13186622
0.14399344 0.13895968 0.17808685 -0.10120072 -0.13725767 0.08675154 0.2385744 -0.12022775
0.038831625 0.17859079 -0.14761509 0.017938051 0.1571353 -0.021795565 -0.16999881 0.045720607
0.074436985 -0.12401523 -0.081886 -0.13299707 -0.017028762 0.08032593 -0.10339376 0.0152925225
-0.06314951 0.15276515 0.02226439 -0.18414085 -0.16796346 -0.01699676 -0.09470454 0.18717846
-0.031570118 -0.0027600569 -0.11839213 0.06737991 -0.032707028 -0.05947782 -0.040050372 -0.314667
-0.118181914 -0.07660837 -0.09294902 -0.015482982 -0.103593744 0.15260571 0.1558252 0.024557434
0.054007243 0.01159922 0.019159604 0.08935256 -0.058285177 0.13009177 0.056002654 -0.15238109
-0.07774831 0.08683667 -0.14790255 0.114946336 -0.054321483 -0.49817675 -0.044295594 0.15548722
-0.020012787 0.07313762 -0.035293426 -0.15511526 -0.0743774 -0.014032595 0.10528806 -0.21309656
0.04473188 -0.025664464 0.19607686 0.087635286 0.103333935 -0.23233908 0.02640948 -0.04989992
-0.054717187 0.19288445 0.22761016 -0.200715 0.01448943 0.07259247 -0.24845268 -0.0894012
0.1936608 0.2505076 -0.14903092 0.086676456 0.091129325 -0.068379626 0.17206238 -0.1188659
0.018033106 0.39694124 -0.006778005 0.1936037 0.18738927 0.19931228 0.0013830517 -0.0066066384
-0.07048565 0.08267509 0.13569722 -0.04276887 -0.25643003 0.053830095 0.070946686 -0.052644175
0.15472908 -0.017998267 -0.13415031 -0.015053993 0.014478159 0.12122865 -0.009979739 0.08248596
0.1102168 -0.06565943 0.20392382 0.09131052 -0.09981838 -0.0012152352 0.1258522 -0.016403282
0.16068119 0.07231277 -0.15281637 0.04517661 0.08683444 0.07668171 0.03316266 0.018933471
0.11985226 0.0098498 0.10112383 0.08633103 -0.04623999 0.13968346 0.09501448 0.029053546
-0.32457134 0.0032683418 0.2188089 0.10184022 0.22501116 -0.007887026 0.003000688 -0.012034022
-0.06358628 0.0873067 -0.23449832 -0.14714341 -0.15351367 -0.12220037 0.058206465 0.12424755
0.18528274 0.036938082 0.039018963 0.06735351 0.06931452 0.060048874 -0.1990591 0.07036013
0.17934671 0.04474248 0.012383638 0.038699653 0.27318946 -0.12985845 0.07434557 -0.089302324
-0.111238405 0.2223926 0.11302184 0.22282848 -0.37453702 0.058723584 -0.13633768 -0.14166935
0.036850892 -0.124935076 0.1925024 0.047906324 0.093814954 0.0066255825 0.09556856 -0.03271706
-0.006047568 -0.049633797 0.13989508 0.09876974 -0.022838637 0.029480191 0.10191767 0.1888651
0.0012374952 0.22952844 -0.12736875 0.09347238 -0.07898109 0.2511934 0.14917777 -0.07114381
00000000: 14a2 813c 1ba7 143e 9cc7 1cbe 42b5 8ebd
00000010: fdce 10be f9af 8cbd db4e d3bd 16a1 1f3e
00000020: 2587 88bd d3c2 b13d 0582 153d b69f 853d
00000030: e02e 42be 6f73 1abe a45f b9bd 246f 9ebb
00000040: 371d 403c 3cce 593e 91e7 0abe 05f0 30be
00000050: 0ef4 88bd 945d 7e3d c0ba 273e caf9 e23d
00000060: 9d71 98be 4089 e3bd 9f58 e53d 1aa3 9a3d
00000070: ec2b 783d 6f5f 58bd f647 5f3d e678 01bd
00000080: 0dff 84bd 08b6 b53d 22a9 283d 5d3e 033e
00000090: 1b6e ca3c 65c4 04be 39b5 c9bb 72c7 703c
000000a0: 46ef e1bd 235f 65be 048d ae3d 0f70 273e
000000b0: 51ed d9bb dab0 013e 6fdf d13d f007 073e
000000c0: 0473 133e 724b 0e3e 665c 363e 5342 cfbd
000000d0: 468d 0cbe cbaa b13d d94c 743e f739 f6bd
000000e0: e90d 1f3d 81e0 363e 6928 17be d2f2 923c
000000f0: 13e8 203e 9d8c b2bc 2b14 2ebe 8845 3b3d
00000100: 6b72 983d b2fb fdbd d9b3 a7bd 6230 08be
00000110: e77f 8bbc ec81 a43d 1cc0 d3bd 7d8d 7a3c
00000120: 8854 81bd 786e 1c3e cf63 b63c 6b8f 3cbe
00000130: 9dfe 2bbe ca3c 8bbc 74f4 c1bd b6ab 3f3e
00000140: ab4f 01bd 12e2 34bb 9377 f2bd 7afe 893d
00000150: cef7 05bd 049f 73bd dc0b 24bd 081c a1be
00000160: 5c09 f2bd d9e4 9cbd 0e5c bebd 55ac 7dbc
00000170: f528 d4bd ac44 1c3e a490 1f3e ac2c c93c
00000180: b336 5d3d a80a 3e3c 9af4 9c3c 7afe b63d
00000190: 70bc 6ebd c736 053e 0a63 653d ca09 1cbe
000001a0: 823a 9fbd 6dd7 b13d c473 17be fc68 eb3d
000001b0: 3480 5ebd 0611 ffbe 4c6f 35bd 0b38 1f3e
000001c0: dbf1 a3bc 2dc9 953d d78f 10bd 89d6 1ebe
000001d0: 2e53 98bd f8e8 65bc 44a1 d73d fc35 5abe
000001e0: c738 373d 483e d2bc 5fc8 483e 217a b33d
000001f0: bea0 d33d 4cea 6dbe b258 d83c dc63 4cbd
00000200: 211f 60bd 8083 453e a312 693e 3c88 4dbe
00000210: 1365 6d3c 5cab 943d 616a 7ebe fa17 b7bd
00000220: 044f 463e 8842 803e 909b 18be 6d83 b13d
00000230: 03a2 ba3d 9e0a 8cbd 1f31 303e f76f f3bd
00000240: 2aba 933c e23b cb3e 071a debb 0c40 463e
00000250: f9e2 3f3e 8518 4c3e 8447 b53a 807c d8bb
00000260: c85a 90bd 8f51 a93d 36f4 0a3e 692e 2fbd
00000270: cc4a 83be f27c 5c3d 7f4c 913d 6ba1 57bd
00000280: 4d71 1e3e 1a71 93bc b35e 09be 06a5 76bc
00000290: cd35 6d3c ba46 f83d 0f82 23bc 66ee a83d
000002a0: 58b9 e13d 7478 86bd 68d1 503e 0301 bb3d
000002b0: 946d ccbd 8748 9fba 66df 003e 2d60 86bc
000002c0: 9c89 243e b818 943d e57b 1cbe 1c0b 393d
000002d0: 41d6 b13d 4d0b 9d3d 92d5 073d 5e1a 9b3c
000002e0: 1a75 f53d 0e61 213c 031a cf3d 53ce b03d
000002f0: 2566 3dbd 2e09 0f3e f496 c23d b401 ee3c
00000300: 372e a6be ad31 563b 710f 603e 9b91 d03d
00000310: 5369 663e 9638 01bc 31a7 443b 592a 45bc
00000320: 8639 82bd dbcd b23d 5420 70be c3ac 16be
00000330: b032 1dbe 3044 fabd e769 6e3d 8075 fe3d
00000340: c2ba 3d3e 634c 173d 59d2 1f3d a3f0 893d
00000350: c5f4 8d3d cff5 753d 26d6 4bbe f918 903d
00000360: aaa6 373e e443 373d bee4 4a3c 8783 1e3d
00000370: 7ddf 8b3e 9df9 04be 7d42 983d 23e4 b6bd
00000380: f6d0 e3bd e3ba 633e ff77 e73d 262d 643e
00000390: 51c3 bfbe 2488 703d 1b9c 0bbe c511 11be
000003a0: f6f0 163d f6dd ffbd 591f 453e 6c39 443d
000003b0: 0e22 c03d 6a1b d93b 73b9 c33d 5302 06bd
000003c0: ad2a c6bb cf4c 4bbd a840 0f3e ca47 ca3d
000003d0: 1818 bbbc 7180 f13c 36ba d03d da65 413e
000003e0: 7333 a23a 8109 6b3e f46c 02be 726e bf3d
000003f0: d6c0 a1bd 6c9c 803e 0fc2 183e d9b3 91bd

linear_relu_stack.2.bias f4 [64]
0.011240535 0.009872328 -0.05711693 0.02661793 0.05188744 -8.053588e-05 0.003422102 0.042401645
0.017579902 -0.019709412 0.03196898 -0.025672952 0.014987037 0.02633268 -0.029849278 0.016548967
0.020236457 -0.007295001 -0.0021358577 0.043410026 0.025449991 0.0068757483 0.0062120357 0.014189033
-0.06632791 0.021832215 0.03926264 -0.0065975282 0.022322299 0.049214702 -0.011929262 0.032574296
0.044866197 0.05983346 -0.014583751 0.024123613 0.03358687 -0.0071249837 0.0 0.009093323
0.01683206 -0.0019477789 0.040749844 0.04140986 0.04028656 0.027464604 0.05121658 0.035478707
0.05135717 0.04177433 0.02460332 -0.015514354 -0.018461084 -0.01128766 0.008185502 0.04510123
0.02295357 0.07347824 0.018663049 0.016813353 0.04810842 0.064456664 0.045913205 0.030053707
00000000: 392a 383c 8bbf 213c 71f3 69bd d80d da3c
00000010: ed87 543d 5fe5 a8b8 5845 603b 59ad 2d3d
00000020: ba03 903c a275 a1bc e8f1 023d 1550 d2bc
00000030: 308c 753c a2b7 d73c 7986 f4bc b391 873c
00000040: edc6 a53c e70a efbb bff9 0bbb b6ce 313d
00000050: 807c d03c f54d e13b 558e cb3b 1e79 683c
00000060: edd6 87bd 79d9 b23c ddd1 203d 1430 d8bb
00000070: 41dd b63c 5b95 493d f472 43bc a06c 053d
00000080: 9ec5 373d ee13 753d aff0 6ebc e29e c53c
00000090: 6392 093d b278 e9bb 0000 0000 29fc 143c
000000a0: 63e3 893c 9d4c ffba 4fe9 263d 639d 293d
000000b0: 8503 253d 73fd e03c 7ac8 513d 1f52 113d
000000c0: e55b 523d 8f1b 2b3d e78c c93c eb2f 7ebc
000000d0: b33b 97bc e1ef 38bc 7c1c 063c 11bc 383d
000000e0: 2009 bc3c c27b 963d 40e3 983c 28bc 893c
000000f0: 560d 453d db01 843d 7c0f 3c3d 3133 f63c

linear_relu_stack.4.weight f4 [32, 64]
0.055812474 0.15811747 0.039927363 -0.008392597 0.13529146 -0.2146357 0.051355608 0.08451781
0.17271551 -0.031387538 0.13879022 0.1255541 -0.13801675 0.09412763 -0.16708633 -0.26349708
0.09094796 -0.06939539 -0.17639202 -0.14246048 0.19320634 -0.0135287745 -0.050303075 -0.19736058
0.30683237 0.22743537 -0.008401209 0.019894505 0.04749807 0.76792186 -0.12416597 -0.07934873
0.044293307 -0.23555258 0.10101634 0.09614037 0.20577472 0.100563206 -0.035568714 0.09991097
-0.27154255 -0.3724654 0.2756426 0.047907777 -0.16331975 0.34582058 0.033158246 0.19291878
0.17386842 -0.092021465 -0.43436402 -0.08079767 -0.19192576 -0.25447634 -1.1601208 -0.16027091
0.22854306 -0.06673698 0.13338462 -0.0070975106 0.08452294 0.0651356 0.003074713 0.25245485
0.16831446 0.09938449 0.6148681 0.1615444 -0.18522052 0.24273734 0.20282212 -0.030197328
-0.049592994 0.057412326 0.11701493 0.24088123 -0.056790907 0.09470831 0.078797445 -0.024279896
0.30631366 0.1740348 -0.20224567 0.17279334 -0.42676246 -0.19029608 -0.10365472 0.03467103
0.06368659 -0.17504597 -0.05745016 0.10995922 -0.029744925 -0.015089389 0.10301415 -0.25591362
-0.26721793 0.21580514 0.24469762 0.3497504 0.054564938 0.09372434 -0.24058336 0.2761044
-0.12965757 0.35499835 -0.21310237 0.20456952 -0.17894052 -0.3166169 0.20350675 -0.19530399
0.14124694 -0.12502626 0.24882296 -0.25259846 0.30962297 0.20823407 0.083693944 -0.13872615
-0.2526802 0.1689493 -0.07652782 -0.11325137 0.25338092 -0.2168106 -0.09398644 -0.30666614
0.110303074 0.12800919 -0.4344087 -0.24092704 -0.025747035 -0.037756536 0.14062946 0.23796257
0.07365841 -0.2449423 -0.083963245 0.23612331 -0.22132683 -0.19260451 -0.25771248 0.18611786
0.04670606 -0.1431382 0.15298662 0.18263993 0.12754437 0.14099073 0.24409404 0.19969787
-0.08229694 0.2385469 -0.009368695 0.07867027 0.22109935 -0.27377334 -0.32462406 0.27554077
0.16234604 -0.042851843 -0.19816937 -0.18555047 -0.0006183058 0.1454946 -0.18751597 -0.10084204
0.14264002 -0.21501589 0.11017905 0.04815831 0.19840963 -0.08057931 0.06889373 -0.01860165
0.22288011 -0.025198596 -0.08099989 0.39450276 -0.36177966 -0.18650986 -0.21697468 -0.119940855
0.0345626 0.30164552 0.21576647 -0.09491616 0.27464792 0.10901887 0.27753073 0.10551565
0.12177106 0.122678384 -0.48307934 -0.1654917 0.2780481 0.13409995 -0.1427617 0.24974915
0.19011255 -0.3066068 -0.060844287 0.043121718 0.117760316 0.10023008 0.16721618 -0.1096147
-0.17662914 0.023790529 0.26724395 -0.10650498 0.09540105 0.15868264 0.25712603 0.20978923
0.19993155 -0.052529726 0.15574813 0.17537808 0.052861135 -0.22059254 -0.017834967 -0.15007462
0.20395479 -0.15056847 -0.21908562 0.20042321 0.19901101 0.23907687 -0.10777563 -0.181948
-0.06496512 -0.36262763 -0.13944311 -0.12033999 0.2720375 -0.09049278 0.07916902 0.098582
-0.26880702 0.15194957 -0.06283009 -0.04693807 -0.13109647 -0.32464892 -0.39264968 0.011990466
0.1777572 0.12750153 -0.1901921 -0.1840729 -0.06285405 0.023008315 0.012056456 0.048056856
00000000: 9f9b 643d 8ce9 213e e08a 233d 1a81 09bc
00000010: d889 0a3e 76c9 5bbe 425a 523d ac17 ad3d
00000020: 56dc 303e 3890 00bd 061f 0e3e 4191 003e
00000030: 4354 0dbe fdc5 c03d ae18 2bbe 17e9 86be
00000040: ed42 ba3d 2c1f 8ebd 1ca0 34be 29e1 11be
00000050: e2d7 453e cba7 5dbc 990a 4ebd e418 4abe
00000060: 2219 9d3e d1e4 683e 39a5 09bc cdf9 a23c
00000070: 568d 423d 8796 443f ba4a febd 9681 a2bd
00000080: e66c 353d b234 71be a8e1 ce3d 3ee5 c43d
00000090: 9cb6 523e 15f4 cd3d 80b0 11bd 1f9e cc3d
000000a0: a007 8bbe c9b3 bebe 0721 8d3e f23a 443d
000000b0: 4b3d 27be 650f b13e f1d0 073d 808c 453e
000000c0: 900a 323e c075 bcbd f664 debe 4079 a5bd
000000d0: 3088 44be b94a 82be d77e 94bf 0f1e 24be
000000e0: 3107 6a3e 66ad 88bd fa95 083e 3c92 e8bb
000000f0: 5d1a ad3d d065 853d 2081 493b c341 813e
00000100: a05a 2c3e 188a cb3d ff67 1d3f e56b 253e
00000110: 73aa 3dbe 2390 783e 9ab0 4f3e 6360 f7bc
00000120: 0622 4bbd 3029 6b3d 86a5 ef3d 92a9 763e
00000130: 959d 68bd 6ef6 c13d 8e60 a13d a2e6 c6bc
00000140: 25d5 9c3e 2e36 323e 7d19 4fbe bdf0 303e
00000150: 9c80 dabe fadc 42be ed48 d4bd 3603 0e3d
00000160: 1d6e 823d 403f 33be dc50 6bbd 4d32 e13d
00000170: a1ab f3bc 7c39 77bc 15f9 d23d 1c07 83be
00000180: cad0 88be 06fc 5c3e 0392 7a3e 7c12 b33e
00000190: 7c7f 5f3d 8cf2 bf3d 7c5b 76be 8e5d 8d3e
000001a0: f4c4 04be 58c2 b53e 8237 5abe ac7a 513e
000001b0: 2f3c 37be 9c1b a2be 1364 503e c5fd 47be
000001c0: 0aa3 103e e206 00be 72cb 7e3e 9654 81be
000001d0: e786 9e3e 503b 553e bb67 ab3d 3a0e 0ebe
000001e0: 4d5f 81be 0c01 2d3e 9eba 9cbd 56f0 e7bd
000001f0: 25bb 813e 9903 5ebe f67b c0bd 5803 9dbe
00000200: 94e6 e13d d714 033e d16a debe 94b5 76be
00000210: 72eb d2bc 99a6 1abd 2b01 103e 76ac 733e
00000220: 38da 963d 27d2 7abe ecf4 abbd 4fca 713e
00000230: 80a3 62be 1e3a 45be e4f2 83be ae95 3e3e
00000240: db4e 3f3d d292 12be 86a8 1c3e f605 3b3e
00000250: fe9a 023e e05f 103e caf3 793e 997d 4c3e
00000260: 4c8b a8bd a345 743e 287f 19bc e11d a13d
00000270: de67 623e 052c 8cbe 2035 a6be ae13 8d3e
00000280: 0a3e 263e 6a85 2fbd e9ec 4abe f100 3ebe
00000290: cd15 22ba 89fc 143e 3004 40be 4586 cebd
000002a0: 3a10 123e 202d 5cbe 8ea5 e13d a641 453d
000002b0: e52b 4b3e c406 a5bd 2818 8d3d 7d62 98bc
000002c0: af3a 643e 496d cebc 45e3 a5bd 44fc c93e
000002d0: 2f3b b9be 71fc 3ebe 9c2e 5ebe 8da3 f5bd
000002e0: 8391 0d3d 4871 9a3e e3f1 5c3e 6763 c2bd
000002f0: a79e 8c3e 4945 df3d 8218 8e3e 9718 d83d
00000300: 1b63 f93d ce3e fb3d 2d56 f7be a876 29be
00000310: 525c 8e3e 7f51 093e 2030 12be 3ebe 7f3e
00000320: ddac 423e 91fb 9cbe dc37 79bd 66a0 303d
00000330: 522c f13d 6e45 cd3d b83a 2b3e ac7d e0bd
00000340: 45de 34be 5be4 c23c 33d4 883e 481f dabd
00000350: a061 c33d b47d 223e 06a6 833e fdd2 563e
00000360: dbba 4c3e 6929 57bd 707c 1f3e 5096 333e
00000370: eb84 583d 03e3 61be a31a 92bc 29ad 19be
00000380: 86d9 503e 9f2e 1abe fb57 60be be3b 4d3e
00000390: 8bc9 4b3e 91d0 743e 78b9 dcbd 9450 3abe
000003a0: 6f0c 85bd 54aa b9be 2dca 0ebe d074 f6bd
000003b0: 8048 8b3e 4754 b9bd 5e23 a23d 5ce5 c93d
000003c0: 13a1 89be ab98 1b3e 10ad 80bd 2242 40bd
000003d0: 273e 06be 6238 a6be 6109 c9be a973 443c
000003e0: fc05 363e c38f 023e b8c1 42be 9b7d 3cbe
000003f0: a0b9 80bd ef7b bc3c 7188 453c 44d7 443d

linear_relu_stack.4.bias f4 [32]
0.016842997 0.005038606 0.018458378 0.02912655 -0.046879236 0.030871894 0.0009950353 0.015137063
0.015692517 0.02975706 0.018073305 0.028872037 -0.03253238 0.0087139495 0.04539989 0.030156039
0.019623319 0.04421138 0.030880848 0.00014463712 0.005207181 0.050159425 0.08925733 0.018248405
0.031433772 0.0029157999 -0.0009770044 0.03840277 -3.435216e-05 0.080388136 0.054346006 -0.03614434
00000000: 53fa 893c e41a a53b 0636 973c cd9a ee3c
00000010: 7104 40bd 0ee7 fc3c d86b 823a 7201 783c
00000020: 988d 803c 14c5 f33c 780e 943c 0d85 ec3c
00000030: ac40 05bd f4c4 0e3c 3cf5 393d cc09 f73c
00000040: 15c1 a03c fe16 353d d5f9 fc3c bba9 1739
00000050: 00a1 aa3b f873 4d3d 8ccc b63d ae7d 953c
00000060: b3c0 003d 0117 3f3b d40e 80ba 394c 1d3d
00000070: 5a15 10b8 89a2 a43d eb99 5e3d 160c 14bd

linear_relu_stack.6.weight f4 [16, 32]
-0.22956254 -0.4195819 -0.23278327 0.16840915 0.19823834 0.23323539 -0.20909125 0.43452826
-0.034425218 -0.08370087 -0.11803483 0.42556116 0.44831267 -0.038469642 -0.2731774 0.4230796
-0.012600815 0.19270726 -0.11936326 -0.027485332 0.2140542 -0.22957125 -0.43651894 -0.17982462
0.37553453 0.25341573 1.5831678 0.20036954 0.024190562 -0.35879666 0.37806433 -0.11826707
0.19470684 -0.19269358 0.1896409 0.14224781 0.27712697 -0.54628813 0.01667811 -0.18206309
0.049120497 0.13437033 0.144091 0.20431015 -0.33169204 -0.2821267 0.26126543 0.1949841
0.2067264 0.17725067 0.23052801 0.12283481 -0.35698193 -0.064383276 -0.353315 0.22833091
-0.22219887 0.15055011 0.9217838 0.020355321 -0.22286788 -0.40538386 0.2388975 -0.34787145
0.07908198 -0.5582189 0.28561693 -0.21911271 0.08064138 -0.08405474 0.07235051 -0.8378835
-0.16567537 0.19662562 0.4012108 -0.24171303 0.4265931 -0.70115536 -0.27645046 -0.07149693
0.11385101 0.22242647 0.00017619444 0.18034777 0.09579327 -0.17319301 -0.4961731 0.08148404
-0.23936617 0.13022403 1.0760765 0.323041 -0.44867197 -0.09285886 0.21095623 -0.14868319
0.0004788349 -0.16554417 0.1713218 -0.046253324 -0.09259519 0.015237429 0.23906595 0.16254108
0.013121695 0.4966746 0.061952528 0.20916604 0.33865234 -0.4507916 0.020524593 0.3488023
-0.12723252 0.23685896 0.0019821438 -0.160604 0.31876597 -0.4758759 -0.008955791 0.15016334
0.29893446 -0.1603442 1.0268406 0.01020094 0.29243714 -0.61182165 0.38020256 -0.1845083
-0.61803865 0.07500736 -0.07168581 0.174977 0.31306097 -0.25340486 -0.044436388 -0.28844476
0.34353596 -0.24168843 -0.23808895 -0.083366685 -0.18398336 0.08789529 0.3410563 -0.20128225
0.36036402 0.051598772 0.019526739 -0.33615753 -0.31013048 -0.030290263 -0.123436786 -0.01927635
0.027590089 -0.27459598 -0.7057734 -0.2973062 0.20083977 0.12398918 -0.38591954 -0.25248635
-0.44268385 0.2656096 -0.0112395175 -0.24380203 0.021645619 -0.51714593 0.21444355 -0.41755396
0.28857154 -0.49154764 -0.23714414 0.036993984 -0.13686286 0.3361725 0.21639447 -0.10510706
-0.07139518 -0.21837932 0.18163523 -0.6241288 -0.054067925 0.24942479 0.17489804 0.43794852
-0.2790039 0.0783662 -0.9000242 -0.04235484 0.32149225 -0.1246512 -0.49683282 -0.20206389
-0.20177595 0.27252555 -0.24830043 -0.12538959 -0.06698351 -0.014040308 0.055639286 -0.07336399
-0.06509442 -0.07404314 -0.29717776 -0.22072233 0.16130236 0.051105976 -0.19416292 0.26882255
-0.25229266 -0.21722543 -0.08616068 0.12332265 -0.2525426 -0.013760728 -0.11390974 0.32638818
-0.019761847 -0.2560331 -0.18421441 0.15193653 0.15848258 0.21449047 0.24212392 -0.15258922
-0.14729966 -0.44793448 0.29622528 0.36996308 -0.13059235 -0.055037543 0.43735763 0.30876127
-0.16053087 0.48928824 0.06960346 0.39493743 -0.0011534892 -0.4113244 0.09540924 0.33276182
0.008981231 -0.14597006 0.2336763 0.33943686 -0.05935187 -0.46392414 -0.50276643 -0.2983289
0.37173238 -0.2131946 0.88589036 0.12960123 0.16393577 -0.45976195 -0.019997543 -0.2160672
00000000: 7112 6bbe 70d3 d6be bd5e 6ebe 7373 2c3e
00000010: fefe 4a3e 42d5 6e3e 041c 56be 7d7a de3e
00000020: 7501 0dbd 5d6b abbd 3fbc f1bd 27e3 d93e
00000030: 3d89 e53e 5892 1dbd e8dd 8bbe e49d d83e
00000040: a673 4ebc 0d55 453e ba74 f4bd eb28 e1bc
00000050: 0631 5b3e ba14 6bbe 697f dfbe f223 38be
00000060: 1046 c03e b5bf 813e 3ea5 ca3f ac2d 4d3e
00000070: 492b c63c 32b4 b7be a691 c13e 0136 f2bd
00000080: 3b61 473e 7751 45be 3931 423e 69a9 113e
00000090: 96e3 8d3e 8ad9 0bbf 88a0 883c bf6e 3abe
000000a0: 9332 493d 6098 093e 978c 133e ae36 513e
000000b0: 8ad3 a9be e972 90be 95c4 853e e9a9 473e
000000c0: 16b0 533e 3381 353e 890f 6c3e d190 fb3d
000000d0: 56c6 b6be 61db 83bd b4e5 b4be 94cf 693e
000000e0: 1a88 63be cf29 1a3e 06fa 6b3f 34c0 a63c
000000f0: 7a37 64be 798e cfbe 8ca1 743e 351c b2be
00000100: bcf5 a13d 6fe7 0ebf 623c 923e 155f 60be
00000110: 4f27 a53d e424 acbd 812c 943d 887f 56bf
00000120: cea6 29be 3a58 493e 816b cd3e 9f83 77be
00000130: 696a da3e eb7e 33bf ea8a 8dbe fc6c 92bd
00000140: b82a e93d c4c3 633e d6c0 3839 16ad 383e
00000150: 432f c43d 8259 31be 670a febe 1be1 a63d
00000160: 681c 75be 7359 053e e0bc 893f a165 a53e
00000170: 55b8 e5be c92c bebd e904 583e 6840 18be
00000180: 220c fb39 6984 29be fb6e 2f3e 2074 3dbd
00000190: 8ca2 bdbd 69a6 793c b4cd 743e 2b71 263e
000001a0: 61fc 563c 224c fe3e efc1 7d3d 9f2f 563e
000001b0: d763 ad3e 28ce e6be 3123 a83c 3796 b23e
000001c0: 3e49 02be 288b 723e dbe6 013b 6075 24be
000001d0: 4b35 a33e 02a6 f3be 4fbb 12bc 6bc4 193e
000001e0: f00d 993e 4531 24be 836f 833f d821 273c
000001f0: 52ba 953e 58a0 1cbf e9a9 c23e beef 3cbe
00000200: c837 1ebf 759d 993d 03d0 92bd 2c2d 333e
00000210: 8749 a03e 48be 81be ee02 36bd 08af 93be
00000220: f2e3 af3e 2c7d 77be 97cd 73be 27bc aabd
00000230: 2266 3cbe 7202 b43d ee9e ae3e ef1c 4ebe
00000240: a281 b83e 3c59 533d 8af6 9f3c d71c acbe
00000250: 6cc9 9ebe 4923 f8bc 6dcc fcbd 70e9 9dbc
00000260: 9c04 e23c d897 8cbe 91ad 34bf 8538 98be
00000270: f1a8 4d3e 0aee fd3d 3f97 c5be e445 81be
00000280: 75a7 e2be fbfd 873e f425 38bc 3da7 79be
00000290: 2752 b13c ad63 04bf 1797 5b3e a2c9 d5be
000002a0: a6bf 933e 22ac fbbe ead5 72be 0187 173d
000002b0: c725 0cbe cd1e ac3e 8396 5d3e 5f42 d7bd
000002c0: a337 92bd d49e 5fbe 96fe 393e e8c6 1fbf
000002d0: 5476 5dbd 3669 7f3e 7918 333e ca3a e03e
000002e0: 99d9 8ebe 757e a03d fc67 66bf 457c 2dbd
000002f0: a29a a43e 2149 ffbd df60 febe d6e9 4ebe
00000300: 5b9e 4ebe 7888 8b3e 7842 7ebe 2166 00be
00000310: a72e 89bd 5209 66bc 05e6 633d dc3f 96bd
00000320: 3950 85bd eea3 97bd af27 98be 0905 62be
00000330: 722c 253e 8054 513d a5d2 46be 1ca3 893e
00000340: 812c 81be 5870 5ebe 0375 b0bd 9690 fc3d
00000350: 434d 81be ad74 61bc 8249 e9bd 5a1c a73e
00000360: 99e3 a1bc c516 83be b4a2 3cbe 4095 1b3e
00000370: 4249 223e 64a3 5b3e 55ef 773e 5940 1cbe
00000380: b9d5 16be ab57 e5be d7aa 973e cd6b bd3e
00000390: 00ba 05be 0c6f 61bd 57ed df3e f515 9e3e
000003a0: 3462 24be fd83 fa3e 428c 8e3d 3d35 ca3e
000003b0: ad30 97ba 1d99 d2be eb65 c33d c25f aa3e
000003c0: 0326 133c 2d79 15be d748 6f3e abca ad3e
000003d0: f21a 73bd 7787 edbe 4db5 00bf 91be 98be
000003e0: b553 be3e af4f 5abe b6c9 623f 2fb6 043e
000003f0: c7de 273e eb65 ebbe e3d1 a3bc b840 5dbe

linear_relu_stack.6.bias f4 [16]
0.057755534 -0.048865926 -0.00490532 0.012856361 0.030840399 -0.0012388491 -0.016749084 0.037834037
0.013571908 0.033963174 0.038896788 0.02947514 -0.025741221 0.046156645 0.09197925 0.013257312
00000000: 1191 6c3d a327 48bd cebc a0bb 7da3 523c
00000010: 01a5 fc3c e160 a2ba 6035 89bc ddf7 1a3d
00000020: b55c 5e3c f81c 0b3d 3d52 1f3d d975 f13c
00000030: 41df d2bc c00e 3d3d 9e5f bc3d 3235 593c

linear_relu_stack.8.weight f4 [8, 16]
0.16989706 -0.052861653 0.7659656 0.14608659 0.36251187 -0.6633757 0.25924236 0.70107925
0.40390313 -0.2496697 0.8850309 -0.65131027 -0.31425312 0.15532021 1.0088508 0.32409158
-0.25066683 -0.4896511 -0.4742788 0.09429318 0.2623241 -0.49110496 -0.23283225 -0.20513509
-0.19678131 -0.20700571 0.12355221 -0.35936487 -0.3789872 -0.27113265 -0.13853016 -0.09650287
-0.01648319 0.37571037 0.26907876 -0.23922177 0.26664445 0.25736895 -0.23690198 -0.2133629
-0.028351402 -0.49720526 0.17254186 -0.5045814 -0.008399388 0.07470211 0.05965269 -0.45199722
0.02516912 0.24773607 -0.59599257 -0.20131637 0.59470713 0.8385257 -0.028459897 -0.2907805
-0.12351621 0.45549914 0.138224 0.74042416 0.14663218 0.29261577 0.17548476 0.041115373
0.054298494 -0.4731684 -1.0010126 0.23359822 -3.0628831 -0.25963286 -0.32733065 0.29649186
0.0114716 -0.45422724 -0.25610688 -1.1096375 0.16725938 0.024034293 -0.6929649 0.593836
0.7118948 0.5654625 1.2101953 0.53119266 -0.40394068 -0.935837 0.45071706 0.24477458
0.45019388 -0.10464294 0.077770285 -0.5523766 0.023240946 0.113312885 -0.18950607 0.3731296
0.06988277 -0.07519437 -0.7441385 0.17363007 0.2711523 0.38393238 -0.04949328 -0.019480038
-0.066431694 0.44551474 0.34925827 0.39878684 0.25974542 0.066470064 0.20118459 0.09610225
0.26276785 -0.13689817 0.92644376 0.2053987 -0.4769575 -0.6757145 0.29624897 0.24982531
0.4472187 -0.013450619 -0.26607725 -0.81863034 -0.18032376 0.2965518 0.004698779 -0.48234785
00000000: 7ff9 2d3e 7685 58bd 5216 443f b997 153e
00000010: 289b b93e fdd2 29bf 6abb 843e ee79 333f
00000020: 64cc ce3e 6aa9 7fbe 6391 623f 45bc 26bf
00000030: c9e5 a0be 430c 1f3e 0622 813f 55ef a53e
00000040: 6757 80be 8db3 fabe acd4 f2be c81c c13d
00000050: 584f 863e 1c72 fbbe 946b 6ebe ef0e 52be
00000060: 0a81 49be 4ef9 53be f108 fd3d acfe b7be
00000070: 9c0a c2be e6d1 8abe dada 0dbe 4ca3 c5bd
00000080: c107 87bc 1c5d c03e b1c4 893e 8df6 74be
00000090: 9f85 883e ddc5 833e 6f96 72be ce7b 5abe
000000a0: 3341 e8bc b091 febe d0ae 303e 3f2c 01bf
000000b0: 969d 09bc 6bfd 983d 6156 743d 2e6c e7be
000000c0: 782f ce3c 86ae 7d3e f892 18bf e125 4ebe
000000d0: ba3e 183f 9fa9 563f bb24 e9bc 2fe1 94be
000000e0: 11f6 fcbd 2f37 e93e 988a 0d3e 708c 3d3f
000000f0: bf26 163e bcd1 953e 47b2 333e 9868 283d
00000100: 1968 5e3d 2143 f2be 2e21 80bf 5f34 6f3e
00000110: 4706 44c0 99ee 84be e297 a7be c8cd 973e
00000120: 61f3 3b3c 7990 e8be 7120 83be 9a08 8ebf
00000130: 0b46 2b3e 91e3 c43c 2666 31bf a305 183f
00000140: bd3e 363f 27c2 103f aee7 9a3f 3efc 073f
00000150: 50d1 cebe 0393 6fbf 63c4 e63e 30a6 7a3e
00000160: d07f e63e 0a4f d6bd 0746 9f3d 8e68 0dbf
00000170: cc63 be3c 9610 e83d e10d 42be d80a bf3e
00000180: b31e 8f3d 81ff 99bd dc7f 3ebf 15cc 313e
00000190: 79d4 8a3e c992 c43e 77b9 4abd 9a94 9fbc
000001a0: 570d 88bd 821a e43e fbd1 b23e ca2d cc3e
000001b0: 5afd 843e 7521 883d 5503 4e3e 42d1 c43d
000001c0: 8289 863e 092f 0cbe 6b2b 6d3f 0954 523e
000001d0: c633 f4be a0fb 2cbf f2ad 973e 35d2 7f3e
000001e0: d9f9 e43e fc5f 5cbc 473b 88be c291 51bf
000001f0: cba6 38be a3d5 973e 37f8 993b 4cf6 f6be

linear_relu_stack.8.bias f4 [8]
-0.07422349 -0.00230689 -0.012278949 0.057907302 0.06377274 -0.024580372 0.012274847 0.0066549117
00000000: 7c02 98bd 312f 17bb a52d 49bc 3530 6d3d
00000010: 489b 823d c75c c9bc 711c 493c 7211 da3b

linear_relu_stack.10.weight f4 [4, 8]
-0.27095976 0.43265185 -0.050806664 0.27116826 0.08101546 -0.46411127 0.6300765 -0.5460226
0.65703595 -0.67373115 -0.71348745 -0.12399741 -0.5239814 0.7452568 -0.26127467 0.22509608
0.3652541 0.012234134 0.4465698 -0.76939225 0.08200293 -0.37553915 -0.72378886 -0.5864512
0.2173463 0.17502944 -0.5063874 0.94311464 -0.062497053 -0.40604302 0.4091249 -1.4121813
00000000: 3dbb 8abe 8b84 dd3e a61a 50bd 91d6 8a3e
00000010: 6feb a53d fe9f edbe b24c 213f 23c8 0bbf
00000020: 8233 283f a579 2cbf 1da7 36bf 5bf2 fdbd
00000030: a523 06bf 26c9 3e3f cbc5 85be 967f 663e
00000040: 9602 bb3e ad71 483c cca4 e43e e4f6 44bf
00000050: 27f1 a73d ab46 c0be 3a4a 39bf aa21 16bf
00000060: 0790 5e3e eb3a 333e 9ba2 01bf f66f 713f
00000070: e9fc 7fbd dfe4 cfbe d278 d13e 5bc2 b4bf

linear_relu_stack.10.bias f4 [4]
-0.16339512 -0.046549007 -0.072760046 0.052589577
00000000: 0d51 27be 2caa 3ebd 3803 95bd 2b68 573d

linear_relu_stack.12.weight f4 [2, 4]
0.5925927 0.9726728 -0.7128461 -0.9716127 0.27995357 -0.004558252 0.48745242 1.4454591
00000000: 28b4 173f 1601 793f 157d 36bf 9cbb 78bf
00000010: 1356 8f3e 645d 95bb 5d93 f93e ce04 b93f

linear_relu_stack.12.bias f4 [2]
-0.05789371 0.057887077
00000000: f421 6dbd 001b 6d3d
