emulation/models/checkpoint/mlp/best_MLP1Teacher_multi_cic-ids-2018.pth (torch, 57957 bytes, 10 tensors)

linear_relu_stack.0.weight f4 [128, 16]
0	0xbd93f456	-0.07224338
1	0xbe152922	-0.14566472
2	0x3dfbc24c	0.122929186
3	0xbd1fb39e	-0.038989656
4	0x3e893a9b	0.26802525
5	0xbed00b98	-0.40633845
6	0x3f12d12e	0.5735043
7	0x3f9a52e9	1.2056552
8	0xbca1e1ed	-0.01976105
9	0xbcc0fa24	-0.023556776
10	0x3be85ee8	0.007091392
11	0xbb759261	-0.0037471282
12	0x3dcb7766	0.09934883
13	0x3c9e7a4e	0.019345429
14	0x3e1ac0a7	0.15112554
15	0xbf698ee2	-0.91233647
16	0x3c474330	0.012162015
17	0xbd429707	-0.047507312
18	0x3be40820	0.0069589764
19	0x3e0404ff	0.12892531
20	0x3e488da4	0.19585282
21	0x3e161b7f	0.14658926
22	0x3c321c2e	0.010870976
23	0xbc3ebdc8	-0.011641927
24	0xbbb46126	-0.005504745
25	0x3e85a14c	0.26099622
26	0xbd403c1e	-0.046932332
27	0x3e1c2aec	0.15250748
28	0x3dab6c3a	0.08370252
29	0x3e15bd13	0.14622907
30	0xbca7df98	-0.02049236
31	0x3dae0866	0.084976956
32	0xbc503f63	-0.012710425
33	0x3ec294a5	0.38004032
34	0x3dc8b644	0.098003894
35	0x3eb21271	0.34779695
36	0x3e821a91	0.25410894
37	0xbfb3ac24	-1.4036908
38	0xbf08c156	-0.5342001
39	0xbf69dde2	-0.9135419
40	0x3c2b3e8c	0.010451924
41	0xbc939b55	-0.018018404
42	0x3ca45095	0.020057956
43	0x3b0fce4f	0.0021943038
44	0x3d433b3b	0.04766391
45	0x3e7b1cd9	0.24522723
46	0xbd0521b2	-0.032502837
47	0xbdcb4169	-0.09924585
48	0x3da8ee6f	0.082486026
49	0xbe5be100	-0.2147255
50	0xbd1c161c	-0.038107023
51	0x3de43b6b	0.111441456
52	0x3e1c12a6	0.15241489
53	0x3f217d8a	0.6308218
54	0x3e16eac3	0.14737992
55	0x3e4132f3	0.18867092
56	0x3e03749d	0.12837453
57	0xbdae5985	-0.08513168
58	0x3e80a9c5	0.25129524
59	0xbc01a460	-0.007912725
60	0x3d65cfd5	0.056106407
61	0xbdf6d9da	-0.12053271
62	0x3dcdb371	0.10043991
63	0x3d5a170d	0.05324464
64	0xbdc64bc6	-0.096824214
65	0x3f2cd551	0.67512995
66	0x3e3c08e6	0.1836277
67	0x3ef29a9e	0.4738359
68	0xbf372cbc	-0.71552634
69	0x3e89d6aa	0.26921588
70	0xbcef43c7	-0.029207123
71	0x3d0b8a47	0.03406742
72	0xbd0859fc	-0.03328894
73	0xbea39344	-0.31948292
74	0x3dd0caf5	0.10194961
75	0xbc6e11a0	-0.014530569
76	0x3e9edbd0	0.3102708
77	0x3e921f01	0.2853928
78	0x3eff69e6	0.49885482
79	0x3f0063ce	0.5015229
80	0x3df558ea	0.1197985
81	0x3eaa6f05	0.33287826
82	0x3d82fdb8	0.06396049
83	0xbc2c2f52	-0.010509329
84	0x3e9100d4	0.28320944
85	0x3cf7a9ec	0.030232392
86	0xbea2af79	-0.317745
87	0x3d7ddb3f	0.061976667
88	0xbe370090	-0.17871308
89	0x3be8b94a	0.0071021663
90	0x3d0d59e7	0.034509566
91	0x3cc66179	0.0242164
92	0xbdf8a05a	-0.1213996
93	0xbdf57c1d	-0.11986563
94	0x3e5d42a9	0.2160746
95	0xbf53ae59	-0.8268791
96	0x3e565c7c	0.20933717
97	0xbe05dd33	-0.13072662
98	0xbd8b7217	-0.0680887
99	0x3e8b0e53	0.27159366
100	0x3ecfc6cb	0.40581354
101	0xbe9100ae	-0.2832083
102	0xbfadab6a	-1.3567936
103	0xbfd0a93d	-1.6301647
104	0x3c1cb3eb	0.00956438
105	0xbee4938c	-0.4464382
106	0x3e1082a0	0.1411233
107	0xbe5923c4	-0.2120505
108	0x3c7e75e8	0.015531041
109	0xbdaadef3	-0.083433054
110	0x3d74a1ae	0.059724502
111	0x3ed65b1a	0.4186638
112	0x3d11b302	0.035571106
113	0x3df8b9fc	0.12144849
114	0xbc0a7a46	-0.008452004
115	0x3e507bc8	0.20359719
116	0x3d3e53e1	0.046466712
117	0x3e9d9fe8	0.3078606
118	0xbd3db5fe	-0.04631614
119	0x3b6fb413	0.0036575838
120	0x3c1ce7f5	0.009576787
121	0x3e0bdbe2	0.13658097
122	0xbe465afe	-0.19370648
123	0x3dcf3e4f	0.10119306
124	0x3d909229	0.07059128
125	0x3d7f395e	0.06231057
126	0xbd761a8a	-0.060083903
127	0xbdfeeb40	-0.12447214
128	0xbfb1d9c5	-1.3894583
129	0x3eaf43fc	0.34231555
130	0xbf47338c	-0.7781303
131	0x3e043e0b	0.12914293
132	0xbe3f16c4	-0.18661028
133	0x3e6202b3	0.22071342
134	0x3d70f065	0.058823008
135	0x3f3b70ad	0.73218805
136	0x3d3f7f2f	0.04675215
137	0x3d819699	0.06327552
138	0x3dd3adf5	0.10335914
139	0x3c06c04e	0.00822456
140	0xbdb98149	-0.09057862
141	0x3d751c7f	0.05984163
142	0x3e919772	0.28435856
143	0x3d26db10	0.040736258
144	0xbf7f4048	-0.9970746
145	0x3ed83598	0.4222839
146	0xbf2fb1e8	-0.6863084
147	0xbc5546dd	-0.013017383
148	0xbee4b68d	-0.44670525
149	0x3dcefb86	0.10106568
150	0x3d1a4933	0.037667464
151	0x3f9640c9	1.1738521
152	0x3d55350b	0.05205254
153	0xbd86d8ad	-0.065842964
154	0x3cad552a	0.021158773
155	0x3a47073f	0.00075923273
156	0x3e0f5cc6	0.14000234
157	0xbe039c92	-0.12852696
158	0xbcd56930	-0.026051134
159	0xbd837416	-0.06418626
160	0x3e0eb1b3	0.13934974
161	0xbe11b5b6	-0.14229473
162	0xbd794f17	-0.06086644
163	0xbec16b46	-0.37777156
164	0xbe9fd4b6	-0.31216973
165	0x3e171c97	0.14757
166	0xbf32f2af	-0.69901556
167	0xbe3b48d4	-0.182895
168	0x3d38c286	0.045107387
169	0xbe9416f7	-0.2892377
170	0xbcc69145	-0.024239192
171	0x3e1ba48e	0.15199491
172	0xbdaa452b	-0.08313974
173	0x3e30ae95	0.17254098
174	0xbe8c3d85	-0.27390686
175	0x3e76429d	0.24048848
176	0xbc9aa969	-0.01887961
177	0x3da79f01	0.081846245
178	0xbeb78a34	-0.35847628
179	0xbee4d93c	-0.44696987
180	0xbf22d853	-0.63611335
181	0x3efc7c86	0.49313754
182	0x3dcdc047	0.100464396
183	0xbc4cdfbd	-0.012504515
184	0x3d18dea4	0.0373217
185	0xbe18c082	-0.14917186
186	0xbde197fd	-0.110153176
187	0x3cecf6ee	0.028926339
188	0x3de86967	0.11348229
189	0x3e1e3375	0.15449317
190	0x3e6155a5	0.22005327
191	0x3e63e508	0.22255337
192	0xbf738aa8	-0.9513345
193	0x3e641a63	0.2227569
194	0xbec607e9	-0.3867791
195	0x3e169efd	0.14709087
196	0xbf5d810c	-0.86525035
197	0x3e696b4e	0.2279484
198	0xbeb86901	-0.36017612
199	0x3f1d208a	0.61377776
200	0xbdb634eb	-0.08896812
201	0x3d84abcc	0.0647808
202	0x3e728970	0.23685241
203	0x3cba6f8f	0.022758273
204	0x3d5f29f6	0.054483376
205	0x3e4172ad	0.18891402
206	0xbe664b55	-0.22489674
207	0x3ebb64e7	0.3660042
208	0xbda8506b	-0.082184635
209	0x3ebde9cb	0.37092432
210	0x3d4559aa	0.048181213
211	0x3d0718eb	0.032982748
212	0x3eb6885f	0.35650918
213	0xbe4ae53f	-0.19814013
214	0x3e9429a1	0.2893801
215	0x3e16e1c4	0.1473456
216	0x3d44de75	0.048063714
217	0xbca6bfd0	-0.020355135
218	0x3e06643e	0.13124177
219	0xbcf854d4	-0.030313887
220	0x3d9205f8	0.07130045
221	0xbdfaf718	-0.12254161
222	0xbe23c0ea	-0.1599156
223	0xbeb5ba64	-0.35493767
224	0xbeb53d38	-0.3539827
225	0x3c5df84a	0.013547966
226	0x3f2967dd	0.6617411
227	0x3e630dee	0.22173283
228	0x3e41323c	0.18866819
229	0xbcb646b5	-0.022250513
230	0xbf97436e	-1.1817453
231	0xbfe10617	-1.7579983
232	0x3be674cc	0.0070329662
233	0x3d9036c2	0.07041694
234	0x3d8c5a33	0.06853142
235	0x3bd3b378	0.0064606033
236	0x3c018184	0.007904414
237	0xbc34d05c	-0.011036005
238	0xbed510b5	-0.4161431
239	0xbf001d0e	-0.50044334
240	0x3e040f69	0.12896504
241	0x3dc8354f	0.09775793
242	0x3ea0ea68	0.31428838
243	0x3d829ab9	0.06377167
244	0x3c23ce66	0.00999794
245	0x3ea2b1bf	0.31776235
246	0x3eb04193	0.3442503
247	0xc003ceb6	-2.0594916
248	0xbd61fec2	-0.055174597
249	0x3cb163be	0.021654006
250	0xbc037832	-0.008024262
251	0x3c9382da	0.01800673
252	0x3c951065	0.018196294
253	0xbd68e4e9	-0.05685893
254	0xbe7853c6	-0.24250707
255	0xbf730a11	-0.94937235

linear_relu_stack.0.bias f4 [128]
0	0xbeb58755	-0.35454813
1	0xbee76275	-0.45192304
2	0xbe148644	-0.14504343
3	0xbd284526	-0.04108157
4	0xbf083be5	-0.5321639
5	0xbd3745a0	-0.044744134
6	0xbe07857c	-0.13234514
7	0xbea5e0a5	-0.32397953
8	0xbe16045a	-0.14650097
9	0xbe7d8553	-0.2475789
10	0xbe608380	-0.21925163
11	0xbeee64e4	-0.46561348
12	0xbdca0676	-0.098645136
13	0xbe468233	-0.19385605
14	0xbe8b4d44	-0.27207386
15	0xbe255492	-0.16145542
16	0x3cc90ba6	0.024541687
17	0x3e5c1889	0.21493734
18	0xbdce333e	-0.100683674
19	0xbe99c5f0	-0.30033827
20	0xbdd77487	-0.10520273
21	0xbdc518e7	-0.0962389
22	0x3e0c143b	0.13679592
23	0xbe049091	-0.12945773
24	0x3d3b54e7	0.045735266
25	0x3e40d69a	0.18831864
26	0xbc99eaf3	-0.01878879
27	0xbea74ce4	-0.3267585
28	0xbe952563	-0.29130086
29	0xbe1a9bc1	-0.15098478
30	0xbe88eaa1	-0.26741508
31	0x3d24421f	0.04010212
32	0xbe08ceff	-0.13360213
33	0xbe98fe0f	-0.2988133
34	0xbec90be9	-0.392669
35	0x3d20f696	0.039297663
36	0xbdb37f56	-0.08764522
37	0xbe643f16	-0.2228969
38	0xbe625502	-0.2210274
39	0xbec7d40a	-0.3902896
40	0xbe1b6a3e	-0.15177247
41	0x3c03385d	0.0080090435
42	0xbe84942e	-0.25894302
43	0xbe07b155	-0.1325124
44	0xbd00c433	-0.03143711
45	0x3cb8bd51	0.02255121
46	0xbb585c78	-0.00330141
47	0xbe9f90b2	-0.3116508
48	0xbdc224c5	-0.094796695
49	0xbe3a9793	-0.18221883
50	0xbe875429	-0.26431397
51	0xbea3937a	-0.31948453
52	0x3dde554a	0.10856111
53	0xbdaa919f	-0.08328556
54	0xbe188722	-0.14895299
55	0xbce45d3e	-0.027876493
56	0xbed1732b	-0.4090818
57	0xbe5e0da8	-0.21684897
58	0xbdc4ca49	-0.09608895
59	0xbe480c56	-0.19535956
60	0xbe9d2e2e	-0.30699295
61	0xbebcbe2d	-0.36863843
62	0xbebc31f6	-0.36756867
63	0x3c394463	0.011307809
64	0xbe655527	-0.22395764
65	0x3cae769b	0.02129679
66	0xbebc3bef	-0.36764476
67	0xbd5c1ed1	-0.053740326
68	0xbe9a3806	-0.30120867
69	0xbcb55ac7	-0.022138013
70	0xbeb435b8	-0.35197234
71	0xbe611f7a	-0.21984664
72	0xbe8e57af	-0.27801272
73	0xbe073d23	-0.13206916
74	0xbe614dd4	-0.22002345
75	0xbdd19b6e	-0.10234724
76	0xbe8acf3e	-0.27111238
77	0xbed27361	-0.41103652
78	0xbdc9907c	-0.09842011
79	0xbeb1efec	-0.34753358
80	0x3dcba6c1	0.09943915
81	0xbcaf1a38	-0.021374807
82	0xbd012db1	-0.031537715
83	0xbe5ba547	-0.21449767
84	0xbd39b1cf	-0.045335587
85	0xbdb2b213	-0.08725371
86	0xbe90559e	-0.2819032
87	0xbebeeff5	-0.37292448
88	0x3b4bb768	0.003108466
89	0x3cc2a97f	0.023762463
90	0x3db7401c	0.08947775
91	0xbe4592a8	-0.19294226
92	0xbe87d11c	-0.26526725
93	0xbe5e6b73	-0.21720676
94	0xbe712ff0	-0.23553443
95	0x3e16a215	0.14710267
96	0xbe8caf62	-0.27477556
97	0xbe66256b	-0.22475211
98	0xbd8b58fc	-0.06804082
99	0xbe0dbf46	-0.13842496
100	0x3d6b925d	0.05751263
101	0xbed12b68	-0.4085343
102	0xbee90fff	-0.45520017
103	0xbe970795	-0.29497972
104	0xbe7b2ce0	-0.24528837
105	0xbe549809	-0.20761122
106	0x3cc8c73c	0.024509065
107	0xbea26709	-0.31719235
108	0xbe2b802a	-0.1674811
109	0xbcf374e7	-0.02971883
110	0xbcafecdb	-0.021475246
111	0x3daf1c32	0.085503
112	0xbe3b8a5f	-0.18314503
113	0xbd12bb36	-0.03582307
114	0xbc8fd321	-0.017556729
115	0xbeb5ccc4	-0.35507786
116	0xbe497d69	-0.19676746
117	0xbd178ce2	-0.03699959
118	0x3e3a4b06	0.18192682
119	0xbe84628d	-0.25856438
120	0xbecfff64	-0.40624535
121	0xbe6b948f	-0.2300589
122	0xbe19fe78	-0.15038478
123	0xbef152bd	-0.47133437
124	0xbe4f3c2d	-0.20237799
125	0xbe114d8f	-0.14189743
126	0xbde0ad14	-0.10970512
127	0xbec278b9	-0.3798273

linear_relu_stack.2.weight f4 [64, 128]
0	0xbd23d887	-0.04000142
1	0xbc1014e1	-0.00879404
2	0x3dd3848c	0.10328016
3	0x3cc5c3b7	0.024141176
4	0xbeb261e6	-0.34840316
5	0x3de0d072	0.10977258
6	0xbe8e667a	-0.27812558
7	0x3daee3cd	0.08539543
8	0x3e18d937	0.14926611
9	0x3e0ae7de	0.13565013
10	0x3d6a71d7	0.057237472
11	0xbd2018c1	-0.039086107
12	0xbdcd8c4f	-0.10036527
13	0xbc471d73	-0.012153017
14	0xbe7931a6	-0.24335346
15	0x3e0fc691	0.14040591
16	0xbe1b4627	-0.1516348
17	0xbdc2df4d	-0.095152475
18	0x3e033288	0.12812245
19	0xbe1d47ac	-0.15359372
20	0xbe62cf6c	-0.22149438
21	0x3d14d8bf	0.036339518
22	0x3c28d4a7	0.0103046065
23	0x3dc530f3	0.09628477
24	0x3d90b7c3	0.070663
25	0xbe304c5a	-0.17216626
26	0x3e207a48	0.15671647
27	0x3dcb1227	0.09915572
28	0xbe09cc4d	-0.13456841
29	0x3cc0abf8	0.023519501
30	0x3ddee5ca	0.108836725
31	0x3e85256a	0.26005107
32	0x3bb1a77d	0.0054215775
33	0xbe33cbef	-0.17558263
34	0x3caaca59	0.02084844
35	0xbdc8ca35	-0.09804193
36	0x3d1fb06c	0.03898661
37	0xbc88c0b4	-0.01669345
38	0x3d82d2f3	0.063878916
39	0xbe159a3a	-0.14609614
40	0xbcabf39a	-0.020990182
41	0x3da30851	0.079605706
42	0x3cefe0b8	0.029281959
43	0xbe8eb038	-0.2786882
44	0xbc982687	-0.018573059
45	0x3d322770	0.04349464
46	0x3e533495	0.20625527
47	0x3d4369a4	0.04770817
48	0x3e8438b4	0.2582451
49	0x3e1f1500	0.15535355
50	0xbde7fa33	-0.113270186
51	0xbcb4e67e	-0.022082563
52	0x3e4a53e7	0.19758569
53	0x3e3b1ac5	0.1827193
54	0x3dc82dc0	0.09774351
55	0x3dc9a31c	0.09845564
56	0xbdc0e59c	-0.094187945
57	0xbcac32ef	-0.02102038
58	0x3e0046ec	0.12527055
59	0x3c8cb6e8	0.01717706
60	0x3e3d5a3d	0.18491454
61	0x3d83d0b7	0.064362936
62	0xbd6e8144	-0.058228746
63	0xbceb49ab	-0.028721651
64	0x3dcc5db7	0.09978812
65	0x3d321514	0.043477133
66	0x3ead249e	0.33817
67	0xbbbccaf7	-0.0057615
68	0xbca1102a	-0.019661028
69	0x3e6ac0c1	0.22925092
70	0x3d162f1e	0.03666603
71	0xbf4adbb3	-0.79241484
72	0xbe9f7e94	-0.3115126
73	0xbf26b069	-0.6511293
74	0xbcefa4ec	-0.029253446
75	0x3d171fcc	0.03689556
76	0x3d7281f9	0.059205983
77	0x3dafd10b	0.08584794
78	0x3db4865d	0.0881469
79	0x3e86a472	0.26297337
80	0xbe29bb65	-0.16575392
81	0xbe00bb1f	-0.12571381
82	0xbee59e99	-0.44847563
83	0x3d2644d5	0.040592987
84	0x3e0d3e28	0.13793242
85	0x3d550cf7	0.052014317
86	0x3d04223c	0.03225921
87	0xbed98fb3	-0.42492446
88	0xbe9503c2	-0.2910443
89	0x3db5522f	0.08853566
90	0xbe13bfb0	-0.14428592
91	0xbc703835	-0.014661838
92	0xbcb8560e	-0.022501972
93	0x3cfdbbf1	0.030973407
94	0x3e55fd9a	0.20897523
95	0xbc90534a	-0.01761784
96	0xbfbdbbfd	-1.4822994
97	0xbe08aeb9	-0.13347901
98	0xbd02b049	-0.0319064
99	0x3df64afa	0.120260194
100	0x3e24e245	0.1610194
101	0xbdfdfe91	-0.1240207
102	0xbdbbb85e	-0.091660246
103	0x3ae69caa	0.0017594297
104	0x3d65feb1	0.056151096
105	0x3da70783	0.081557296
106	0xbe40d049	-0.18829454
107	0x3e253177	0.1613215
108	0xbe388346	-0.18018827
109	0xbbd6d920	-0.006556645
110	0xbe0f0f83	-0.13970761
111	0x3ed0effa	0.40808088
112	0xbe3f64c0	-0.18690777
113	0x3db21c1b	0.08696767
114	0xbb031cda	-0.002000621
115	0x3e59d667	0.21273194
116	0xbd9778a9	-0.07396061
117	0xbf0815c4	-0.5315821
118	0xbd82d404	-0.06388095
119	0x3db5d6e1	0.088788755
120	0x3e2114bd	0.15730567
121	0xbdae7b9f	-0.085196726
122	0x3c1685f3	0.009187209
123	0xbd283a56	-0.04107126
124	0xbdc1ea8e	-0.09468566
125	0xbda09e56	-0.078427
126	0x3e80d7e4	0.2516471
127	0x3d86578a	0.065596655
128	0x3dc0efef	0.09420764
129	0x3cfdef5d	0.030997926
130	0x3db3e5f9	0.08784098
131	0x3ccf2622	0.025286738
132	0xbe9dfcfc	-0.30857074
133	0x3dbd1fd9	0.0923459
134	0xbf145b0d	-0.5795143
135	0xbb1aba26	-0.0023609488
136	0xbde4237a	-0.11139579
137	0xbd700170	-0.05859512
138	0xbd5ce056	-0.05392488
139	0xbc11d7c2	-0.008901538
140	0x3e1f3824	0.1554876
141	0xbd48ebcd	-0.049053002
142	0xbe3f8961	-0.1870475
143	0x3e3ff8d3	0.18747263
144	0xbdbaa1bf	-0.09112882
145	0xbf08d04f	-0.53442854
146	0x3e5aee2d	0.2137992
147	0xbd98b7aa	-0.07456906
148	0xbe9cd097	-0.3062789
149	0xbcd24a14	-0.025670089
150	0xbd079856	-0.033104263
151	0x3d581528	0.05275455
152	0x3db54385	0.08850769
153	0x3db34029	0.08752472
154	0xbe10261a	-0.14077035
155	0xbeb7614a	-0.35816413
156	0x3d17a5df	0.03702342
157	0x3e96b160	0.294322
158	0xbd0b2b11	-0.03397662
159	0x3d2cfe3f	0.042234655
160	0xbb687295	-0.0035468687
161	0xbec8370a	-0.3910449
162	0xbd93dc86	-0.07219796
163	0x3d9e7caa	0.077386215
164	0xbeb35714	-0.35027373
165	0x3d8b71d4	0.0680882
166	0x3db57238	0.08859676
167	0xbe2179cc	-0.15769118
168	0xbde66956	-0.1125056
169	0x3da6d292	0.08145632
170	0xbd01c8f6	-0.031685792
171	0xbe6cc9ae	-0.2312381
172	0xbc07fbf7	-0.008299819
173	0xbbd3495a	-0.006447953
174	0xbd1f9987	-0.038964774
175	0x3d6e905e	0.058243148
176	0xbddc0997	-0.107440166
177	0x3ecb6876	0.39728135
178	0xbe138eb9	-0.14409913
179	0x3d90363e	0.07041596
180	0x3dbc6e57	0.09200733
181	0x377a16f4	1.4906505e-05
182	0x3e8f2f60	0.27965832
183	0x3e3a79be	0.18210503
184	0xbcfb1e88	-0.030654207
185	0x3d31a697	0.043371763
186	0xbe1e2549	-0.1544391
187	0x3a3728ae	0.0006986958
188	0x3e802d79	0.25034693
189	0x3d6d3c34	0.057918742
190	0xbe6bfcbf	-0.23045634
191	0xbdc9946d	-0.09842763
192	0xbdf035ad	-0.11728988
193	0x3e66f5d2	0.2255471
194	0xbe987572	-0.29777104
195	0x3e3e730a	0.18598571
196	0xbeb5290d	-0.35382882
197	0x3e80822f	0.25099322
198	0x3c2c8f09	0.010532149
199	0xbedff5cd	-0.4374222
200	0xbeaa7adb	-0.33296856
201	0xbe9d41a4	-0.30714142
202	0xbec21dd8	-0.37913394
203	0x3d9edb81	0.07756711
204	0xbd12e92e	-0.03586691
205	0xbe07c39f	-0.13258217
206	0x3db60443	0.088875316
207	0x3e2d0b48	0.16898835
208	0xbd69dad3	-0.057093453
209	0xbde447ac	-0.11146483
210	0xbe567a9c	-0.2094521
211	0x3c11dca7	0.008902705
212	0x3d419dfb	0.047269803
213	0xbdbfb64b	-0.093609415
214	0xbe27f6f7	-0.16402803
215	0xbee852ac	-0.45375574
216	0xbe7632ab	-0.24042766
217	0xbddad8c3	-0.10685875
218	0x3eaa7d66	0.33298796
219	0x3b57265f	0.0032829267
220	0x3b083ff7	0.002079008
221	0x3dd407b2	0.1035303
222	0xbe1f721a	-0.1557087
223	0x3e477c2d	0.19480963
224	0xbdfabc3b	-0.12242933
225	0xbeb3ad16	-0.35092992
226	0x3db82680	0.08991718
227	0x3e7d0dec	0.24712342
228	0xbd4c4e5a	-0.04987941
229	0xbe8a3caf	-0.26999423
230	0xbeca34b8	-0.39493346
231	0x3d6e853f	0.058232542
232	0x3d489379	0.048968766
233	0xbe3818b7	-0.17978178
234	0xbe55bb41	-0.20872213
235	0xbc786d39	-0.015162759
236	0xbe6bca7a	-0.23026457
237	0xbb3a7705	-0.0028452289
238	0xbdda701f	-0.10665917
239	0xbd715648	-0.058920175
240	0x3e4f9356	0.20271048
241	0x3e30b7ce	0.17257616
242	0xba88da02	-0.0010440948
243	0x3e116c39	0.1420144
244	0xbe1addf3	-0.1512373
245	0xbe703355	-0.23457082
246	0xbe0cf9ff	-0.13767241
247	0x3d9b31bf	0.07577848
248	0xbec3ec2e	-0.38266128
249	0x3d88036f	0.0664128
250	0x3d9cd53f	0.07657861
251	0xbd3df63a	-0.046377398
252	0xbe7e1f8a	-0.24816719
253	0xbd6261e0	-0.055269122
254	0x3ea10d40	0.3145542
255	0x3d8a4bed	0.06752763

linear_relu_stack.2.bias f4 [64]
0	0x3cb1ca5c	0.021702938
1	0x3d2ff8e4	0.04296197
2	0x3e5ccdfb	0.2156295
3	0xbd6ba4ad	-0.057530094
4	0x3e65e572	0.22450808
5	0x3e930940	0.28717995
6	0x3e9f2d27	0.31089136
7	0xbde610db	-0.11233684
8	0x3b8e8ff1	0.0043506552
9	0xb9a93ab5	-0.00032277932
10	0x3da46973	0.08027925
11	0x3e00e6b9	0.12588014
12	0x3e9c07bf	0.3047466
13	0xbe4dacba	-0.20085421
14	0xbe2d32e7	-0.16913949
15	0x3e8be7d7	0.27325317
16	0x3e3edc21	0.1863866
17	0xbd3d43f5	-0.046207387
18	0x3e60e815	0.21963532
19	0xbd39618a	-0.045259036
20	0x3dd7a47a	0.10529418
21	0xbe3ae69c	-0.18252033
22	0xbd24ef42	-0.040267237
23	0xbdc3ae96	-0.09554784
24	0xbde325ef	-0.1109122
25	0x3def5a1d	0.116871096
26	0xbe2f443f	-0.17115878
27	0x3e4aeb0d	0.19816227
28	0xbdd27f04	-0.102781326
29	0xbc6dfcc1	-0.014525593
30	0x3e691b0a	0.22764221
31	0xbc8c3df0	-0.017119378
32	0x3e84446a	0.25833446
33	0x3e691534	0.22761995
34	0xbe2d584f	-0.16928218
35	0x3e2638e1	0.16232635
36	0xbeb66c0a	-0.35629302
37	0xbe0c4db8	-0.13701522
38	0x3e90413e	0.28174776
39	0x00055802	4.90749e-40
40	0xbdafbd75	-0.08581058
41	0x3d742f32	0.05961532
42	0x3d99a4ce	0.07502137
43	0xbe61840c	-0.22023028
44	0x3e0f3cd1	0.13988043
45	0x3d059ae9	0.032618437
46	0x3e00c587	0.1257535
47	0x3d1d11ad	0.038346935
48	0xbe15633f	-0.1458864
49	0x3d6be4ef	0.057591375
50	0xbe298bb3	-0.16557197
51	0xb9f5aa68	-0.00046857004
52	0x3e83cbc1	0.2574139
53	0x3d397cc7	0.045285013
54	0xbd283756	-0.041068397
55	0x3db490d9	0.0881669
56	0x3e156d55	0.14592488
57	0x3cc12299	0.023576068
58	0x3e736553	0.23769121
59	0xbdd125c4	-0.10212281
60	0x3e98a8d7	0.29816315
61	0x3e2215a8	0.15828574
62	0xbc877593	-0.016535556
63	0x3c873bb1	0.016507955

linear_relu_stack.4.weight f4 [32, 64]
0	0x3d9fb5e3	0.07798364
1	0x3e9c499e	0.30524915
2	0xbe6623f1	-0.22474648
3	0x3df4426e	0.11926733
4	0xbf11dbd3	-0.5697605
5	0xbe223266	-0.15839538
6	0x3e7b91d8	0.24567354
7	0xbf127623	-0.5721151
8	0xbf68384c	-0.907109
9	0x357062ed	8.9550923e-07
10	0xbbc43d57	-0.0059887576
11	0xbde7ecaa	-0.11324437
12	0x3ce2c9aa	0.027684052
13	0xbf047b2d	-0.5175045
14	0xbf759a2f	-0.9593839
15	0xbc7f29b6	-0.0155739095
16	0x3ea5a263	0.32350454
17	0xbdff5e14	-0.12469116
18	0xbf51e6d0	-0.81992817
19	0x3ea9bc5c	0.3315152
20	0xbe177d92	-0.14793995
21	0xbba0381c	-0.0048895013
22	0x3ef30c06	0.4747011
23	0xbcc74f01	-0.024329664
24	0xbe05ab94	-0.13053733
25	0xbdac37e3	-0.08409097
26	0x3dadffc2	0.084960476
27	0x3e736c47	0.23771773
28	0xbf3540e9	-0.7080217
29	0xbb50552a	-0.0031789043
30	0x3b96a42e	0.0045972085
31	0x3dfc25b8	0.12311882
32	0x3e91c29c	0.28468788
33	0x3d91fb16	0.07127969
34	0x3e2392aa	0.15973917
35	0x3c8093f8	0.015695557
36	0xbf351608	-0.7073674
37	0xbf1dd352	-0.61650574
38	0xbd6b68c9	-0.057472978
39	0x000559a4	4.91334e-40
40	0x3df88816	0.12135331
41	0x3eb4d98c	0.35322225
42	0x3e5c9262	0.21540216
43	0xbe398565	-0.18117292
44	0x3e86ca09	0.26326016
45	0x3d845e3a	0.06463285
46	0xbe60b0a7	-0.21942388
47	0x3ed684cb	0.41898188
48	0xbf0a16d4	-0.5394108
49	0x3ecaa88c	0.39581716
50	0x3eb5dd4f	0.35520408
51	0xb7239f72	-9.752681e-06
52	0x3e7651a3	0.2405458
53	0x3ed516fd	0.416191
54	0xbe4ca113	-0.1998332
55	0x3d7551ee	0.059892587
56	0xbe2b6cbe	-0.167407
57	0xbe7ac291	-0.24488284
58	0x3cc2f154	0.023796715
59	0xbd59d5a5	-0.053182263
60	0x3d18a154	0.03726323
61	0xbca8e0cd	-0.020615006
62	0xbab4a502	-0.0013782086
63	0xbdf0465d	-0.11732171
64	0xbc9ec779	-0.019382225
65	0x3e220dc8	0.1582557
66	0x3e8d2ce8	0.27573323
67	0xbf935c2e	-1.1512506
68	0xbe73e537	-0.23817907
69	0x3eadb03a	0.33923513
70	0x3ec69fd0	0.38793802
71	0x3cc328a3	0.023823088
72	0x3e12fa8b	0.14353387
73	0xb8a36589	-7.791358e-05
74	0xbdd0318e	-0.10165702
75	0x3bd4a56e	0.0064894473
76	0x3e4e4b79	0.20145978
77	0x3dc59fb1	0.09649599
78	0x3dfac7b9	0.12245125
79	0x3e7d0779	0.24709882
80	0xbe8c1f5b	-0.27367672
81	0xbed89981	-0.42304614
82	0x3dd2eda0	0.102992296
83	0xbd435452	-0.047687836
84	0x3ea46d77	0.32114765
85	0xbec57f74	-0.38573802
86	0xbec9bc8c	-0.39401662
87	0xbcbe1b46	-0.023206364
88	0x3ed1b0df	0.40955254
89	0x3dd56be2	0.10420968
90	0x3e88f1de	0.2674703
91	0x3e0d6641	0.13808538
92	0xbebbff4c	-0.36718214
93	0x3ac4e1fc	0.0015020962
94	0xbd82b0be	-0.06381367
95	0x3ec3b068	0.38220525
96	0x3f05de8d	0.5229271
97	0x3d260604	0.04053308
98	0xbf09a1b6	-0.53762376
99	0x3d052ab4	0.032511428
100	0x3e599c89	0.2125112
101	0x3e126e08	0.14299786
102	0xbdc53356	-0.09628932
103	0x80055f52	-4.93372e-40
104	0xbca97404	-0.020685203
105	0x3cfabcf5	0.03060768
106	0xbf1e7cb5	-0.6190904
107	0x3d8f5d65	0.070002355
108	0x3f01fc06	0.5077518
109	0xbe883e89	-0.2661021
110	0xbd811d04	-0.063043624
111	0x3e81f907	0.25385305
112	0x3f0e9e22	0.5571004
113	0x3e4c64b3	0.19960289
114	0xbebfe8a9	-0.37482193
115	0x395f858c	0.00021316687
116	0x3edb3506	0.4281389
117	0x3db1a037	0.08673137
118	0x3d6150de	0.05500876
119	0xbeb97e53	-0.3622919
120	0x3e8daa7d	0.27669135
121	0xbe88c6b5	-0.267141
122	0x3e439b6a	0.19102255
123	0xbe09c82c	-0.13455266
124	0x3f4cbc7f	0.7997512
125	0xbe7fccce	-0.2498047
126	0x3ce0790d	0.027401472
127	0x3e86b8d8	0.263129
128	0x3e4a1f23	0.1973844
129	0x3d8dd9f0	0.06926334
130	0xbf0ee93b	-0.5582463
131	0xbf3618d7	-0.7113165
132	0x3e01d1a5	0.1267763
133	0x3ebc02f6	0.3672101
134	0xbd415c7d	-0.047207344
135	0x3e3c6940	0.18399525
136	0x3d927c6f	0.0715264
137	0x2c78ec1f	3.5373993e-12
138	0xbd4c2495	-0.049839575
139	0xbe0dbd8a	-0.13841835
140	0x3e8c05d9	0.2734821
141	0x3d19b3c2	0.037524946
142	0xbe557802	-0.2084656
143	0x3e8779da	0.26460153
144	0xbe517ce5	-0.204578
145	0x3d067528	0.032826573
146	0x3ee38c0c	0.44442785
147	0xbe1d9881	-0.15390207
148	0x3e442001	0.19152834
149	0xbe9a8440	-0.30179024
150	0x3da83a47	0.082142405
151	0xbd1db836	-0.038505755
152	0xbeb14505	-0.3462297
153	0x3eef7bfe	0.46774286
154	0xbe277693	-0.16353826
155	0xbe25b253	-0.16181307
156	0xbd13caea	-0.036082186
157	0x3c018385	0.007904892
158	0xbe48f491	-0.19624545
159	0x3e04b980	0.12961388
160	0x3e54d0f2	0.20782831
161	0xbe6857f8	-0.22689807
162	0xbe444c99	-0.19169845
163	0xbbb7b18f	-0.0056058834
164	0x3ee661e0	0.44996548
165	0xbdbb5552	-0.09147133
166	0x3eb95287	0.36195776
167	0x00055a9d	4.91683e-40
168	0xbd13b6c3	-0.036062967
169	0x3d99cefb	0.075101815
170	0xbe93d6f4	-0.28874934
171	0xbd4a7b00	-0.04943371
172	0x3e81a907	0.2532427
173	0x3da5c0ae	0.08093391
174	0x3ee17714	0.44036162
175	0x3def0a2b	0.11671861
176	0x3f0d5ad1	0.552167
177	0x3da6edb5	0.08150808
178	0xbb0b29a8	-0.0021234546
179	0xb95249f3	-0.00020054709
180	0x3ed45c0a	0.4147647
181	0x3ec34afb	0.38143143
182	0xbbe2839f	-0.006912663
183	0xbea46680	-0.3210945
184	0xbd67e1e9	-0.05661193
185	0xbe0bc0ee	-0.13647816
186	0x3de1880a	0.110122755
187	0xbe0532fd	-0.13007732
188	0x3e7b6705	0.24551018
189	0x3eb175c9	0.34660175
190	0x3dc02682	0.09382345
191	0x3ded54bc	0.115884274
192	0xbda3eb0d	-0.08003817
193	0xbf0264ee	-0.50935256
194	0xbe25a86f	-0.16177534
195	0xbebe7e3e	-0.3720569
196	0x3ee5d802	0.44891363
197	0xbe75e71f	-0.24013947
198	0x3edb3450	0.4281335
199	0xbede039a	-0.43362123
200	0x3e813568	0.25236058
201	0xb447ee72	-1.8620065e-07
202	0xbc77ffd4	-0.015136678
203	0xbdaeffe1	-0.08544899
204	0x3eba00dd	0.36328784
205	0xbe91c923	-0.28473768
206	0x3b808b21	0.0039228355
207	0x3e3ef04b	0.18646352
208	0x3dc51098	0.09622306
209	0xbebec1fe	-0.3725738
210	0x3ebfc779	0.37456873
211	0xbd3ab8f7	-0.045586552
212	0x3ed9966d	0.42497578
213	0x3d5b417d	0.05352925
214	0x3f5d4350	0.86430836
215	0x3d6d2051	0.057892147
216	0x3f2f1b1b	0.68400735
217	0x3e81f305	0.25380722
218	0xbe89339d	-0.2679719
219	0xbe8111f5	-0.25209013
220	0xbf5fae9b	-0.873758
221	0x3bccf019	0.006254208
222	0x3d3ea96a	0.046548285
223	0x3efe1b11	0.49630025
224	0x3edd38d5	0.43207422
225	0x3f101d22	0.56294453
226	0xbe5cd820	-0.2156682
227	0x3d411008	0.04713443
228	0x3e936458	0.28787494
229	0xbe15f8b5	-0.14645655
230	0x3e892321	0.26784614
231	0x00055816	4.90777e-40
232	0xbdab85f6	-0.083751604
233	0x3e5d6a89	0.21622671
234	0xbea06b5c	-0.3133191
235	0x3b60f89c	0.003432787
236	0xbd5acd7b	-0.053418618
237	0xbda59110	-0.08084309
238	0xbe6935f4	-0.22774488
239	0x3bfbaabf	0.0076802666
240	0xbdba04e6	-0.090829656
241	0xbdc8698a	-0.09785755
242	0xbe157e40	-0.14598942
243	0x39eb2f81	0.00044858086
244	0x3ed3036c	0.41213548
245	0xbe8f55a2	-0.2799502
246	0x3d4c7d95	0.04992445
247	0xbe4c18fe	-0.19931409
248	0xbe54402b	-0.20727603
249	0x3dd3cb12	0.10341467
250	0x3eb9629a	0.3620804
251	0x3e333240	0.17499638
252	0x3ee01512	0.43766075
253	0x3f146fe6	0.57983243
254	0x3dd36565	0.10322074
255	0xbd7ad6e7	-0.061240103

linear_relu_stack.4.bias f4 [32]
0	0x3e17967c	0.14803499
1	0x3e625822	0.22103932
2	0x3e697150	0.22797132
3	0x3db3d852	0.08781494
4	0xbce13cb4	-0.027494766
5	0x3ed9e736	0.42559212
6	0x3d9b62a5	0.07587174
7	0x3d8f4d75	0.06997196
8	0x3ea13301	0.31484225
9	0x3ee29373	0.4425312
10	0xbd64ee41	-0.05589128
11	0x3d333065	0.043747324
12	0x3db21649	0.08695657
13	0x3e192e94	0.14959174
14	0x3dd4374a	0.10362108
15	0x3eb6f0d1	0.35730603
16	0xbda9587d	-0.08268831
17	0x3e05b531	0.130574
18	0x3e0455d5	0.12923367
19	0xbe43e4c4	-0.19130236
20	0x3e46f26d	0.19428416
21	0x3de9d464	0.114174634
22	0x3d6c7f84	0.057738796
23	0xbda92ef9	-0.082609124
24	0x3e0c12ed	0.13679095
25	0x3e13778b	0.14401071
26	0xbe0b4353	-0.13599901
27	0x3dcfdf14	0.10149971
28	0xbcfd7048	-0.030937329
29	0x3e1c0fbd	0.15240379
30	0x3e248282	0.1606541
31	0x3d95daf0	0.0731715

linear_relu_stack.6.weight f4 [16, 32]
0	0x3f5a54c6	0.85285604
1	0x3ec581fa	0.38575727
2	0x3d91060c	0.070812315
3	0x3d7f76a6	0.06236901
4	0x3ed446f6	0.4146039
5	0xbe88755d	-0.2665204
6	0x3e9fd165	0.31214443
7	0xbdb635f9	-0.08897013
8	0xbf562993	-0.8365719
9	0xbeeb380c	-0.45941198
10	0x3e9e8301	0.30959323
11	0xbeefcc8d	-0.46835747
12	0xbeb73a3f	-0.35786626
13	0xbdbcbd5e	-0.092158064
14	0x3e9b2ba7	0.30306742
15	0xbba5cde4	-0.0050599445
16	0x3dfda25c	0.12384483
17	0x3f166a2d	0.5875576
18	0xbf0c9675	-0.5491708
19	0x3f519639	0.81869847
20	0xbe052e2e	-0.13005897
21	0x3c9f9eb7	0.01948486
22	0x3e6cb5d5	0.23116238
23	0x3e187662	0.1488891
24	0x3ef6f8c9	0.48236683
25	0xbcb34fdc	-0.021888666
26	0xbe7c06ea	-0.24612013
27	0xbf94edc2	-1.1635058
28	0x3d056037	0.03256246
29	0x3dc8be02	0.09801866
30	0xbeb14c52	-0.3462854
31	0x3f0e4d89	0.5558706
32	0x3ec428e3	0.38312444
33	0xbeb7e9e9	-0.35920647
34	0x3f5600d2	0.83595
35	0x3ea43a0b	0.32075533
36	0x3f20f48a	0.62873137
37	0x3e9b2c97	0.30307457
38	0xbf83fa42	-1.0310748
39	0xbebbd5dd	-0.36686602
40	0xbd907ff3	-0.070556544
41	0x3e9fe1a9	0.31226853
42	0x3a86d891	0.001028793
43	0x3e8dbd59	0.27683523
44	0xbe8db0e4	-0.2767402
45	0xbd5d01c0	-0.053956747
46	0xbcf41a22	-0.029797617
47	0xbfd35e56	-1.6513164
48	0x3e21be5e	0.15795276
49	0xbe9eda1d	-0.31025782
50	0x3e8457f2	0.25848347
51	0x3ed77035	0.42077795
52	0x3e148053	0.14502077
53	0xbe1a110e	-0.15045568
54	0xbf8e8a60	-1.1135979
55	0x3e2c9673	0.16854267
56	0xbdf953c9	-0.12174184
57	0x3f8a626d	1.0811287
58	0xbec3efbc	-0.3826884
59	0x3ed408aa	0.4141286
60	0x3f1b3d9f	0.606409
61	0x385fb214	5.333319e-05
62	0x3d81b6a8	0.06333667
63	0x3f10dad0	0.5658388
64	0x3ecc2d22	0.39878184
65	0xbf030066	-0.5117248
66	0x3d0d339c	0.034473047
67	0x3edde977	0.43342182
68	0xbdf9b9db	-0.12193652
69	0x3e8baceb	0.27280363
70	0xbf9e7743	-1.2380146
71	0xbf1f699d	-0.6227053
72	0x3ec45774	0.3834797
73	0x3e826c19	0.25473097
74	0xbda537a7	-0.080672555
75	0x3e4c6017	0.1995853
76	0x3df7563f	0.12076997
77	0x3f0d6b5f	0.5524196
78	0x3ef2f121	0.47449592
79	0xc019f550	-2.4055977
80	0x3e60aea6	0.21941623
81	0xbef1513f	-0.47132298
82	0x3f8012cc	1.0005736
83	0x3eaf377d	0.34222022
84	0x3d9e48ac	0.07728705
85	0xbf2df77e	-0.6795577
86	0xbde22e4a	-0.11043985
87	0xbe6572ec	-0.2240712
88	0xbf88ad6b	-1.0677923
89	0x3e0c4b81	0.13700677
90	0x3ee05bf3	0.43820152
91	0x3edf7c7b	0.4364966
92	0x3f18ed75	0.5973733
93	0x3ec7f171	0.39051393
94	0x3d58a6d5	0.05289348
95	0xbf27186a	-0.6527163
96	0x3f458b3b	0.77165574
97	0xbde2c041	-0.11071826
98	0x3e3c10dd	0.18365808
99	0xbe94af8f	-0.2904019
100	0xbe596a24	-0.21231896
101	0xbe96b689	-0.29436138
102	0x3eaeaa56	0.3411433
103	0x3ea63143	0.3245946
104	0x3f012826	0.50451887
105	0x3e88985b	0.26678738
106	0x3ec35e0e	0.38157696
107	0xbf04642d	-0.51715356
108	0x3e97a196	0.29615468
109	0x3e1cde1b	0.15319102
110	0x3e915ffe	0.2839355
111	0x3f020c74	0.5080025
112	0x3f1ccb6e	0.6124791
113	0xbda4e14c	-0.080507845
114	0x3f04207c	0.5161207
115	0x3ed37698	0.41301417
116	0xbeadac4a	-0.3392051
117	0xbdef09aa	-0.11671765
118	0x3f41aea9	0.75657135
119	0xbd92a0f0	-0.07159603
120	0x3eb9c8de	0.36286062
121	0x3e9a88d6	0.30182523
122	0xbeb68f95	-0.3565642
123	0x3ee7624b	0.4519218
124	0xbe3f0074	-0.18652517
125	0x3f15e0bf	0.5854606
126	0xbd7ab7b6	-0.061210357
127	0xbe3e3393	-0.18574362
128	0x3e3f786d	0.18698283
129	0xbccd33e4	-0.025049157
130	0x3e7010c1	0.23443891
131	0x3e8b9b9b	0.27267155
132	0x3e032e9d	0.1281075
133	0x3dddb215	0.10824982
134	0x3d261ee4	0.040556803
135	0x3f1a7e33	0.60348815
136	0x3e8d4916	0.27594823
137	0x3e6d8976	0.23196968
138	0x3f039114	0.51393247
139	0x3e8f795d	0.2802228
140	0x3f3e6381	0.7437058
141	0xbf7db747	-0.99107784
142	0x3e92ddf5	0.28684965
143	0x3ee51c86	0.44748324
144	0x3e1e05a8	0.15431845
145	0xbc3c5186	-0.011494046
146	0x3ea2701a	0.31726152
147	0xbed4b962	-0.41547686
148	0x3fc4f108	1.5386057
149	0x3e7926d4	0.24331218
150	0xbfa8bfe5	-1.3183562
151	0x3f2df867	0.67957157
152	0xbc8f5d3f	-0.017500518
153	0x3f6a31ad	0.9148205
154	0xbece95ae	-0.40348572
155	0x3e906e58	0.28209186
156	0xbf2f7b9a	-0.68547976
157	0xbe0f769c	-0.1401009
158	0x3e509ed0	0.20373082
159	0x3fae669b	1.3625063
160	0xbca64348	-0.020295754
161	0xbe4e140c	-0.20124835
162	0xbd421a7d	-0.047388542
163	0xbe3141f2	-0.17310312
164	0xbb4fca6c	-0.0031706346
165	0xbd9527ea	-0.07283004
166	0x3c98659b	0.018603137
167	0x3b6123b2	0.0034353551
168	0x3d77a28f	0.060457762
169	0xbd2def68	-0.042464644
170	0x3d0f6048	0.03500393
171	0xbbea4359	-0.0071491417
172	0x3d3b530d	0.0457335
173	0x3d918214	0.071048886
174	0xbd307443	-0.043079626
175	0x3d0bd77e	0.034141056
176	0x3b81f272	0.0039656693
177	0xbd1c7343	-0.03819586
178	0x3c95ffe4	0.018310495
179	0xbcdfc689	-0.027316349
180	0xba9cd29c	-0.0011964622
181	0x3c72e212	0.014824407
182	0x3df89ade	0.121389136
183	0x3c8ed9f3	0.01743791
184	0xbc3ac71c	-0.01140001
185	0xbd9a8566	-0.07544975
186	0x3cee1a6f	0.029065339
187	0x3dd86079	0.10565276
188	0x3dcb3e3c	0.0992398
189	0x3da1e2ac	0.07904562
190	0xbda37726	-0.0798171
191	0x3c6fe3b9	0.014641696
192	0x3f30b55a	0.6902672
193	0xbe8376c6	-0.25676554
194	0xbe94d0e3	-0.29065618
195	0x3e2994ae	0.16560623
196	0xbf15aca1	-0.58466536
197	0x3de33ca1	0.110955484
198	0xbeccb765	-0.3998367
199	0x3f47422c	0.77835345
200	0xbec30eef	-0.3809733
201	0x3cdf5a3d	0.027264709
202	0x3e36772b	0.17818896
203	0xbe8c0efa	-0.27355176
204	0x3f55aadc	0.83463836
205	0xbe11e5d2	-0.14247826
206	0x3ef2c58b	0.47416338
207	0xbef30439	-0.4746416
208	0x3ffe4520	1.9864845
209	0x3e4c133b	0.19929211
210	0x3f45efb1	0.77318865
211	0x3d6f8b48	0.05848244
212	0x3f1580d7	0.5839972
213	0xbedc7f59	-0.4306591
214	0x3eaeaae1	0.34114745
215	0xbdef2df3	-0.11678686
216	0xbf48d873	-0.78455275
217	0x3fa55256	1.2915752
218	0x3eec5072	0.46155125
219	0x3ee3f1e7	0.44520494
220	0x3e33f169	0.1757256
221	0x3f180323	0.59379786
222	0x3f864d34	1.049231
223	0x3e838852	0.25689942
224	0xba5f96bc	-0.0008529236
225	0xbf361b9a	-0.71135867
226	0x3dca2156	0.098696396
227	0xbec8c5cc	-0.39213407
228	0x3e960722	0.29302317
229	0xbf00c755	-0.50304157
230	0x3ed6dd9c	0.4196595
231	0xbea93c7f	-0.33053967
232	0x3def49d9	0.11684007
233	0x3db63a87	0.08897882
234	0xbea8594f	-0.32880637
235	0xbcc2ee11	-0.02379516
236	0x3f36a2d7	0.71342224
237	0xbe2b3566	-0.16719589
238	0xbefe2ad9	-0.49642065
239	0x3e505b66	0.20347366
240	0xbc26bb2a	-0.010176459
241	0xbed72c53	-0.42026004
242	0x3f4016bb	0.75034684
243	0x3e2352c0	0.15949535
244	0x3ecbd17e	0.39808267
245	0xbf3af4ae	-0.730296
246	0x3ebfc9b7	0.37458584
247	0x3dfcd997	0.123461895
248	0x3ea45d17	0.32102272
249	0xbeb8fb0c	-0.36129034
250	0xbe659ba6	-0.22422656
251	0x3f324ce4	0.69648576
252	0x3e040ed6	0.12896284
253	0x3dc70cef	0.09719264
254	0xbdce432f	-0.10071408
255	0xbedb9af8	-0.4289167

linear_relu_stack.6.bias f4 [16]
0	0xbe6fd7d9	-0.23422183
1	0x3df11bc9	0.11772878
2	0x3e46c7e8	0.19412196
3	0x3dc5c426	0.09656553
4	0x3e2d3a22	0.16916707
5	0xbdedcf44	-0.116117984
6	0xbe0dcd04	-0.13847739
7	0x3dd78ae8	0.10524541
8	0x3f2902f5	0.6602014
9	0xb8b9b553	-8.855262e-05
10	0xbd103c0e	-0.035213523
11	0x3eb7fd98	0.35935664
12	0x3daa1719	0.08305187
13	0x3e3c039e	0.18360755
14	0x3efd1ba1	0.49435142
15	0xbdbac30a	-0.09119232

linear_relu_stack.8.weight f4 [7, 16]
0	0x3f218c61	0.63104826
1	0xbf7e5e9d	-0.9936312
2	0xbfd02cb5	-1.6263644
3	0x3f0e368f	0.55552
4	0x3f033202	0.5124818
5	0x3dd67b08	0.10472685
6	0x3f7d2839	0.988895
7	0xbf18ff52	-0.5976459
8	0x3e926ee2	0.28600222
9	0x3a48327f	0.0007636919
10	0xbf5c708a	-0.8610922
11	0xbd346fd2	-0.044051953
12	0x3f623f58	0.88377905
13	0xbf09d496	-0.53840005
14	0x3df062fb	0.11737629
15	0x3f5487e7	0.8301987
16	0xbe5fa09e	-0.21838614
17	0xbeff74df	-0.49893853
18	0xbeb4abae	-0.3528723
19	0x3f4875d9	0.7830482
20	0x3f0bbe18	0.54586935
21	0x3d9bbc78	0.07604307
22	0xbec19440	-0.37808418
23	0x3f880234	1.0625672
24	0xc0196447	-2.3967454
25	0xa57efa98	-2.2115893e-16
26	0xbf4ce8f2	-0.80042946
27	0xbd242fa9	-0.040084515
28	0xbf6b775f	-0.9197902
29	0x3ea41bba	0.32052404
30	0xbf8aac57	-1.0833844
31	0x3b3ed762	0.0029120077
32	0xbd5842c3	-0.052798044
33	0x3f4db258	0.80350256
34	0x3f2eeb5f	0.683279
35	0xbd30e5cd	-0.043187905
36	0x3f37b25d	0.71756536
37	0x3e7a0181	0.24414636
38	0xbe94b7b5	-0.29046407
39	0xbef3f598	-0.4764831
40	0xbee280a4	-0.4423877
41	0x3217aa84	8.828128e-09
42	0xc01a307d	-2.4092095
43	0xc02b483f	-2.6762846
44	0x3d28029a	0.041018106
45	0x3e463cb8	0.193591
46	0xbf9556d3	-1.1667122
47	0x3c854dd7	0.016272468
48	0x3d912c5e	0.070885405
49	0x3f351427	0.70733875
50	0x3dd86e77	0.105679445
51	0xbf4a7c6d	-0.7909611
52	0x3eecc9e3	0.46247777
53	0x3cf1dc9b	0.029524138
54	0x3ed15ab9	0.40889528
55	0xbe8ddb65	-0.27706447
56	0xbfb153c4	-1.3853688
57	0xb880ea6f	-6.147182e-05
58	0x3e81bdcc	0.25340116
59	0xbfcb6a2d	-1.5891777
60	0xbe9794a0	-0.2960558
61	0xbf8ed153	-1.1157631
62	0x3ebd3dcc	0.3696121
63	0xbea31247	-0.31849882
64	0xbdd50b0a	-0.10402496
65	0xbdaa6b72	-0.08321275
66	0x3f372cf0	0.71552944
67	0xbf979db8	-1.1845007
68	0xbf9b76a6	-1.2145584
69	0xbd64510d	-0.05574136
70	0x3ebf7750	0.37395716
71	0xbf31b55c	-0.6941736
72	0x3ed0393b	0.40668663
73	0xa688d14b	-9.493625e-16
74	0x3ecfc811	0.40582326
75	0xbfc66ef1	-1.5502607
76	0xbf015f52	-0.5053607
77	0xbf202c0c	-0.6256721
78	0xbf567a09	-0.8377996
79	0xbf4da8c9	-0.8033567
80	0xbf84c058	-1.0371199
81	0x3ef55569	0.47916725
82	0x3ed437c5	0.414488
83	0xbb7e3652	-0.0038789702
84	0xbd883389	-0.066504546
85	0xbe29d685	-0.16585739
86	0xc027bf5f	-2.6210554
87	0x3f3365fa	0.7007748
88	0x3ef79361	0.4835463
89	0xba2b1b9c	-0.00065272464
90	0x3f626e9c	0.88450027
91	0x3d6a778f	0.057242926
92	0xbf991003	-1.1958011
93	0x3f8ea9e4	1.1145597
94	0x3ec26c6b	0.3797334
95	0xbeba594f	-0.36396262
96	0x3f64df8d	0.8940361
97	0xbead8410	-0.33889818
98	0x3f90ca59	1.1311752
99	0x3f293dd9	0.6611
100	0xc00f6cc4	-2.2410135
101	0xbe3f2e71	-0.1867006
102	0xbe527a5a	-0.20554486
103	0x3ecdee42	0.4022084
104	0xbe48463a	-0.1955804
105	0xa95a1e25	-4.843187e-14
106	0xbe426147	-0.18982421
107	0x3f4d2f8f	0.80150694
108	0x3f0a40fa	0.54005396
109	0xbfd22339	-1.6416999
110	0xc00c5dad	-2.1932175
111	0xbfda8723	-1.707249

linear_relu_stack.8.bias f4 [7]
0	0xbd9cab33	-0.07649841
1	0xbf013e5e	-0.5048579
2	0x3d1ed941	0.03878141
3	0xbef333e5	-0.4750053
4	0xbeec05a3	-0.4609805
5	0x3eae6ce2	0.34067446
6	0xbd8119e7	-0.063037686
