emulation/models/checkpoint/mlp/best_MLP1Teacher_cic-ids-2018_mixed.pth (torch, 59305 bytes, 14 tensors)

linear_relu_stack.0.weight f4 [128, 16]
0	0xbca47a50	-0.020077854
1	0x3e0ea1fc	0.1392898
2	0xbcd7bb35	-0.026334384
3	0xbeb5b12a	-0.35486728
4	0x3e6102af	0.2197368
5	0xbd3c3e11	-0.04595763
6	0x3c257c94	0.0101005025
7	0xbd877ed4	-0.066159874
8	0x3d213510	0.039357245
9	0x3e2ed572	0.1707361
10	0x3e1c6dee	0.1527631
11	0x3e296ca5	0.16545351
12	0xbc0ba786	-0.008523827
13	0x3e2c2156	0.16809592
14	0x3ec3c608	0.38237023
15	0xbe3e69c6	-0.18595037
16	0xbe009b82	-0.12559322
17	0x3ea0a092	0.31372505
18	0xbd92c5ef	-0.07166659
19	0xbdb38f95	-0.087676205
20	0x3d6f1832	0.058372684
21	0xbdc3710e	-0.09543048
22	0x3e7ea7f8	0.24868762
23	0x3ef31676	0.47478074
24	0xbe10e4e1	-0.1414981
25	0xbe18b60e	-0.14913198
26	0x3e743da3	0.23851638
27	0x3aa386d7	0.0012476098
28	0xbe444d1c	-0.1917004
29	0xbe54c7a3	-0.2077928
30	0x3e96312d	0.29334393
31	0x3e9913ed	0.29898015
32	0xbd40a69f	-0.047033902
33	0x3be80725	0.00708093
34	0xbdb97c68	-0.09056932
35	0x3d9713c8	0.0737682
36	0x3b1eca8c	0.0024229614
37	0xbd80c8b6	-0.062882826
38	0xbc62fa7d	-0.013853666
39	0x3dd5cfc0	0.10440016
40	0xbc36e7f6	-0.011163702
41	0xbdf19371	-0.117957
42	0xbd943d31	-0.07238234
43	0x3acaabfb	0.0015462631
44	0x3c99766d	0.018733228
45	0x3d2f78e2	0.042839892
46	0x3dfef044	0.12448171
47	0x3e9fc04e	0.31201404
48	0x3da66264	0.08124235
49	0x3e12f777	0.14352213
50	0x3d797830	0.060905635
51	0x3e6999c8	0.22812569
52	0x3dfd45c2	0.12366821
53	0x3dcbb558	0.09946698
54	0x3e032c54	0.12809879
55	0xbd14d4cb	-0.036335748
56	0x3dec7102	0.11544992
57	0xbe34559c	-0.17610782
58	0x3dc05ab0	0.09392297
59	0x3d8dfdc9	0.06933171
60	0x3e87898d	0.2647213
61	0x3e07d4aa	0.13264719
62	0x3e5c246f	0.21498273
63	0x3d9b0e2d	0.07571063
64	0xbd936492	-0.07196917
65	0x3df826d1	0.12116779
66	0x3d7a8c83	0.06116916
67	0x3de68cc3	0.11257317
68	0xbdd69287	-0.104771666
69	0xbb25aea0	-0.0025281087
70	0xbaf3d799	-0.0018603682
71	0xbbc201f8	-0.005920645
72	0x3ad6a9e7	0.0016377539
73	0xbd847db7	-0.06469291
74	0x3d2d888e	0.042366557
75	0xbd27fb19	-0.04101095
76	0x3b1f3fef	0.0024299582
77	0xbc4b4b5f	-0.012408107
78	0x3caa30c6	0.02077521
79	0x3d847af0	0.06468761
80	0x3d85ba08	0.06529623
81	0xbdcd2c59	-0.10018224
82	0x3de5919e	0.11209415
83	0xbb5cd2ac	-0.0033694906
84	0xbe21b6f1	-0.15792443
85	0xbd081d67	-0.033231165
86	0x3d26ac33	0.040691566
87	0x3bfad494	0.007654736
88	0x3e700563	0.23439555
89	0xbe8a5088	-0.27014565
90	0x3e1c93ad	0.15290709
91	0x3d56d5f0	0.05245012
92	0xbcc01e04	-0.023451813
93	0x3db7ced2	0.08974995
94	0xbbb8a970	-0.005635433
95	0x3ee74633	0.45170745
96	0xbbb2b103	-0.0054532303
97	0x3c96e82c	0.018421255
98	0x3afaba86	0.0019129075
99	0x3c542eb1	0.012950585
100	0x3c8050e4	0.015663572
101	0xbc28a29d	-0.010292676
102	0x3e012aad	0.12613936
103	0xbcb0e2be	-0.021592494
104	0x3d1971db	0.037462097
105	0x3be3bc7e	0.0069499603
106	0xbb06e338	-0.002058221
107	0xba8c8a54	-0.0010722377
108	0x3cfb9016	0.030708354
109	0x3d66bd0c	0.056332633
110	0x3c77eb0c	0.015131723
111	0xbc6bac9a	-0.014384413
112	0xbe632748	-0.22182953
113	0x3e97ba55	0.29634348
114	0x3e40fe1e	0.18846938
115	0x3d5f9a68	0.054590613
116	0xbd15545c	-0.036457404
117	0x3c745301	0.014912368
118	0xbd6fcd69	-0.058545504
119	0x3d64dc64	0.055874243
120	0xbceb7f48	-0.028747216
121	0xbdf2e63d	-0.11860321
122	0x3bdb27ec	0.0066881087
123	0x3c4f146a	0.012639144
124	0xbca9510e	-0.020668533
125	0x3d28e82c	0.04123704
126	0x3dbb8955	0.091570534
127	0xbc97cc38	-0.018529996
128	0xbb65b8fa	-0.0035052882
129	0x3b07da2b	0.0020729403
130	0xbb8313c5	-0.0040001594
131	0x3c6bc335	0.014389803
132	0x3b6440f3	0.0034828752
133	0x3a8402c2	0.0010071623
134	0xbd184318	-0.03717336
135	0x3d05780a	0.03258518
136	0x3b90f65e	0.0044239005
137	0x3b5fd2be	0.0034152712
138	0x3aad36a0	0.0013215132
139	0x3b623576	0.0034516728
140	0x3b9664d8	0.004589658
141	0x3b9ee97f	0.0048496122
142	0x3b544bd7	0.0032393837
143	0x3c7b1993	0.015325922
144	0x3d8de148	0.069277346
145	0xbad807e4	-0.0016481844
146	0x3d16497d	0.036691178
147	0xbe820843	-0.25396928
148	0x3e888cbb	0.2666987
149	0xbe4c4deb	-0.19951598
150	0x3e374614	0.17897826
151	0x3f062f91	0.5241633
152	0xbc8d9050	-0.017280728
153	0x3ddca1f0	0.107730746
154	0x3db636a1	0.088971384
155	0x3da6f201	0.08151627
156	0x3b89031b	0.0041812784
157	0x3e93bb43	0.28853807
158	0x3e50e795	0.20400842
159	0xbf0778cb	-0.5291869
160	0xbba665b9	-0.0050780443
161	0x3c919ae9	0.017774062
162	0xbaa51987	-0.0012596109
163	0x3ce4cf44	0.027930863
164	0x3cd9b3f9	0.026575075
165	0x3c0f78d0	0.008756831
166	0x3d6262db	0.055270057
167	0xbb8c0ecc	-0.004274225
168	0x3cc7d6d8	0.024394438
169	0x3ce05c66	0.027387809
170	0xbc497d26	-0.012297904
171	0x395352b8	0.00020153343
172	0x3cf0d741	0.029399516
173	0x3cebb89f	0.028774558
174	0x3cb33dce	0.021880057
175	0x3c6433cb	0.013928364
176	0x3cb0ad06	0.021566879
177	0xbbb62f94	-0.005559871
178	0x3dae97b2	0.08525027
179	0xbccfc769	-0.02536364
180	0x3c9c3518	0.019068286
181	0xb9f6755b	-0.00047008213
182	0x3de25bec	0.11052689
183	0xbcb86690	-0.022509843
184	0x3e7e6b81	0.24845697
185	0x3d08aee0	0.0333699
186	0x3e991a80	0.2990303
187	0x3cd22747	0.025653495
188	0x3d875a7f	0.06609058
189	0x3e6bdc08	0.23033154
190	0x3e9c8367	0.30569002
191	0x3cb6c773	0.022311902
192	0x3dc67527	0.09690314
193	0x3c5feeed	0.013667804
194	0x3d8cc6fc	0.06873891
195	0x3b3294f1	0.002724942
196	0x3e0311f2	0.12799814
197	0x3dbdf7bc	0.09275767
198	0x3e15f428	0.1464392
199	0xbcfa2f44	-0.030540116
200	0x3d92a130	0.0715965
201	0x3cbb09d0	0.022831827
202	0xbaf969ea	-0.0019028757
203	0x3d9809a5	0.074237145
204	0x3e8ea1c0	0.2785778
205	0x3ecac24d	0.39601365
206	0x3e43953b	0.19099896
207	0x3d1b47c0	0.037910223
208	0xbb0ce1c5	-0.0021496874
209	0x3a93b089	0.0011267822
210	0xba7085c1	-0.00091752043
211	0x3c9444ed	0.018099273
212	0xbb62d224	-0.0034610117
213	0x3a8d74d3	0.0010792263
214	0xbd006ca6	-0.031353615
215	0x3d39b8f3	0.045342397
216	0xbad9d007	-0.0016617783
217	0x3a6ed3d5	0.0009110545
218	0x3b8e3b91	0.004340597
219	0x3bbd3006	0.005773547
220	0x3cb77293	0.0223935
221	0x3cbda997	0.023152156
222	0x3b18bcbd	0.0023305856
223	0x3c792276	0.01520597
224	0xbe4e38f8	-0.2013892
225	0x3e6b75e8	0.22994196
226	0xbdfb023d	-0.12256286
227	0xbe4c1aec	-0.19932145
228	0xbe886beb	-0.26644835
229	0xbeac1b9a	-0.33614808
230	0xbd1bfec8	-0.038084775
231	0x3c8a58ef	0.01688811
232	0xbc8bb63b	-0.017054668
233	0xbd6796a1	-0.056540135
234	0x3bb2e730	0.0054596886
235	0xbdf4934b	-0.119421564
236	0x3cd4904a	0.025947709
237	0x3dba43d2	0.09094967
238	0x3c544685	0.012956266
239	0x3fbb8d4b	1.4652494
240	0xbc8172d9	-0.015801834
241	0xbe678584	-0.22609526
242	0x3c92144f	0.01783195
243	0x3eba2d10	0.36362505
244	0x3d383a09	0.04497722
245	0xbec76007	-0.3894045
246	0x3dd46f6e	0.10372816
247	0x3f26daf8	0.6517787
248	0x3dcd0900	0.10011482
249	0xbe6c9a37	-0.23105703
250	0xbe16f6f7	-0.14742647
251	0xbdbfd7e7	-0.09367352
252	0x3d434eb2	0.04768247
253	0x3997be1e	0.00028942613
254	0xbd957b8f	-0.072989576
255	0xbf2828a1	-0.65686995

linear_relu_stack.0.bias f4 [128]
0	0xbe7b9b18	-0.24570882
1	0x3d07facb	0.03319816
2	0xbc95de34	-0.018294431
3	0xbedbdb76	-0.42940873
4	0xbc1efc8d	-0.0097037675
5	0xbe520a47	-0.20511733
6	0xbd3c9fa4	-0.046050683
7	0xbd0bc8be	-0.03412699
8	0xbd0f5478	-0.034992665
9	0xbe27d124	-0.16388375
10	0xbd851b28	-0.0649932
11	0xbe7e1862	-0.24813989
12	0xbe7a3eb8	-0.24437988
13	0xbcede5aa	-0.029040176
14	0x3deb9723	0.115034364
15	0xbd8e226e	-0.06940161
16	0xbe10172c	-0.1407134
17	0xbd2ca903	-0.04215337
18	0xbd365f76	-0.044524632
19	0x3da39503	0.07987406
20	0xbe261027	-0.16217099
21	0xbce21c89	-0.027601497
22	0xbe9ac62d	-0.3022932
23	0xbe2d1243	-0.16901498
24	0x3c9ecac7	0.019383801
25	0xbd062d78	-0.032758206
26	0xbe3b59cd	-0.18295975
27	0xbca4014d	-0.020020152
28	0xbd3e46b8	-0.04645416
29	0xbdb127bd	-0.086501576
30	0xbd6ceda4	-0.05784382
31	0xbde15801	-0.110031135
32	0xbd38ccc0	-0.04511714
33	0xbc76bde6	-0.015059924
34	0xbde3fc68	-0.11132127
35	0xbd94581b	-0.07243367
36	0xbe71c8dc	-0.23611778
37	0xbdd37509	-0.10325057
38	0xbe10c93f	-0.1413927
39	0xbdf5c300	-0.12000084
40	0xbd09b8b6	-0.03362342
41	0xbdd22d16	-0.10262506
42	0xbeabc1ff	-0.33546445
43	0xbbac98c1	-0.005267233
44	0xbe9dfab4	-0.30855334
45	0xbdd87559	-0.10569257
46	0xbb0a9e4f	-0.0021151488
47	0xbe10b441	-0.14131261
48	0xbe675b96	-0.22593531
49	0xbd479a28	-0.048731
50	0xbb83634b	-0.0040096394
51	0xbe17b853	-0.14816408
52	0xbde1e818	-0.110305965
53	0xbe4c226b	-0.19935004
54	0xbdd1a688	-0.102368414
55	0xbe61912e	-0.22028038
56	0xbe9a0f56	-0.30089825
57	0x3d870cfb	0.06594273
58	0x3d037a39	0.032098982
59	0xbd780cb5	-0.060558993
60	0xbd707b75	-0.058711488
61	0xbd3df179	-0.046372864
62	0xbe8f3046	-0.27966517
63	0xbe4ac4db	-0.19801657
64	0xbccdd804	-0.025127418
65	0xbcc17ccd	-0.02361908
66	0xbd29d24a	-0.041460313
67	0xbe96882a	-0.2940076
68	0xbe1ce69c	-0.15322345
69	0xbd8e683e	-0.06953476
70	0xbd367016	-0.044540487
71	0x3d3b6f32	0.04576034
72	0x3c94a963	0.018147176
73	0xbde5dd82	-0.1122389
74	0xbd5e53d2	-0.054279156
75	0x3e3887fe	0.18020627
76	0xbd8f1ef2	-0.06988324
77	0xbe326633	-0.17421798
78	0xbe03dec1	-0.12877943
79	0xbd7a3423	-0.061084878
80	0xbd9ea780	-0.07746792
81	0xbe43dd36	-0.19127354
82	0xbde1aa9e	-0.11018871
83	0x3cbe947a	0.023264159
84	0xbd8b34d3	-0.06797185
85	0x3cda79c8	0.026669398
86	0xbd6080be	-0.054810278
87	0xbe70b568	-0.23506701
88	0xbe20cb75	-0.15702613
89	0xbc1add0f	-0.009452119
90	0xbd565aaa	-0.052332558
91	0xbd116ec4	-0.035506025
92	0xbd3e6e6f	-0.046492036
93	0xbe07b821	-0.13253833
94	0xbd83cb10	-0.064352155
95	0xbd93b8cb	-0.07212981
96	0xbd6114a1	-0.054951314
97	0xbc8ebf6d	-0.017425263
98	0xbd0a2708	-0.03372863
99	0xbdafc6d4	-0.08582845
100	0xbe840f93	-0.25793132
101	0xbce646e6	-0.028109979
102	0xbe2529a0	-0.1612916
103	0xbe5b51ec	-0.2141797
104	0xbca93ff0	-0.02066037
105	0xbd4c2263	-0.04983748
106	0x3d86a8a0	0.065751314
107	0xbea4c033	-0.32177886
108	0xbe92c5e3	-0.286666
109	0xbab0ec86	-0.0013498224
110	0xbcb07af1	-0.021542998
111	0x3c0b35ce	0.008496715
112	0xbe78640d	-0.24256916
113	0x3d7c31c9	0.061570916
114	0x3ac5b6ae	0.001508435
115	0xbe43b4e3	-0.19111972
116	0xbeb1e70d	-0.3474659
117	0xbb83644a	-0.004009758
118	0xbd606dd6	-0.054792248
119	0x3dd20194	0.10254207
120	0x3c800201	0.015625956
121	0x3d95dd19	0.07317562
122	0xbcb02991	-0.021504195
123	0xbe55ec60	-0.20890951
124	0x3d4702c9	0.04858664
125	0xbe44824c	-0.1919033
126	0xbe24de39	-0.16100396
127	0xbdffb139	-0.124849744

linear_relu_stack.2.weight f4 [64, 128]
0	0xbd047acb	-0.032343667
1	0x3e05378f	0.13009475
2	0x3cd1f71b	0.025630524
3	0xbe6457e2	-0.2229915
4	0x3c8ec05e	0.017425712
5	0xbe07d632	-0.13265303
6	0xbb81c2a8	-0.0039599724
7	0x3da9ec22	0.08296992
8	0x3bb5a6c1	0.0055435603
9	0x3c7f8362	0.015595289
10	0xb95a7fc8	-0.00020837702
11	0xbe0b4678	-0.136011
12	0xbe288739	-0.16457833
13	0x3ca23328	0.019799784
14	0xbce23a6f	-0.027615754
15	0x3da711e9	0.08157713
16	0xbcb92d37	-0.022604568
17	0x3c088ebf	0.008334815
18	0xbb208b43	-0.002449707
19	0xbdd9227b	-0.1060228
20	0xbe5bcba8	-0.21464407
21	0xbd34764a	-0.04405812
22	0xbe218e77	-0.15777002
23	0xbd162a48	-0.036661416
24	0xbc391135	-0.011295606
25	0x39a0d499	0.00030675976
26	0x3d0e242e	0.034702472
27	0x3d39f3a9	0.045398388
28	0x3d9968a2	0.0749066
29	0xbd553723	-0.052054536
30	0x3c0b982a	0.008520165
31	0xbba6dac0	-0.005091995
32	0x3c65e3d6	0.014031371
33	0xbdf37594	-0.118876606
34	0x3d28873d	0.0411446
35	0x3d814578	0.06312078
36	0x3c00af3f	0.007854282
37	0x3bc3ecaa	0.0059791403
38	0x3e137c3e	0.14402863
39	0x3d55ba3f	0.05217957
40	0x3cb9ef8a	0.022697229
41	0xbc073fb2	-0.008254932
42	0xbe2ebc19	-0.17063941
43	0x3ab227c2	0.0013592171
44	0xbe5e9a43	-0.21738534
45	0x390c2ce6	0.00013368166
46	0x3da419d3	0.08012738
47	0x3c43135e	0.011906473
48	0x3cab0808	0.020877853
49	0x3bd67d90	0.00654573
50	0x3ced7413	0.028986013
51	0x3d6c9d5a	0.05776725
52	0xbdd682e4	-0.10474184
53	0x3bd7a8c1	0.0065813963
54	0xbe0bb8d6	-0.13644728
55	0xbcd278ec	-0.025692426
56	0xbe506251	-0.20350005
57	0xbd248bc0	-0.04017234
58	0xbd96404e	-0.07336484
59	0x3d2bec77	0.041973557
60	0x3ba31912	0.004977354
61	0x3c998034	0.01873789
62	0xbe3cdc57	-0.18443428
63	0x3c1f10af	0.0097085675
64	0xbd98a57f	-0.07453441
65	0x3caf7748	0.021419182
66	0x3bf5fe18	0.007507097
67	0xbe2c2165	-0.16809614
68	0x3da0e549	0.07856233
69	0xbe1d4f87	-0.15362369
70	0x3a06b34a	0.00051384105
71	0xbd434e67	-0.047682192
72	0xbd0eed0a	-0.034894027
73	0x3d109c53	0.035305332
74	0x3b850583	0.004059495
75	0x3ca6255f	0.020281492
76	0x3b8038da	0.0039130272
77	0xbaf72c4f	-0.001885781
78	0x3d52d44f	0.051472005
79	0x3ced0a7e	0.028935667
80	0x3bda3c0e	0.006659991
81	0x3bb13068	0.005407382
82	0x3cc3ecc1	0.023916604
83	0xbc5c8666	-0.013459777
84	0x3e200216	0.15625796
85	0x3d85651d	0.065134265
86	0x3c500e92	0.012698786
87	0xbcdb3610	-0.026759177
88	0xbccf0f24	-0.025275774
89	0x397b3b4a	0.00023959312
90	0x3cd834e5	0.02639241
91	0x3bf9c6ba	0.007622567
92	0x3c21db1c	0.0098789
93	0xbc4c7bda	-0.0124807
94	0xbc151b5c	-0.009100761
95	0xbd9b008e	-0.07568465
96	0xbacd9ddd	-0.0015687306
97	0xba3e7bd4	-0.00072663766
98	0x3bed9581	0.0072504883
99	0xbda4c9a1	-0.0804627
100	0xbcc8e21a	-0.024521876
101	0x3bf75040	0.0075474083
102	0xbca769d8	-0.020436212
103	0x3c0b255a	0.008492792
104	0xbacbf2f9	-0.0015560082
105	0xbc19888a	-0.009370932
106	0x3a457d90	0.0007533664
107	0xbe856e65	-0.26060787
108	0xbded473b	-0.11585852
109	0xbcf64af4	-0.030065037
110	0x3c19d5e3	0.0093893735
111	0xbc9bc2c6	-0.019013774
112	0xbe16676b	-0.14687888
113	0x3e117fcd	0.14208908
114	0x3ca2724c	0.019829892
115	0x3c9cc844	0.019138463
116	0xbe65dee1	-0.22448303
117	0x3c8abe92	0.016936574
118	0x3c6fc961	0.014635415
119	0x3c9bdf18	0.019027278
120	0xbe0db9bf	-0.13840388
121	0xbc976f60	-0.018485725
122	0x3cbdc2c2	0.023164157
123	0xbe481203	-0.19538121
124	0x3d5396fc	0.05165766
125	0x3c893e2c	0.016753279
126	0x3d42d6a0	0.047567964
127	0x3c9ecb8b	0.019384166
128	0xbac40878	-0.0014956137
129	0x3a95fa31	0.0011442361
130	0xaf746db0	-2.223064e-10
131	0xb8b3668a	-8.5544845e-05
132	0xb4f2f404	-4.5253557e-07
133	0x37202df4	9.5474425e-06
134	0xaddf9c8d	-2.5421687e-11
135	0xb91a097e	-0.0001469012
136	0x000567d4	4.96424e-40
137	0xbab2628f	-0.0013609695
138	0xa600d98f	-4.470377e-16
139	0xba0a3828	-0.000527265
140	0xbaa25f2b	-0.0012387981
141	0xa5401d23	-1.6663217e-16
142	0xb79aef4c	-1.8469662e-05
143	0xb8a7aead	-7.9957164e-05
144	0x3a0ef7cb	0.0005453794
145	0x8005646a	-4.95199e-40
146	0xb4406c3d	-1.792077e-07
147	0xb3ba7227	-8.682064e-08
148	0xba5b1c6c	-0.0008358422
149	0xbb0699e8	-0.0020538513
150	0x3792c285	1.7495136e-05
151	0xb9eccd28	-0.0004516628
152	0xba237b6f	-0.00062363496
153	0x36c646ff	5.909125e-06
154	0xb8da6061	-0.00010413002
155	0xb886ec63	-6.4336484e-05
156	0x39d230df	0.00040090733
157	0x3b182315	0.002321427
158	0xad9451ef	-1.6862038e-11
159	0xb95d10e5	-0.00021082496
160	0x8005d521	-5.35634e-40
161	0xbae3816a	-0.0017357294
162	0xa772a323	-3.3672683e-15
163	0xb3d1fb4b	-9.778031e-08
164	0xba1eae0a	-0.00060531555
165	0xad17f5d3	-8.63794e-12
166	0xbb34ff5d	-0.0027618029
167	0xba638b58	-0.00086801266
168	0xb34c1111	-4.7512973e-08
169	0xb4a7e422	-3.1272162e-07
170	0x37bb5f0b	2.2336395e-05
171	0x9ba14e0d	-2.6685655e-22
172	0xba784ee5	-0.00094722054
173	0xb72a67fe	-1.0157002e-05
174	0xb44e9e69	-1.9242874e-07
175	0xb8e30093	-0.000108243104
176	0x8005658d	-4.95607e-40
177	0x000562df	4.94646e-40
178	0x13b80b7e	4.6459462e-27
179	0xba152dba	-0.0005690713
180	0xbac831cf	-0.0015273633
181	0xb324c835	-3.8366313e-08
182	0xba6596f5	-0.0008758151
183	0x3ac21bcb	0.0014809308
184	0x364c802f	3.0472982e-06
185	0xb62696f9	-2.4823805e-06
186	0xbacbd75d	-0.0015551854
187	0xb7033fae	-7.823035e-06
188	0x80540d6f	-7.719001e-39
189	0xb58c834b	-1.0469024e-06
190	0xb92b75a3	-0.00016351654
191	0xb681d45d	-3.869222e-06
192	0xb982a1d6	-0.0002491611
193	0xb9de6f87	-0.00042426234
194	0x34a6ad18	3.1045852e-07
195	0xbaf4a3ae	-0.0018664503
196	0xbb8f1d21	-0.004367486
197	0xb7039d86	-7.844885e-06
198	0x0004efe8	4.53404e-40
199	0x2c73d1c0	3.4648812e-12
200	0xb98beca7	-0.00026688466
201	0xb96f762c	-0.00022836839
202	0x0bbefe82	7.356828e-32
203	0xbb14b070	-0.0022688173
204	0xa08bd0e2	-2.3685743e-19
205	0xb9951c9f	-0.0002844082
206	0xba6b211c	-0.0008969472
207	0xb37ba7f9	-5.8593262e-08
208	0xa2e998a9	-6.331641e-18
209	0x92013492	-4.077002e-28
210	0xb04661ae	-7.217079e-10
211	0xba069cde	-0.00051350694
212	0x38280dae	4.006706e-05
213	0xba864cbc	-0.0010246257
214	0xb3b846ae	-8.581024e-08
215	0xb9c5e429	-0.0003774476
216	0xb000527d	-4.668335e-10
217	0x8005777c	-5.0204e-40
218	0xb109870b	-2.0012887e-09
219	0x0005672c	4.96189e-40
220	0x000557f6	4.90732e-40
221	0x2f0b1b27	1.2651623e-10
222	0xb844fd0d	-4.6965713e-05
223	0xb48514f6	-2.4788432e-07
224	0xa9b7ac3e	-8.156712e-14
225	0x970dd70e	-4.5830994e-25
226	0x9e98fcd1	-1.6198188e-20
227	0xbbc50eb9	-0.006013718
228	0xb9caf760	-0.0003871275
229	0x00055b02	4.91825e-40
230	0xb9815f30	-0.00024675718
231	0xb671ac0c	-3.6011943e-06
232	0x11e17cf3	3.5575747e-28
233	0xb0a54196	-1.2023971e-09
234	0xab2e523c	-6.193134e-13
235	0xb91799c5	-0.00014457766
236	0xb9b12d2d	-0.0003379373
237	0xb96229ff	-0.00021568684
238	0x8005583b	-4.90829e-40
239	0x2f8ebd24	2.5964042e-10
240	0xba0718d2	-0.000515354
241	0x3ac09698	0.0014693318
242	0x04331a02	2.1053291e-36
243	0xbac6759d	-0.0015141253
244	0xb89df83a	-7.532579e-05
245	0x949b3e8d	-1.5675672e-26
246	0xaf3a9d59	-1.6972503e-10
247	0xb82f9e75	-4.1870826e-05
248	0xb8fd8cd7	-0.000120902136
249	0xb2e575dd	-2.6712707e-08
250	0xa8c4cd90	-2.184952e-14
251	0xb9cc0258	-0.00038911658
252	0x3b09a987	0.0021005587
253	0xb025dc99	-6.034014e-10
254	0xa9bf3e1a	-8.492877e-14
255	0xb3e95640	-1.0865597e-07

linear_relu_stack.2.bias f4 [64]
0	0x3ca05022	0.01956946
1	0xbbb1358a	-0.0054079937
2	0x3b57274d	0.0032829822
3	0x8e2c9734	-2.1273438e-30
4	0x3d377c1a	0.044796087
5	0x3d341c6c	0.043972418
6	0xbca3d3e4	-0.019998498
7	0xbda1e076	-0.07904141
8	0x3dffc9af	0.1248964
9	0xbdbe00bc	-0.09277484
10	0x3db6b959	0.08922071
11	0x3d3556ee	0.044272356
12	0xbcede63a	-0.029040445
13	0xbcf767ee	-0.030200925
14	0x3dd11d7b	0.10210701
15	0x3cee9c67	0.029127313
16	0x3e25bdeb	0.16185729
17	0xbd8b6625	-0.06806592
18	0xbc26b5e7	-0.010175205
19	0x3d266177	0.040620293
20	0xbd8a0bc3	-0.067405246
21	0xbcc61059	-0.024177717
22	0xbdc42dfa	-0.09579082
23	0x3e321428	0.17390501
24	0xbd7c628e	-0.061617427
25	0xbd581a3c	-0.052759394
26	0x3d13b977	0.036065545
27	0xbcb35aae	-0.021893825
28	0xbcaf53d0	-0.02140227
29	0xbd307e62	-0.043089278
30	0xbe173fce	-0.14770433
31	0xbd5e654f	-0.054295834
32	0x3c1a6a5e	0.009424774
33	0x3d80ce12	0.06289305
34	0x3c14b5cb	0.009076546
35	0xbc09ed7c	-0.008418437
36	0xab363e61	-6.4745957e-13
37	0xbdac6a3a	-0.084186986
38	0xbd822d6e	-0.06356321
39	0xbd7864dd	-0.060643066
40	0x3dfda409	0.12384803
41	0x3dbd41a7	0.09241038
42	0xbb0967ad	-0.0020966337
43	0xbb69d0bf	-0.00356774
44	0x3d4f13b5	0.050555903
45	0xbc942747	-0.018085135
46	0x3df671ba	0.1203341
47	0x3dd4e046	0.10394339
48	0x3df10173	0.117678545
49	0x3e32703c	0.17425627
50	0x3dac496f	0.08412444
51	0xbd70eb34	-0.058818057
52	0xbdf8602c	-0.12127718
53	0xbd1e0f6b	-0.038588922
54	0xbc9cbfb5	-0.019134382
55	0x3cf781ce	0.030213263
56	0xbd7ec5b1	-0.062200252
57	0xbc821999	-0.015881347
58	0x3db27672	0.08713998
59	0x3d091712	0.033469267
60	0xbcb0900c	-0.021553062
61	0xbd8516cd	-0.064984895
62	0xbd86ce2c	-0.06582293
63	0xb0eab3b3	-1.7076814e-09

linear_relu_stack.4.weight f4 [32, 64]
0	0x00055935	4.91179e-40
1	0x800591cc	-5.1148e-40
2	0x80057027	-4.9941e-40
3	0x00055f5e	4.93389e-40
4	0x00057485	5.00977e-40
5	0x84a73114	-3.9306582e-36
6	0x8006b026	-6.14203e-40
7	0xad41049f	-1.0971806e-11
8	0x80055f19	-4.93292e-40
9	0xaad3192f	-3.7498604e-13
10	0x80055945	-4.91201e-40
11	0x80055cfb	-4.92533e-40
12	0x000562cd	4.9462e-40
13	0x00056d35	4.98354e-40
14	0x00055c13	4.92207e-40
15	0x00055ed3	4.93194e-40
16	0x800563a2	-4.94919e-40
17	0x80056726	-4.9618e-40
18	0x8005a332	-5.17721e-40
19	0x8005615c	-4.94103e-40
20	0x80057009	-4.99368e-40
21	0xb334499e	-4.197647e-08
22	0x800562e6	-4.94656e-40
23	0x8005ea87	-5.4331e-40
24	0x0005724f	5.00184e-40
25	0x80056b04	-4.97567e-40
26	0x00055f25	4.93309e-40
27	0x8005a1cc	-5.17219e-40
28	0x800597bc	-5.1361e-40
29	0x80055bfc	-4.92175e-40
30	0x80057d3c	-5.04103e-40
31	0xb21221a0	-8.505964e-09
32	0x80055f7c	-4.93431e-40
33	0x800557e3	-4.90705e-40
34	0x80055ef3	-4.93239e-40
35	0x8005956d	-5.12781e-40
36	0x80057e52	-5.04493e-40
37	0x000565f3	4.9575e-40
38	0xb93d58bb	-0.00018057499
39	0xb102c8b7	-1.9031583e-09
40	0x00056b76	4.97727e-40
41	0x000567b0	4.96374e-40
42	0x0005659e	4.95631e-40
43	0x80056df0	-4.98616e-40
44	0x00055e44	4.92994e-40
45	0x00055ce0	4.92495e-40
46	0x000565b9	4.95669e-40
47	0x000590d9	5.11139e-40
48	0x0c18e644	1.1778947e-31
49	0xb812b12d	-3.497412e-05
50	0x80055d15	-4.92569e-40
51	0xb22268ec	-9.4534975e-09
52	0x8005610e	-4.93994e-40
53	0xb5ea2261	-1.7444364e-06
54	0x8005913a	-5.11275e-40
55	0x80055db6	-4.92795e-40
56	0xb3f91aaa	-1.1599816e-07
57	0x80058b2a	-5.091e-40
58	0x80056c7a	-4.98092e-40
59	0x9816565d	-1.9430648e-24
60	0x0005aca5	5.2111e-40
61	0x8005664c	-4.95875e-40
62	0x00056512	4.95435e-40
63	0x80058af6	-5.09027e-40
64	0x3d07f466	0.03319206
65	0x3acaf09e	0.0015483086
66	0xbb1ce799	-0.0023941754
67	0x8b70ade2	-4.6353134e-32
68	0xbece2504	-0.40262616
69	0x3e62f940	0.22165394
70	0x3be0af2f	0.006856821
71	0xbbe3237f	-0.0069317217
72	0xbee1fbdf	-0.44137475
73	0x3e87425f	0.26417825
74	0xbe0827dd	-0.13296457
75	0xbe2a421e	-0.16626784
76	0xbcfffb39	-0.031247722
77	0xba405436	-0.0007336767
78	0x3d864146	0.06555419
79	0xbed5681f	-0.41681
80	0x3da9b3f2	0.08286275
81	0x3cf70bc3	0.030156976
82	0xb5cd9c58	-1.5319192e-06
83	0xbd05726a	-0.032579817
84	0xbc08dac7	-0.008352942
85	0xbe6fabd4	-0.23405391
86	0xbd96ac4a	-0.0735708
87	0x3e68e049	0.22741808
88	0xbd1395d2	-0.03603155
89	0xbaf85824	-0.0018947166
90	0xbeab5368	-0.3346207
91	0xbc0d3499	-0.008618497
92	0x3b34fb8e	0.0027615759
93	0xbd8f1b0e	-0.06987582
94	0x3d8b2847	0.06794792
95	0x3d11ea68	0.035623938
96	0x3c63a071	0.013893233
97	0xbed0886e	-0.40729088
98	0xbcd25fb2	-0.025680397
99	0xbb1ad1fc	-0.0023623696
100	0x80056e33	-4.9871e-40
101	0xbe7aed7f	-0.2450466
102	0x3d847a1b	0.06468602
103	0xbd9bdd3b	-0.07610556
104	0x3e55fd39	0.20897378
105	0x3e4f98fb	0.20273201
106	0x00055a3e	4.9155e-40
107	0x3aa2e01b	0.0012426408
108	0xbe38cfa4	-0.18047959
109	0x3c07acfc	0.008280989
110	0xbdda3726	-0.1065505
111	0xbb1e13e7	-0.002412075
112	0x3c2cf79d	0.0105570825
113	0xbe0fc844	-0.14041239
114	0x3ea7a140	0.3274021
115	0x3dd54ea4	0.1041539
116	0x3e3a0c4a	0.1816875
117	0x3cc8b6d0	0.024501234
118	0xb52711e5	-6.223839e-07
119	0x3d91b0b6	0.07113783
120	0xbe06796e	-0.13132259
121	0x3a3a6bdd	0.000711141
122	0xbdd66d96	-0.104701206
123	0xbe0155bf	-0.12630366
124	0x33a0cb10	7.4875175e-08
125	0xbd040feb	-0.032241743
126	0x3d587ffe	0.052856438
127	0x00056558	4.95533e-40
128	0x00055792	4.90592e-40
129	0x8005ba5e	-5.26033e-40
130	0x00057b54	5.03419e-40
131	0x800599b3	-5.14314e-40
132	0xadc89c2e	-2.2806725e-11
133	0xad6df030	-1.3525223e-11
134	0x00055ceb	4.9251e-40
135	0x80055752	-4.90502e-40
136	0x0009cc02	8.99704e-40
137	0x00056139	4.94054e-40
138	0x00055b3f	4.9191e-40
139	0x8005621d	-4.94374e-40
140	0x00055fb4	4.93509e-40
141	0x000560d9	4.9392e-40
142	0x8b19433f	-2.9517318e-32
143	0x80055d77	-4.92706e-40
144	0x80055b58	-4.91945e-40
145	0x80055c3c	-4.92265e-40
146	0x000641c8	5.74611e-40
147	0x800560d0	-4.93907e-40
148	0x80055a02	-4.91466e-40
149	0x8005603e	-4.93703e-40
150	0x00055efc	4.93251e-40
151	0x0005610d	4.93993e-40
152	0x80055fca	-4.9354e-40
153	0x80055ab5	-4.91717e-40
154	0x953ed03e	-3.853447e-26
155	0x80055c04	-4.92186e-40
156	0x00055c4c	4.92287e-40
157	0x00055f37	4.93334e-40
158	0xadc69ae0	-2.2578772e-11
159	0x9a5f6311	-4.6195344e-23
160	0x0000904f	5.1768e-41
161	0xa7a5347e	-4.585361e-15
162	0x00056185	4.94161e-40
163	0x80055e35	-4.92973e-40
164	0x00063d4d	5.73004e-40
165	0x9b4fa222	-1.7175027e-22
166	0xb26086c0	-1.3069155e-08
167	0x00055b00	4.91822e-40
168	0x80055dba	-4.928e-40
169	0xaed6322e	-9.740507e-11
170	0x80057300	-5.00432e-40
171	0x80058789	-5.07798e-40
172	0x00055a50	4.91576e-40
173	0x8005681f	-4.96529e-40
174	0x89de9275	-5.3582283e-33
175	0x00056393	4.94898e-40
176	0x00055a8d	4.91661e-40
177	0x800563c9	-4.94974e-40
178	0x800562be	-4.946e-40
179	0x80056241	-4.94424e-40
180	0x80055928	-4.91161e-40
181	0x800558bc	-4.9101e-40
182	0x00056498	4.95264e-40
183	0x80055ba0	-4.92046e-40
184	0x80055e66	-4.93041e-40
185	0x800564c8	-4.95331e-40
186	0x80055f3e	-4.93344e-40
187	0x80055f61	-4.93393e-40
188	0x80056137	-4.94052e-40
189	0x80055d85	-4.92726e-40
190	0x80055c9e	-4.92402e-40
191	0x0005f5b3	5.47318e-40
192	0x3bd07024	0.0063610245
193	0xbad0f058	-0.0015940769
194	0x3c40e0a4	0.0117723085
195	0x09a41b40	3.950719e-33
196	0xbddbfeb1	-0.10741938
197	0x3dd1533a	0.10220952
198	0x3c23931b	0.009983803
199	0xbd1ef507	-0.038807895
200	0xbd64e9ed	-0.05588715
201	0x3d8ab5f4	0.06772986
202	0xbdbd8684	-0.092541724
203	0xbd3b01ae	-0.0456559
204	0xbc723364	-0.01478276
205	0xbb95d450	-0.0045724288
206	0x3bdea602	0.006794692
207	0xbba3929f	-0.004991844
208	0xbd7f7c17	-0.0623742
209	0xbd1a586b	-0.03768198
210	0x1e54b4fc	1.1260613e-20
211	0x3c19a588	0.009377845
212	0xbcd83d0d	-0.026396299
213	0xbe8a8685	-0.27055755
214	0xbd5bcc2f	-0.05366152
215	0x3cb95417	0.022623105
216	0xbd3bf100	-0.045884132
217	0xbaf50391	-0.001869308
218	0xbd89339b	-0.06699296
219	0x3a95325d	0.0011382807
220	0x3bc4b920	0.006003514
221	0xbd4081bc	-0.046998724
222	0x3caeffbf	0.021362184
223	0x3d9459f5	0.072437204
224	0xbdcf5653	-0.10123887
225	0xbd48316a	-0.04887525
226	0xbc9f990e	-0.019482162
227	0xbc049e9f	-0.008094459
228	0x00055de2	4.92856e-40
229	0xbda64cd0	-0.081201196
230	0x3e1f707f	0.15570258
231	0xbdbe160b	-0.09281548
232	0x3da24b93	0.07924571
233	0x3d9daa91	0.076985486
234	0xa594a4b3	-2.5785512e-16
235	0xbc1a155a	-0.009404505
236	0xbdb5bc0c	-0.08873758
237	0x3bd62c4e	0.0065360432
238	0xbd98f44f	-0.07468473
239	0x3ce8bb18	0.028409526
240	0xbe234034	-0.1594246
241	0xbc64804c	-0.013946604
242	0x3d813717	0.06309336
243	0x3ca39d45	0.019972453
244	0x3ea1d659	0.31608847
245	0x3d6fafd9	0.05851731
246	0xaa8d0f1e	-2.505712e-13
247	0xbcffb598	-0.03121452
248	0xbe30e9ec	-0.17276734
249	0x3af197a3	0.0018432032
250	0xbd3bca03	-0.04584695
251	0xbe18741a	-0.14888039
252	0x07863ea9	2.0198907e-34
253	0xbc94d68f	-0.018168716
254	0x3a8ca712	0.0010730943
255	0x00058254	5.0593e-40

linear_relu_stack.4.bias f4 [32]
0	0xbb85174b	-0.0040616146
1	0xbbc57c6c	-0.006026795
2	0x800559f1	-4.91442e-40
3	0x3d8fc271	0.07019509
4	0xbc4209fe	-0.011843203
5	0xbcea0e17	-0.028571172
6	0x3d588b34	0.05286713
7	0x3e046d2e	0.12932274
8	0x3d219d8a	0.03945688
9	0xb4386fac	-1.7176961e-07
10	0x3c9688a9	0.018375712
11	0xbc4be1c5	-0.012443964
12	0x3cafead6	0.021474283
13	0xbbb03f9b	-0.005378676
14	0xbc52d3d7	-0.012867889
15	0x3da5d55c	0.08097336
16	0x3d91394a	0.07091005
17	0xbb0d132f	-0.0021526327
18	0x3c8c76dc	0.01714652
19	0xbd0417fb	-0.032249432
20	0x9196b5cf	-2.3777875e-28
21	0x3e255eb6	0.1614941
22	0x3e91dfaf	0.2849097
23	0xbe094504	-0.13405234
24	0x3e061f6d	0.13097925
25	0x3e1ef2b0	0.15522265
26	0x3d574af3	0.05256171
27	0x3d4b5e16	0.049650274
28	0x3e8f8029	0.28027466
29	0xbb455552	-0.003011067
30	0x3dc05235	0.0939068
31	0x3e1dac31	0.15397717

linear_relu_stack.6.weight f4 [16, 32]
0	0x00057a85	5.03129e-40
1	0x800570c8	-4.99636e-40
2	0x0005f8af	5.48388e-40
3	0x80056d4f	-4.9839e-40
4	0x80056755	-4.96246e-40
5	0x80056d24	-4.9833e-40
6	0x80057b9e	-5.03523e-40
7	0x80060cf4	-5.5566e-40
8	0x80057d29	-5.04076e-40
9	0x80055f83	-4.9344e-40
10	0x80059686	-5.13175e-40
11	0x00058b89	5.09233e-40
12	0x00058bca	5.09324e-40
13	0x80056eeb	-4.98967e-40
14	0x80056233	-4.94405e-40
15	0x0005f237	5.46068e-40
16	0x8005889a	-5.08181e-40
17	0x00056342	4.94784e-40
18	0x00055b69	4.91969e-40
19	0x80056f74	-4.9916e-40
20	0x800584df	-5.06843e-40
21	0x00057422	5.00838e-40
22	0x80057b7a	-5.03473e-40
23	0x80055ce4	-4.925e-40
24	0x8005916d	-5.11346e-40
25	0x800566a4	-4.95998e-40
26	0x80055a10	-4.91486e-40
27	0x800573b7	-5.00688e-40
28	0x80056da5	-4.9851e-40
29	0x8005786e	-5.0238e-40
30	0x80059143	-5.11288e-40
31	0x80057de6	-5.04341e-40
32	0xb901be2d	-0.00012373245
33	0xbe095742	-0.13412192
34	0x88e6bfd3	-1.3887719e-33
35	0x3cd564e0	0.026049078
36	0x3c223a2a	0.009901563
37	0xbda92ca4	-0.08260468
38	0x3eed11da	0.46302682
39	0x3e90013c	0.28125942
40	0x3e021035	0.12701495
41	0x2ae8867b	4.1304793e-13
42	0x3e48a154	0.19592792
43	0xbf0fad21	-0.5612355
44	0xbf2f81ef	-0.6855764
45	0xbef90aae	-0.4864096
46	0xbf19cab7	-0.60074943
47	0x3f63b557	0.8894858
48	0x3ec56c5a	0.38559228
49	0x370754a3	8.066333e-06
50	0xbecc8e5c	-0.39952362
51	0xbf011d79	-0.50435597
52	0x0005594f	4.91215e-40
53	0x3cba0802	0.022708897
54	0x3e35014a	0.17676273
55	0xbdad2ea7	-0.08456164
56	0x3efdefc7	0.49596998
57	0xbea000c7	-0.31250593
58	0x3ed10b9d	0.40829173
59	0xbe2273f5	-0.15864547
60	0xbe60ebaf	-0.21964906
61	0x3c817f44	0.015807755
62	0x3f3a27bc	0.7271688
63	0x3f571154	0.84010816
64	0xb9614642	-0.00021483845
65	0xbeade79d	-0.3396577
66	0x80055e92	-4.93103e-40
67	0xbe8d922f	-0.27650592
68	0x3bc8348f	0.006109781
69	0x3db2c39c	0.08728716
70	0x3e268f00	0.16265488
71	0x3ac30793	0.0014879577
72	0x3d40f86f	0.047111925
73	0x9cfd860a	-1.6776784e-21
74	0x3e39f51e	0.18159911
75	0xbd514e1e	-0.05109989
76	0xbeb79d85	-0.35862365
77	0xbeeea9e3	-0.46613988
78	0x3e5188ef	0.20462392
79	0x3e9ba29e	0.30397505
80	0x3c9dafeb	0.019248923
81	0x351043fd	5.3743116e-07
82	0x3c1e4076	0.009658923
83	0xbe8eb6b8	-0.27873778
84	0x00055c6f	4.92336e-40
85	0x3ea6f1b4	0.3260628
86	0x3d0ab9b9	0.033868525
87	0x3eace536	0.33768624
88	0x3e87c164	0.26514733
89	0xbe1c087c	-0.15237612
90	0x3e32481c	0.1741032
91	0xbebed445	-0.37271324
92	0x3e2b2701	0.16714098
93	0xbc4741d3	-0.01216169
94	0x3edf7e5d	0.43651095
95	0x3e98f543	0.2987462
96	0x0005af77	5.22122e-40
97	0xb24921d9	-1.1707436e-08
98	0x000588da	5.0827e-40
99	0x322f115b	1.0190287e-08
100	0xa5cf1d7b	-3.5928753e-16
101	0xb401ba3a	-1.208181e-07
102	0x333020d9	4.1008068e-08
103	0xb51143b8	-5.4115253e-07
104	0xb37f2c3d	-5.941205e-08
105	0x80055e7c	-4.93072e-40
106	0x321ab227	9.004487e-09
107	0x2dd8d590	2.4651198e-11
108	0x31155716	2.1731856e-09
109	0x32a3a47d	1.9050498e-08
110	0xb3a2bb1b	-7.577747e-08
111	0x2f3e8a14	1.7329455e-10
112	0xb3ef200c	-1.1135134e-07
113	0x00055e21	4.92945e-40
114	0xb1779969	-3.6030434e-09
115	0xb37c19ca	-5.8696777e-08
116	0x8005782b	-5.02286e-40
117	0xb04bc6a5	-7.413326e-10
118	0xb5d023ad	-1.5507591e-06
119	0xb4580d4c	-2.0121405e-07
120	0xb340f3a1	-4.4925063e-08
121	0xb64b6177	-3.030609e-06
122	0xb2c1ed09	-2.2575948e-08
123	0x32d756f8	2.5068843e-08
124	0xb659ffee	-3.248449e-06
125	0x336a3677	5.4531906e-08
126	0x32d035c5	2.4238838e-08
127	0x31a4ba53	4.794211e-09
128	0xb02cc0e7	-6.2847366e-10
129	0x3f1c5ac6	0.6107601
130	0x00055b7a	4.91993e-40
131	0x3e936e28	0.2879498
132	0xbba2f027	-0.004972476
133	0xbeae58f8	-0.34052253
134	0xbcdac083	-0.026703125
135	0x3e5978ce	0.2123749
136	0xbe602eaf	-0.21892808
137	0x9743bf26	-6.324916e-25
138	0xbe447b45	-0.19187649
139	0x3d869abe	0.065724835
140	0x3c52f831	0.012876556
141	0x3dd3c1e7	0.10339718
142	0xbecbbd0b	-0.39792666
143	0xbcf062ab	-0.029343924
144	0xbbb5f985	-0.0055534267
145	0xac52e98f	-2.9972446e-12
146	0x3dc5aa26	0.09651594
147	0x3cc867b3	0.02446351
148	0x80055db5	-4.92793e-40
149	0xbb8b1239	-0.0042441157
150	0xbe5cb8bf	-0.2155485
151	0x3ee1d95e	0.4411115
152	0xbd6bec19	-0.057598207
153	0xbe08c7d7	-0.13357483
154	0x3eb60d88	0.355572
155	0x3de5e874	0.112259775
156	0xbe37d95f	-0.17954014
157	0x3d024f0a	0.03181366
158	0x3e5e3a25	0.21701868
159	0xbe7f1bcc	-0.24912947
160	0x38b75535	8.741991e-05
161	0xbe7e5546	-0.24837217
162	0x00055e77	4.93065e-40
163	0x3e33e619	0.17568244
164	0x3ba938ab	0.005164226
165	0x3dd5da68	0.10442048
166	0x3e0d61a6	0.13806781
167	0x3e850105	0.2597734
168	0x3d041d2c	0.032254383
169	0x9f80e466	-5.458796e-20
170	0xbd679010	-0.056533873
171	0xbcb8b90c	-0.022549175
172	0x3da6c59a	0.08143158
173	0xbea8a57a	-0.3293875
174	0xbe3640bd	-0.17798133
175	0x3e577152	0.21039322
176	0x3e39c777	0.18142496
177	0x35f08dff	1.792272e-06
178	0x3e12e8b7	0.14346586
179	0xbe026f20	-0.12737703
180	0x00055ccd	4.92468e-40
181	0x3dbd3fe2	0.092407
182	0x3e866c3d	0.26254454
183	0xbc3c95a2	-0.011510285
184	0x3d9416a3	0.0723088
185	0x3e19a925	0.1500593
186	0xbeef79d5	-0.46772638
187	0xbf36f777	-0.7147135
188	0x3e9f3a91	0.3109937
189	0xbc86bb9e	-0.016446885
190	0x3e8db1af	0.27674624
191	0x3eebbca8	0.4604237
192	0x35af54a6	1.3063152e-06
193	0x3cf752a5	0.030190775
194	0x0005596b	4.91255e-40
195	0x3e6bf0e3	0.2304111
196	0xbb91cadc	-0.0044492316
197	0x3d46fb49	0.048579488
198	0xbc5c91c0	-0.013462484
199	0x3e72ba16	0.23703799
200	0x3c898afe	0.01678991
201	0x80055f40	-4.93347e-40
202	0xbd10619c	-0.035249338
203	0x3d5f1c85	0.054470558
204	0x3da5c3dc	0.08093998
205	0xbd2ecfd4	-0.04267867
206	0x3d754e37	0.059889045
207	0xbd967926	-0.07347326
208	0xbc64efe0	-0.013973206
209	0x1166855e	1.8184898e-28
210	0x3ccf84d9	0.025331901
211	0x3daa1604	0.083049804
212	0x00055955	4.91224e-40
213	0x3dba1642	0.090862766
214	0x3de6ac4b	0.11263331
215	0x3e620ea4	0.22075897
216	0xbda100c2	-0.07861473
217	0x3db31e9d	0.087460734
218	0xbe0bdaa3	-0.13657622
219	0xbe545c77	-0.20738398
220	0x3e38cc48	0.18046677
221	0x3bed3591	0.0072390516
222	0xbe375826	-0.1790472
223	0x3da13a8e	0.078724965
224	0x800576ba	-5.01769e-40
225	0x00058a9d	5.08903e-40
226	0x8005a3ee	-5.17984e-40
227	0x80055d9d	-4.9276e-40
228	0x8005b5b0	-5.24355e-40
229	0x000557eb	4.90717e-40
230	0x800599d8	-5.14366e-40
231	0x9b822a13	-2.1533886e-22
232	0x0005682f	4.96552e-40
233	0x00059503	5.12633e-40
234	0x800560b3	-4.93867e-40
235	0x000564de	4.95362e-40
236	0x800563e7	-4.95016e-40
237	0x8005585b	-4.90873e-40
238	0x00055faa	4.93495e-40
239	0x8005789a	-5.02441e-40
240	0x000649d7	5.77502e-40
241	0x0005588a	4.9094e-40
242	0x0006388d	5.713e-40
243	0x00055f2b	4.93317e-40
244	0x80059b42	-5.14873e-40
245	0x8fca897e	-1.9971698e-29
246	0xacd87055	-6.1515606e-12
247	0x00055aa7	4.91697e-40
248	0x00055859	4.9087e-40
249	0xac0e5e41	-2.0231735e-12
250	0x80056ed7	-4.9894e-40
251	0x80056387	-4.94881e-40
252	0xac39965e	-2.6373552e-12
253	0x00056b32	4.97632e-40
254	0x80056129	-4.94032e-40
255	0x931c1ada	-1.9703207e-27

linear_relu_stack.6.bias f4 [16]
0	0x000561f8	4.94322e-40
1	0x3d5b25d8	0.053502887
2	0x3e70110e	0.23444006
3	0xb6a133ee	-4.8042193e-06
4	0xbdb06183	-0.08612349
5	0x3ebfb5b1	0.37443307
6	0x3e728484	0.23683363
7	0xb6df32c7	-6.651829e-06
8	0x3deb5c8d	0.11492262
9	0xbdc004aa	-0.093758896
10	0x3ed737c5	0.42034736
11	0x3ee3e4fd	0.44510642
12	0x3e84d853	0.25946292
13	0xbe11105e	-0.141664
14	0xbcd8d214	-0.02646736
15	0xacc8574e	-5.6940347e-12

linear_relu_stack.8.weight f4 [8, 16]
0	0x80056b14	-4.9759e-40
1	0xbb88de54	-0.004176894
2	0xbc3b31db	-0.011425461
3	0xb299ad13	-1.789025e-08
4	0xbadf8fab	-0.0017056366
5	0x37dabd3e	2.6075748e-05
6	0x3c765578	0.015035026
7	0x000560c2	4.93888e-40
8	0xbc6f90c9	-0.014621922
9	0x3c93679a	0.017993737
10	0x3b978300	0.0046237707
11	0x3bc3fd5c	0.0059811305
12	0x3ba93e5f	0.005164906
13	0x3b0769dc	0.0020662462
14	0x3c0be23a	0.008537823
15	0x00056afd	4.97558e-40
16	0x00056bc4	4.97837e-40
17	0xbf6d5c38	-0.9271884
18	0xbeafbb39	-0.34322527
19	0xb615ddfb	-2.233194e-06
20	0x3e6f12c5	0.23347004
21	0xbda04138	-0.078249395
22	0x3ea2294e	0.31672138
23	0x368f8260	4.2769097e-06
24	0x3f053fcd	0.5205048
25	0x3f19909c	0.5998628
26	0x3eadbf9c	0.3393525
27	0x3e745d0a	0.23863617
28	0xbe7767d5	-0.24160703
29	0x3b0ed01a	0.0021791519
30	0x3f2fbb4d	0.68645173
31	0x05198d25	7.2199496e-36
32	0x00048e3d	4.18367e-40
33	0xbf83eb9e	-1.030628
34	0xbdd3dcd4	-0.10344854
35	0xb5e1d04c	-1.6824429e-06
36	0x3e2a7152	0.16644791
37	0x3eb3c4d5	0.35111108
38	0x3e9c96c1	0.30583766
39	0x33b472d2	8.402789e-08
40	0x3ebd64f5	0.36991087
41	0x3f19cb33	0.6007568
42	0xbe8f118f	-0.27943084
43	0x3e84f20b	0.25965914
44	0xbe39c10f	-0.18140052
45	0x3da7a970	0.081866145
46	0x3eda292e	0.42609543
47	0x00057339	5.00512e-40
48	0x00056c26	4.97974e-40
49	0x3edf9de7	0.43675157
50	0x3ba54b14	0.0050443504
51	0x3404e69c	1.2377353e-07
52	0x3f20597b	0.62636536
53	0x3dc17491	0.094460614
54	0x3eab2326	0.33425254
55	0x00055ec9	4.9318e-40
56	0x3c7cf975	0.015440335
57	0x3e6102da	0.21973744
58	0xbee1b816	-0.4408576
59	0x3e84474e	0.2583565
60	0xbde1220c	-0.10992822
61	0x3ea36273	0.31911048
62	0x3c8587e6	0.016300153
63	0x8005748b	-5.00985e-40
64	0x80057d65	-5.0416e-40
65	0x3e13b34b	0.14423864
66	0x3e0c8b4a	0.1372501
67	0x35488aed	7.470797e-07
68	0xbf0ce2cf	-0.5503358
69	0x3e3d3710	0.18478036
70	0x3e6d3854	0.23166019
71	0xaf62f88d	-2.0642883e-10
72	0xbee372da	-0.44423562
73	0x3dbcc2c8	0.09216839
74	0xbd5a50ea	-0.053299822
75	0x3d11aeb2	0.035566993
76	0x3f18b9f9	0.5965877
77	0xbf0f4a37	-0.5597262
78	0xbe640150	-0.22266126
79	0x80055d3d	-4.92625e-40
80	0x00055d9f	4.92762e-40
81	0x3f64965c	0.8929193
82	0x3f2f4bb0	0.68474865
83	0x35c755fd	1.4851681e-06
84	0xbeca5c0d	-0.39523354
85	0x3f0ea726	0.557238
86	0x3c6e9487	0.014561779
87	0xb497ed4b	-2.8298595e-07
88	0xbef56ec9	-0.47936085
89	0xbf042ead	-0.5163372
90	0x3e86c958	0.26325488
91	0x3ea69b17	0.325402
92	0x3ef783b9	0.48342684
93	0xbea112ea	-0.31459743
94	0xbe501b40	-0.20322895
95	0x179d6e4f	1.0173733e-24
96	0x80055b96	-4.92032e-40
97	0x3ee974b0	0.45596838
98	0x3b5e34bd	0.0033905946
99	0x3556e878	8.00595e-07
100	0xbee3c26b	-0.44484267
101	0x3f0cca47	0.5499615
102	0x3ea1ff57	0.3164012
103	0xb2839ac3	-1.5320785e-08
104	0xbf6d9e35	-0.9281953
105	0xbd799daf	-0.060941394
106	0x3ec2aeff	0.38024136
107	0x3efec5e4	0.49760354
108	0x3f06dd92	0.5268184
109	0xbd85be8a	-0.06530483
110	0xbe61cbba	-0.22050372
111	0x28c7c51f	2.2178926e-14
112	0x80055a50	-4.91576e-40
113	0xbbb07fb6	-0.005386318
114	0x3d93032b	0.071783386
115	0x32912bfb	1.6900222e-08
116	0xbcc6cf9f	-0.024268923
117	0xbd9f514f	-0.0777918
118	0xbcf232b9	-0.029565202
119	0x00058789	5.07798e-40
120	0xbda2a1c8	-0.079410136
121	0x3e41cb1c	0.18925136
122	0x3dc4a33e	0.096014485
123	0xbe1eeb7c	-0.15519518
124	0xbd0cc91a	-0.034371473
125	0xbb863a22	-0.0040962854
126	0x3c81451b	0.015780022
127	0x0005a186	5.17121e-40

linear_relu_stack.8.bias f4 [8]
0	0x3b15c05e	0.0022850255
1	0xbd8d141a	-0.068886
2	0x3d5401b0	0.05175942
3	0xbe6d479f	-0.23171853
4	0x3eafba63	0.3432189
5	0x3eb65e2c	0.35618722
6	0x3eeab350	0.4583993
7	0x3c91c381	0.017793419

linear_relu_stack.10.weight f4 [4, 8]
0	0xbb8028f2	-0.003911131
1	0xbfa2314e	-1.2671297
2	0xbf7f0814	-0.996217
3	0xbe72ba07	-0.23703776
4	0x3e9200e5	0.28516307
5	0x3f23fdc8	0.64059114
6	0xbd18d2bd	-0.03731035
7	0xbb960955	-0.004578749
8	0xbdab24ba	-0.083566144
9	0x3dcbd7a7	0.09953242
10	0x3dc812fa	0.097692445
11	0x3decf8c5	0.115708865
12	0xbcb1af9a	-0.021690179
13	0x3ba37162	0.0049878815
14	0xb98411e8	-0.00025190343
15	0x3d93a532	0.07209243
16	0x3bfb91e4	0.0076773036
17	0xbddcc2ab	-0.107793175
18	0xbc2944cd	-0.010331345
19	0x3f3af60c	0.7303169
20	0xbf410d8e	-0.7541131
21	0x3d2804ef	0.04102033
22	0x3e6fe941	0.23428823
23	0x3da7fc3a	0.08202405
24	0x3bd08fa3	0.006364779
25	0xbec9bcdf	-0.3940191
26	0xbd820a47	-0.063496165
27	0xbeb741d7	-0.3579242
28	0x3ea863a4	0.3288852
29	0x3f0c4714	0.54795957
30	0x3f712846	0.9420208
31	0x3e29e521	0.16591312

linear_relu_stack.10.bias f4 [4]
0	0x3dad4652	0.08460678
1	0xbf08aa99	-0.5338531
2	0xbd86f678	-0.06589979
3	0x3ef93d82	0.4867974

linear_relu_stack.12.weight f4 [2, 4]
0	0x3fd3e6c3	1.6554798
1	0x3e04de3f	0.12975405
2	0xbf24ce68	-0.6437745
3	0x3fab9ee6	1.3407867
4	0xbfa70f31	-1.3051511
5	0xbe04deb8	-0.12975585
6	0x3f26d3d5	0.6516698
7	0xbf52d982	-0.8236314

linear_relu_stack.12.bias f4 [2]
0	0xc067de04	-3.6229258
1	0x4067dd66	3.622888
