emulation/models/checkpoint/mlp/best_MLP1_cic-ids-2018_mixed.pth (torch, 4241 bytes, 6 tensors)

linear_relu_stack.0.weight f4 [8, 16]
0.72877383 0.21316 -0.0061833085 -1.2166562 -0.07941815 -0.23141387 0.02393656 0.11905323
-0.06607826 0.3384603 0.42448163 0.1688536 0.60220945 0.024692079 -0.35313046 -0.35592633
0.18403716 0.47177905 0.49232516 1.4418656 0.32564205 -0.15740564 -0.942258 -1.0670192
-0.060744245 0.64046985 0.570909 0.11559278 -0.3062174 -0.28301257 0.47225544 -0.3554804
0.31175032 -0.053559855 -0.31819475 -0.990943 -0.25639662 2.3337572 0.23996635 -0.027093442
0.47555587 -0.67321634 0.8688518 -0.4628183 -0.3787485 0.44808263 -0.06477096 -0.5700829
-2.808142 0.43805966 -0.60629654 0.80872786 0.07974121 -0.19414513 -0.71469134 -1.2749715
-0.4921939 -0.10297422 0.011872783 -0.5223974 0.08091322 -0.35211784 -0.06440199 0.6932085
-0.40719524 -0.21837606 -0.5403156 1.0602221 -0.05140738 -1.9144031 -0.03780113 0.27882278
-0.1921394 -0.38110787 -0.009132733 -0.13030969 0.24394655 0.5342945 0.21659024 -0.12829512
-0.1504076 0.0563712 0.32988268 1.1433154 -0.02811056 -0.042368025 -0.4430475 -0.9506481
-0.0016915567 0.41639724 -0.4242754 0.28435743 -0.45074713 -0.6677213 -0.19853027 0.5235851
0.2716052 -0.28841627 0.5229489 -1.4014283 -0.2912889 -0.43084982 -0.34794012 0.08255333
0.11572165 0.31014904 0.116110586 -0.09847483 0.18704847 0.56427956 -0.43247372 -0.921108
0.20785756 0.7485068 -0.01857981 -0.27134496 -0.014785638 0.42103738 -0.38873476 0.30655155
0.1783205 -0.15405595 0.25719884 0.43521148 -0.2905608 -0.33448374 0.7216944 0.6538987
00000000: ec90 3a3f 9d46 5a3e 5a9d cabb 64bb 9bbf
00000010: fca5 a2bd c2f7 6cbe 9b16 c43c 2ed2 f33d
00000020: 0a54 87bd ab4a ad3e a855 d93e f5e7 2c3e
00000030: 662a 1a3f 0b47 ca3c 84cd b4be fa3b b6be
00000040: 3d74 3c3e 068d f13e 0b12 fc3e 0d8f b83f
00000050: 8eba a63e f22e 21be d237 71bf 1694 88bf
00000060: f5ce 78bd d5f5 233f 1827 123f e8bb ec3d
00000070: 87c8 9cbe 06e7 90be 77cb f13e 8701 b6be
00000080: bd9d 9f3e 9461 5bbd 6cea a2be 71ae 7dbf
00000090: 6b46 83be 475c 1540 bdb9 753e 11f3 ddbc
000000a0: 0f7c f33e e857 2cbf 126d 5e3f 85f6 ecbe
000000b0: 53eb c1be 166b e53e a3a6 84bd f4f0 11bf
000000c0: 99b8 33c0 5b49 e03e 4036 1bbf ca08 4f3f
000000d0: 5c4f a33d fbcd 46be 03f6 36bf 4432 a3bf
000000e0: d700 fcbe 26e4 d2bd 1086 423c d6bb 05bf
000000f0: d5b5 a53d ca48 b4be 31e5 83bd 1d76 313f
00000100: e57b d0be f99d 5fbe 2052 0abf 5cb5 873f
00000110: 8b90 52bd 290b f5bf 5cd5 1abd dcc1 8e3e
00000120: 31c0 44be 9220 c3be 75a1 15bc e76f 05be
00000130: 20cd 793e 86c7 083f d5c9 5d3e cc5f 03be
00000140: 7304 1abe 7de5 663d 62e6 a83e 2958 923f
00000150: 1e48 e6bc 188a 2dbd 1fd7 e2be ad5d 73bf
00000160: 39b7 ddba 0532 d53e a03a d9be 4c97 913e
00000170: 54c8 e6be c8ef 2abf 854b 4bbe ac09 063f
00000180: d60f 8b3e 4cab 93be fbdf 053f 0162 b3bf
00000190: d223 95be 5998 dcbe 3525 b2be b811 a93d
000001a0: 79ff ec3d dbcb 9e3e 63cb ed3d 2cad c9bd
000001b0: a289 3f3e a074 103f 326d ddbe bccd 6bbf
000001c0: 9dd8 543e 249e 3f3f b034 98bc baed 8abe
000001d0: 763f 72bc 3692 d73e 3e08 c7be 53f4 9c3e
000001e0: a699 363e d8c0 1dbe 91af 833e 0ad4 de3e
000001f0: 63c4 94be 7441 abbe f7c0 383f e865 273f

linear_relu_stack.0.bias f4 [8]
-0.20880961 0.32673854 0.67560756 0.23954362 -0.13968822 0.3609732 -0.063018866 0.24282834
00000000: 30d2 55be 464a a73e 9ef4 2c3f ec4a 753e
00000010: 6e0a 0fbe 7bd1 b83e 0910 81bd fea7 783e

linear_relu_stack.2.weight f4 [4, 8]
-0.55113816 0.76670665 1.3301448 1.3252729 -0.5261453 1.1187494 -0.61922127 0.5004146
-1.1797372 1.0374058 1.3909038 1.8097017 -0.6821223 0.513378 -0.1278288 -0.091997154
0.9490575 -0.33708054 -0.51327664 -1.9799931 1.4525744 0.2773304 0.7406402 -0.7919278
-0.076074295 -0.05606647 -0.0019744511 0.6202091 0.36130664 0.074677154 -0.491254 -0.17567927
00000000: 6417 0dbf e346 443f 2f42 aa3f 8ba2 a93f
00000010: 75b1 06bf 2e33 8f3f 4985 1ebf 2c1b 003f
00000020: a101 97bf b7c9 843f 2309 b23f 4ea4 e73f
00000030: 919f 2ebf be6c 033f 8ee5 02be 0169 bcbd
00000040: 6ff5 723f d295 acbe 1966 03bf 6a70 fdbf
00000050: f5ed b93f 40fe 8d3e 999a 3d3f c8bb 4abf
00000060: d7cc 9bbd f4a5 65bd cb65 01bb 06c6 1e3f
00000070: 2ffd b83e 56f0 983d a585 fbbe 44e5 33be

linear_relu_stack.2.bias f4 [4]
0.22913547 0.39079145 0.35709798 0.4865222
00000000: 7da2 6a3e d115 c83e 8cd5 b63e 7019 f93e

linear_relu_stack.4.weight f4 [2, 4]
1.8491696 2.7409554 -1.7259741 -0.6871243 -1.9468641 -3.0342665 -0.03156724 0.6770541
00000000: 97b1 ec3f d06b 2f40 b8ec dcbf 61e7 2fbf
00000010: d832 f9bf 6c31 42c0 a64c 01bd 6b53 2d3f

linear_relu_stack.4.bias f4 [2]
0.008470205 -0.00849037
00000000: 9dc6 0a3c 311b 0bbc
