emulation/models/checkpoint/cnn/best_TextCNNTeacher_ustc-tfc2016.pth (torch, 470213 bytes, 44 tensors)

len_embedding.weight f4 [1501, 10]
-4.94707e-40 4.95234e-40 -4.93205e-40 5.19247e-40 -4.91616e-40 -4.95877e-40 4.9522e-40 -6.30465e-40
-4.93565e-40 4.91508e-40 4.93397e-40 4.93358e-40 5.88728e-40 5.85307e-40 -5.08701e-40 4.94714e-40
4.93424e-40 -4.93491e-40 5.00954e-40 4.93469e-40 -4.92486e-40 4.91573e-40 4.93875e-40 4.9387e-40
4.91994e-40 -4.92954e-40 -4.92655e-40 4.94782e-40 -4.92946e-40 -4.94082e-40 4.91381e-40 -5.1172e-40
-5.56044e-40 -4.9401e-40 -6.21458e-40 4.90924e-40 4.93202e-40 -4.96001e-40 4.95671e-40 -5.573e-40
-4.92492e-40 4.91556e-40 -6.16271e-40 -4.95458e-40 -4.93156e-40 -4.94726e-40 -5.38668e-40 4.91847e-40
-4.95442e-40 4.94172e-40 -4.94925e-40 -4.9761e-40 4.93976e-40 -4.94972e-40 -5.87482e-40 5.29349e-40
-4.90739e-40 -4.98089e-40 4.9417e-40 4.94082e-40 -4.94325e-40 -4.92687e-40 -4.93403e-40 -4.95147e-40
4.93707e-40 -5.02759e-40 4.91752e-40 4.95236e-40 -4.94486e-40 4.951e-40 -4.98391e-40 -4.95034e-40
-4.9461e-40 4.96273e-40 5.30778e-40 4.92234e-40 -4.91748e-40 4.90861e-40 4.97893e-40 5.1964e-40
-4.93844e-40 -4.91134e-40 4.94357e-40 -4.94646e-40 -4.9174e-40 -4.94095e-40 4.9115e-40 4.92018e-40
4.93854e-40 4.92534e-40 -4.93331e-40 -4.95175e-40 -4.92897e-40 4.92825e-40 4.91448e-40 4.97572e-40
-4.92247e-40 -4.91487e-40 -4.92315e-40 -4.93343e-40 4.91766e-40 4.91894e-40 4.90578e-40 -4.91525e-40
-4.96605e-40 -4.94748e-40 -4.926e-40 4.90621e-40 -4.91213e-40 4.9151e-40 -4.94835e-40 -4.93089e-40
4.92911e-40 -4.91375e-40 4.93832e-40 4.92135e-40 -4.91306e-40 -4.93857e-40 5.21884e-40 -4.93378e-40
-4.95603e-40 4.92404e-40 4.9378e-40 -4.93549e-40 -4.9514e-40 4.93819e-40 4.96226e-40 4.9545e-40
4.93211e-40 -4.95953e-40 6.27553e-40 -4.90899e-40 -4.92576e-40 4.94663e-40 4.93309e-40 4.941e-40
4.96819e-40 -4.90932e-40 -4.94515e-40 -4.9068e-40 -4.9112e-40 4.9337e-40 -4.91961e-40 -4.90614e-40
4.95391e-40 5.08879e-40 4.92098e-40 -4.91304e-40 4.9149e-40 -5.49998e-40 4.94308e-40 4.94494e-40
5.14263e-40 -4.94431e-40 5.40877e-40 4.92101e-40 4.90858e-40 -4.95052e-40 4.9222e-40 4.94347e-40
-5.32418e-40 4.93348e-40 4.91762e-40 -4.94824e-40 4.95751e-40 -4.95966e-40 4.93177e-40 4.91175e-40
4.91606e-40 -5.27606e-40 -4.93589e-40 -4.90938e-40 -4.95192e-40 -4.93096e-40 4.92444e-40 4.9142e-40
-4.9112e-40 4.94808e-40 -4.91547e-40 4.91074e-40 4.91944e-40 4.95816e-40 4.91444e-40 -4.93656e-40
-4.93823e-40 4.90925e-40 -4.9234e-40 -4.92107e-40 4.92636e-40 -4.92338e-40 4.93149e-40 4.96842e-40
4.95215e-40 4.99022e-40 -4.94658e-40 -4.92862e-40 4.9565e-40 -4.92876e-40 -4.90523e-40 -4.90883e-40
4.9484e-40 -4.93819e-40 4.91776e-40 -4.91814e-40 -4.92692e-40 -5.0259e-40 -4.95395e-40 -4.92345e-40
4.94339e-40 -4.93634e-40 4.90763e-40 4.95076e-40 4.91222e-40 4.95195e-40 -4.94978e-40 -4.94527e-40
4.92947e-40 4.93725e-40 5.09201e-40 4.93801e-40 -4.94642e-40 -4.93509e-40 -4.93826e-40 -4.92307e-40
4.95691e-40 4.92521e-40 -4.90614e-40 -4.91105e-40 4.91393e-40 -4.91269e-40 4.92213e-40 4.93457e-40
-4.91494e-40 5.16896e-40 5.58672e-40 -4.94316e-40 4.91012e-40 -4.94361e-40 -4.92498e-40 4.92538e-40
4.95429e-40 -5.72143e-40 4.94832e-40 4.90987e-40 4.91822e-40 -4.95069e-40 4.9458e-40 4.92726e-40
-4.93463e-40 4.9351e-40 -4.91301e-40 4.92214e-40 -4.94462e-40 4.91092e-40 4.9186e-40 -4.92104e-40
00000000: 0b63 0580 8364 0500 db5e 0580 73a7 0500
00000010: 6d5a 0580 4e66 0580 7964 0500 7bdd 0680
00000020: dc5f 0580 205a 0500 645f 0500 485f 0500
00000030: 2269 0600 995f 0600 0d8a 0580 1063 0500
00000040: 775f 0500 a75f 0580 7574 0500 975f 0500
00000050: da5c 0580 4e5a 0500 b960 0500 b560 0500
00000060: 7b5b 0500 285e 0580 525d 0580 4063 0500
00000070: 225e 0580 4d61 0580 c559 0500 7892 0580
00000080: 060e 0680 1961 0580 5fc4 0680 7f58 0500
00000090: d95e 0500 a666 0580 bb65 0500 8711 0680
000000a0: de5c 0580 425a 0500 eab5 0680 2365 0580
000000b0: b85e 0580 1863 0580 96dd 0580 125b 0500
000000c0: 1765 0580 8d61 0500 a663 0580 226b 0580
000000d0: 0161 0500 c863 0580 a965 0680 9cc3 0500
000000e0: fb57 0580 786c 0580 8b61 0500 4d61 0500
000000f0: fa61 0580 695d 0580 685f 0580 4564 0580
00000100: 4160 0500 7d79 0580 ce5a 0500 8464 0500
00000110: 6d62 0580 2364 0500 506d 0580 f463 0580
00000120: c562 0580 6867 0500 98c7 0500 265c 0500
00000130: cb5a 0580 5258 0500 ec6b 0500 8ba8 0500
00000140: a360 0580 1559 0580 1162 0500 df62 0580
00000150: c55a 0580 5661 0580 2059 0500 8c5b 0500
00000160: aa60 0500 fc5c 0500 355f 0580 5964 0580
00000170: ff5d 0580 cc5d 0500 f559 0500 076b 0500
00000180: 2f5c 0580 115a 0580 605c 0580 3d5f 0580
00000190: d85a 0500 335b 0500 8857 0500 2c5a 0580
000001a0: 5568 0580 2863 0580 2b5d 0580 a757 0500
000001b0: 4d59 0580 215a 0500 6663 0580 885e 0580
000001c0: 095e 0500 c159 0580 9a60 0500 df5b 0500
000001d0: 9059 0580 ac60 0580 cdae 0500 565f 0580
000001e0: 8a65 0580 9f5c 0500 7560 0500 d05f 0580
000001f0: 4064 0580 9160 0500 4767 0500 1d65 0500
00000200: df5e 0500 8466 0580 5dd5 0600 6d58 0580
00000210: 1a5d 0580 eb62 0500 255f 0500 5a61 0500
00000220: ee68 0500 8558 0580 8262 0580 d157 0580
00000230: 0b59 0580 515f 0500 635b 0580 a257 0580
00000240: f364 0500 8c8a 0500 c55b 0500 8e59 0580
00000250: 135a 0500 2cfd 0580 ee61 0500 7362 0500
00000260: 8e99 0500 4662 0580 bfe3 0500 c75b 0500
00000270: 5058 0500 0164 0580 1c5c 0500 0a62 0500
00000280: 2acc 0580 415f 0500 d55a 0500 5e63 0580
00000290: f465 0500 8d66 0580 c75e 0500 3259 0500
000002a0: 665a 0500 c0be 0580 ed5f 0580 8958 0580
000002b0: 6564 0580 8d5e 0580 bc5c 0500 e159 0500
000002c0: 0b59 0580 5363 0500 3c5a 0580 ea58 0500
000002d0: 575b 0500 2266 0500 f259 0500 1d60 0580
000002e0: 9460 0580 8058 0500 725c 0580 cb5b 0580
000002f0: 455d 0500 705c 0580 b35e 0500 fe68 0500
00000300: 7564 0500 126f 0500 e862 0580 e65d 0580
00000310: ac65 0500 f05d 0580 6157 0580 6258 0580
00000320: 6a63 0500 9160 0580 df5a 0500 fa5a 0580
00000330: 6d5d 0580 0479 0580 f664 0580 755c 0580
00000340: 0462 0500 0d60 0580 0c58 0500 1264 0500
00000350: 5459 0500 6764 0500 cc63 0580 8a62 0580
00000360: 235e 0500 4e60 0500 728b 0500 8460 0500
00000370: dc62 0580 b45f 0580 9660 0580 5a5c 0580
00000380: c965 0500 f35c 0500 a257 0580 0059 0580
00000390: ce59 0500 7559 0580 175c 0500 8f5f 0500
000003a0: 165a 0580 e5a0 0500 5a15 0600 f461 0580
000003b0: be58 0500 1462 0580 e25c 0580 ff5c 0500
000003c0: 0e65 0500 e73a 0680 6463 0500 ac58 0500
000003d0: 005b 0500 0d64 0580 b062 0500 855d 0500
000003e0: 935f 0580 b55f 0500 8c59 0580 185c 0500
000003f0: 5c62 0580 f758 0500 1b5b 0500 c95b 0580

ipd_embedding.weight f4 [2561, 8]
-0.20270033 -0.30570418 0.24018984 0.3229196 0.20953369 -0.18964669 0.66319215 0.40704453
0.12665634 -0.26202238 0.090548284 0.039232254 0.3948186 0.112296015 0.07644091 -0.16130577
-0.07983783 -0.07766952 0.19560434 -0.17408712 0.118414275 0.38038045 0.24638566 -0.02814902
-0.131439 -0.029407635 0.13397308 0.030626932 0.0540897 0.07379904 0.28729743 -0.021509012
-0.44460064 -0.2017472 -0.023728961 -0.17436226 0.24094854 0.09042776 -0.02520923 -0.12827969
-0.027854357 -0.18382372 -0.10545454 -0.017274309 0.554647 -0.2848305 -0.25159255 -0.07371285
-0.10346317 -0.0033509142 0.11708501 0.29845074 0.84594214 -0.17692162 -0.13471846 0.13477798
-0.2879487 -0.07880576 0.22098504 0.096822806 0.6262717 -0.18993115 0.31297877 0.15327474
-0.12050415 -0.098689094 0.43799144 0.072925255 0.47013763 -0.4072735 0.54179907 0.028923001
0.027956989 -0.15532579 0.7084532 0.22136232 0.42906234 -0.5472189 0.19352433 0.028038027
0.048734326 -0.47428602 0.44364545 0.111126 -0.07655984 -0.12781252 0.18833269 0.029253127
0.07389023 -0.30801302 0.18004471 0.33781093 0.29333726 -0.21299505 0.4767591 -0.18654175
0.16689222 -0.36819348 -0.11970096 0.25701842 0.23102789 -0.17106196 0.37979025 0.025689634
0.18328659 -0.36768457 -0.11035696 0.09181207 0.42022187 0.031108877 0.4888859 0.12869368
0.30090144 -0.19390172 0.10061426 -0.0066586197 0.3171927 0.0469816 0.35858074 0.1582625
0.4856161 -0.14418262 0.04756496 -0.052573893 0.3877783 -0.1916993 0.082385406 0.215189
0.40104458 -0.33637336 0.073363245 -0.07768731 0.09516109 -0.11596609 0.026923442 0.19173884
-0.021829145 -0.5268797 -0.018751165 -0.08971686 0.22876579 0.03973617 -0.006445742 0.16740204
-0.12557444 -0.42663386 -0.09972405 0.14295939 0.25466755 -0.1442886 0.08853519 0.31952617
0.19000942 -0.2984121 -0.19403616 0.089489244 0.2262785 -0.10975008 0.21243338 0.34569153
0.17850345 -0.3865906 -0.20162374 -0.15016197 -0.059171427 0.01896112 0.1714208 0.10964634
0.23926188 -0.28786007 -0.2594337 -0.028741319 -0.097570546 -0.053391933 0.19006802 0.11450597
0.29561815 -0.13063547 -0.1370919 -0.13821496 0.13848174 -0.14996341 -0.24386956 0.18651955
0.23626402 -0.18334295 -0.21052174 -0.04903077 -0.07789611 0.09172854 0.21633026 0.05113971
0.35184065 -0.053709883 -0.12304411 -0.06867237 -0.03240425 -0.0873039 -0.3004242 0.19867595
0.20080493 -0.17183264 0.06326987 -0.014035469 -0.07214802 0.011684841 0.23770434 -0.021616092
-0.010291959 0.012600495 0.1072211 0.079792865 -0.17954436 0.036864523 0.35679013 0.09281793
-0.10057402 -0.29269788 -0.22745486 -0.015348929 -0.2544171 -0.025230225 0.4335171 0.059960525
0.051347297 -0.09673242 -0.2129735 0.27835944 -0.30953595 -0.25644043 0.23385343 0.09702394
0.3457834 -0.30443323 -0.08072108 -0.0845314 -0.088065244 -0.126588 0.2374701 0.26724264
0.058272615 -0.14262548 -0.1160524 0.19399376 -0.10112771 -0.31120336 0.18424462 0.05747673
-0.19495921 -0.035911832 -0.2536818 -0.071420886 -0.013497243 -0.2826191 0.5960933 -0.040029522
00000000: ad90 4fbe 4285 9cbe 53f4 753e b855 a53e
00000010: 0090 563e be32 42be f6c6 293f 2468 d03e
00000020: 33b2 013e cc27 86be 6171 b93d 00b2 203d
00000030: aa25 ca3e 74fb e53d 0d8d 9c3d 572d 25be
00000040: 0482 a3bd 3311 9fbd 814c 483e e543 32be
00000050: 2f83 f23d 3ac1 c23e 864c 7c3e c698 e6bc
00000060: f297 06be 48e8 f0bc 3d30 093e 55e5 fa3c
00000070: 298d 5d3d f323 973d a618 933e ab33 b0bc
00000080: b2a2 e3be d196 4ebe 3d63 c2bc 058c 32be
00000090: 37bb 763e 3032 b93d 9683 cebc c05b 03be
000000a0: d22e e4bc 493c 3cbe 8df8 d7bd da82 8dbc
000000b0: 59fd 0d3f 4ed5 91be bdd0 80be c3f6 96bd
000000c0: 80e4 d3bd 039b 5bbb 44ca ef3d 89ce 983e
000000d0: aa8f 583f f12a 35be a3f3 09be 3d03 0a3e
000000e0: 036e 93be ea64 a1bd e749 623e 094b c63d
000000f0: 5853 203f 507d 42be c13e a03e 0ef4 1c3e
00000100: e1ca f6bd 821d cabd 6a40 e03e d659 953d
00000110: e1b5 f03e 2786 d0be 58b3 0a3f eeef ec3c
00000120: 0e06 e53c b90d 1fbe 305d 353f ceac 623e
00000130: 0fae db3e 8a16 0cbf 3e2b 463e 01b0 e53c
00000140: a59d 473d 9ed5 f2be 7f25 e33e 0796 e33d
00000150: 68cb 9cbd 49e1 02be 49da 403e 41a4 ef3c
00000160: c353 973d e2b3 9dbe a45d 383e 8ef5 ac3e
00000170: 4d30 963e 601b 5abe c519 f43e cd04 3fbe
00000180: cbe5 2a3e db83 bcbe c725 f5bd eb97 833e
00000190: 9392 6c3e de2a 2fbe de73 c23e 1173 d23c
000001a0: 7baf 3b3e 2741 bcbe d402 e2bd f707 bc3d
000001b0: 5227 d73e 0bd8 fe3c 414f fa3e 47c8 033e
000001c0: c10f 9a3e 2c8e 46be d90e ce3d 8d30 dabb
000001d0: 1567 a23e c76f 403d e597 b73e 910f 223e
000001e0: aca2 f83e 9ca4 13be 7ad3 423d b957 57bd
000001f0: e18a c63e d24c 44be aeb9 a83d 815a 5c3e
00000200: b755 cd3e 2139 acbe 783f 963d 861a 9fbd
00000210: d1e3 c23d a17f edbd 8d8e dc3c 3057 443e
00000220: 09d3 b2bc 97e1 06bf 0b9c 99bc 79bd b7bd
00000230: 9441 6a3e 65c2 223d ce36 d3bb 716b 2b3e
00000240: 9696 00be c16f dabe 1f3c ccbd f263 123e
00000250: c963 823e 64c0 13be f051 b53d ef98 a33e
00000260: d491 423e 79c9 98be 6ab1 46be 2346 b73d
00000270: 8db5 673e a6c4 e0bd 2388 593e 7bfe b03e
00000280: 9cc9 363e 34ef c5be 7476 4ebe 0fc4 19be
00000290: bd5d 72bd 5a54 9b3c ef88 2f3e 438e e03d
000002a0: 1101 753e 6562 93be 7ed4 84be ea72 ebbc
000002b0: 11d3 c7bd 80b1 5abd 31a1 423e 1b82 ea3d
000002c0: 435b 973e 4ec5 05be d261 0cbe 3988 0dbe
000002d0: 28ce 0d3e 0290 19be f1b8 79be fbfe 3e3e
000002e0: 32ef 713e 41be 3bbe 0393 57be 7dd4 48bd
000002f0: ff87 9fbd 2cdc bb3d ae85 5d3e df77 513d
00000300: 7524 b43e e5fe 5bbd 8dfe fbbd 19a4 8cbd
00000310: 52ba 04bd 63cc b2bd 33d1 99be b571 4b3e
00000320: cf9f 4d3e e5f4 2fbe a293 813d 06f5 65bc
00000330: 57c2 93bd c671 3f3c c468 733e 3b14 b1bc
00000340: 9b9f 28bc 4e72 4e3c bc96 db3d 716a a33d
00000350: 7ada 37be 41ff 163d 32ad b63e 5417 be3d
00000360: c0f9 cdbd 7fdc 95be ede9 68be 137a 7bbc
00000370: f542 82be 9eaf cebc f4f5 dd3e 2b99 753d
00000380: 8b51 523d a61b c6bd ba15 5abe 2185 8e3e
00000390: 7f7b 9ebe 294c 83be 4677 6f3e 7db4 c63d
000003a0: 860a b13e acde 9bbe 1851 a5bd cc1e adbd
000003b0: 8d5b b4bd 49a0 01be 5d2b 733e 07d4 883e
000003c0: 44af 6e3d 6a0c 12be e1ac edbd 4da6 463e
000003d0: 0b1c cfbd 0c56 9fbe 9faa 3c3e b86c 6b3d
000003e0: 63a3 47be 4918 13bd 95e2 81be 1d45 92bd
000003f0: 8a23 5dbc 73b3 90be 9299 183f fff5 23bd

proj.0.weight f4 [32, 18]
-0.62779284 0.5838131 -0.6302849 -0.7031019 -0.091572315 0.1609894 0.21219356 0.23145176
-0.18125989 0.07983198 0.07980991 -0.106162585 -0.4994578 0.04535432 -0.10618124 0.51903003
-0.42465776 0.67510736 0.015239168 0.3102455 -0.37136438 -0.13711683 -0.036994822 -0.31765872
-0.27219388 -0.12680766 -0.5744016 0.082427435 -0.20273037 -0.017281968 0.14441781 -0.54003876
-0.71519905 0.4373153 0.3449865 0.47098228 0.12064936 0.5019602 0.50717634 -0.034296047
0.24155049 -0.079240255 -0.5363479 -0.5584626 0.047000017 0.49050876 -0.1177076 -0.05515596
-0.21034384 0.47330904 -0.07690249 -0.070062235 0.14208274 -0.17339158 0.25036114 0.41557977
0.47955003 0.24240835 -0.17503096 -0.2831831 0.30093807 0.14503027 -0.1497326 0.17256348
-0.16541044 0.28674927 0.39347875 -0.25505823 -0.109906405 0.033432037 -0.80949014 -0.0485554
-0.25096548 0.5493992 0.54645675 -0.45479515 0.038131118 0.5119124 -0.28229934 0.08538614
0.056348607 0.56546855 0.08945237 -0.0006131387 -0.25670004 -0.11267985 -0.21805514 -0.026019402
-0.20026489 -0.53720945 0.028589291 0.70616966 -0.16177104 -0.029256204 0.23979951 0.11273801
0.09258821 0.2720236 0.37204078 -0.22188248 -0.22672284 -0.036790244 0.36348256 -0.015534545
-0.45264632 -0.20196764 0.040045567 -0.5851964 -0.18773678 0.66758883 0.25753412 -0.78397924
0.21894138 -0.42773175 -0.05176147 -0.026622156 -0.23545048 -0.4854185 0.039716866 0.51387286
-0.09692901 0.4506674 -0.4391757 0.13077891 0.25907066 0.9163093 0.17976943 0.29317564
-0.4207372 0.39676157 -0.23288423 -0.56111044 0.03920901 -0.641883 0.49467555 0.33853632
0.64232856 -0.23862809 0.0033612538 0.86602867 -0.24184598 0.62610465 0.0009622549 -0.003747307
0.3487427 -0.29833832 -0.27761006 -0.5068593 0.35479805 -0.36151245 -0.35512546 0.38782978
0.2756537 0.7339025 0.26288483 0.032471847 0.118457854 -0.6148946 0.34839743 0.15198597
0.19664006 0.09080915 0.0064277826 0.43642426 0.21433432 -0.11091607 -0.20658697 -0.5796039
0.12287615 0.22983259 -0.5643129 -0.25481287 -0.28352228 0.008061171 -0.26648805 -0.17096889
0.25855374 0.18495487 0.41559866 -0.47512358 0.34925622 0.106032535 -0.013680458 0.0865099
-0.16031447 -0.38653788 0.4896386 -0.08260152 0.15625447 0.31139958 -0.30657426 0.124441
-0.17570406 -0.48658165 0.19827321 0.3298092 -0.5081882 -0.019284073 -0.64883167 0.524912
-0.40948987 1.0596858 -0.37467098 0.28581807 -0.3192456 0.081187636 -0.26959473 0.0488518
-0.09695963 -0.10442292 -0.11313482 0.3715393 -0.059401494 0.49941415 0.34413433 -0.32891893
0.54968995 0.11915362 -0.22805871 -0.08201309 -0.9953791 -0.113599814 0.13900371 -0.42756134
0.15867563 0.37340754 0.26923576 0.16504171 -0.37370837 -0.4715332 0.3239601 -0.34059852
0.22477244 -0.22099456 -0.2311866 0.10792911 -0.18017596 -0.2530591 -0.5839145 0.25244164
0.069660954 -0.06994739 -0.26168144 0.19627517 0.08818989 0.6868063 0.2619018 0.021447154
0.12569381 0.24014235 -0.29968938 -0.26006785 -0.1929649 -0.3505202 0.51642793 0.42811453
00000000: 08b7 20bf c674 153f 5a5a 21bf 7cfe 33bf
00000010: 448a bbbd 68da 243e 4549 593e b101 6d3e
00000020: 319c 39be f37e a33d 6173 a33d c56b d9bd
00000030: efb8 ffbe 74c5 393d 8d75 d9bd 27df 043f
00000040: be6c d9be d6d3 2c3f b4ad 793c 80d8 9e3e
00000050: 7923 bebe 5b68 0cbe e287 17bd 2aa4 a2be
00000060: ff5c 8bbe ded9 01be fc0b 13bf b7cf a83d
00000070: 8d98 4fbe ea92 8dbc 43e2 133e fb3f 0abf
00000080: 4917 37bf cae7 df3e 12a2 b03e 9724 f13e
00000090: 0317 f73d 7780 003f 4fd6 013f 037a 0cbd
000000a0: 0359 773e b748 a2bd 194e 09bf 68f7 0ebf
000000b0: 1783 403d f723 fb3e af10 f1bd 37eb 61bd
000000c0: 6064 57be 9055 f23e 0d7f 9dbd ca7c 8fbd
000000d0: 237e 113e 908d 31be 562f 803e dfc6 d43e
000000e0: 9587 f53e e539 783e 513b 33be 60fd 90be
000000f0: 8e14 9a3e d182 143e 8153 19be 7bb4 303e
00000100: 5b61 29be cdd0 923e 0c76 c93e fe96 82be
00000110: 9c16 e1bd 08f0 083d bf3a 4fbf 07e2 46bd
00000120: 8c7e 80be 6da5 0c3f 97e4 0b3f e9da e8be
00000130: 602f 1c3d b10c 033f 8a89 90be eede ae3d
00000140: cccd 663d 8cc2 103f ce32 b73d 0bbb 20ba
00000150: 306e 83be b1c4 e6bd d949 5fbe a426 d5bc
00000160: 3d12 4dbe 8f86 09bf 1734 ea3c 89c7 343f
00000170: 4fa7 25be b5aa efbc 018e 753e 30e3 e63d
00000180: e39e bd3d ad46 8b3e 217c be3e 2935 63be
00000190: 082a 68be 5eb1 16bd 631a ba3e 9b84 7ebc
000001a0: 42c1 e7be 9bd0 4ebe d206 243d 6ecf 15bf
000001b0: 123e 40be 1ae7 2a3f 83db 833e ddb2 48bf
000001c0: 2b32 603e a8ff dabe d603 54bd b516 dabc
000001d0: ee19 71be c688 f8be 27ae 223d 2c8d 033f
000001e0: b782 c6bd e1bd e63e a3db e0be e8ea 053e
000001f0: e9a4 843e 3f93 6a3f 7a15 383e 1e1b 963e
00000200: de6a d7be 5524 cb3e 3479 6ebe efa4 0fbf
00000210: a099 203d 7252 24bf 1d46 fd3e a254 ad3e
00000220: a56f 243f ec5a 74be 7b48 5c3b 0eb4 5d3f
00000230: 79a6 77be 6548 203f d53f 7c3a 6195 75bb
00000240: 678e b23e cdbf 98be e822 8ebe 88c1 01bf
00000250: 17a8 b53e 2918 b9be 01d3 b5be a091 c63e
00000260: 7b22 8d3e 09e1 3b3f d798 863e 3301 053d
00000270: 089a f23d bc69 1dbf 2661 b23e 36a2 1b3e
00000280: 035c 493e 26fa b93d 26a0 d23b 0073 df3e
00000290: 757a 5b3e f727 e3bd 898b 53be ec60 14bf
000002a0: 7ea6 fb3d 3c59 6b3e cf76 10bf d576 82be
000002b0: d529 91be 0013 043c 1f71 88be 7812 2fbe
000002c0: 2861 843e cf64 3d3e 59c9 d43e 6643 f3be
000002d0: b6d1 b23e 9627 d93d 0024 60bc 1a2c b13d
000002e0: 7a29 24be 4be8 c5be e9b1 fa3e fc2a a9bd
000002f0: 2c01 203e c46f 9f3e 4df7 9cbe ecda fe3d
00000300: c4eb 33be 3b21 f9be 2208 4b3e c0dc a83e
00000310: 9f18 02bf a2f9 9dbc d519 26bf a260 063f
00000320: a8a8 d1be c9a3 873f e0d4 bfbe bf56 923e
00000330: 2974 a3be b445 a63d 5208 8abe d318 483d
00000340: c592 c6bd afdb d5bd 3ab3 e7bd 663a be3e
00000350: fb4e 73bd 36b3 ff3e 6032 b03e 1068 a8be
00000360: 7bb8 0c3f d006 f43d 3988 69be 7bf6 a7bd
00000370: 2ad1 7ebf 05a7 e8bd fd56 0e3e 52e9 dabe
00000380: dd7b 223e 462f bf3e 45d9 893e b200 293e
00000390: b456 bfbe cd6c f1be 19de a53e ee62 aebe
000003a0: bf2a 663e 664c 62be 2ebc 6cbe f009 dd3d
000003b0: 0c80 38be f690 81be 6c7b 15bf 0840 813e
000003c0: 67aa 8e3d 9440 8fbd 1cfb 85be 5cfc 483e
000003d0: e79c b43d 8ad2 2f3f fe17 863e f1b1 af3c
000003e0: e1b5 003e e0e7 753e e370 99be 9d27 85be
000003f0: 9798 45be 6277 b3be 9f34 043f d431 db3e

proj.0.bias f4 [32]
-0.13068351 0.058257785 0.10209966 -0.11232078 0.15258446 -0.10597224 -0.14721838 -0.07397832
-0.04921577 -0.12889658 -0.23088086 0.09426352 -0.09757627 0.065630995 -0.13270754 -0.2740041
-0.2241852 -0.2053272 -0.24127674 -0.18910472 -0.07358358 0.043447103 -0.09660381 -0.125284
-0.17326717 -0.058124688 -0.03585602 -0.12498818 -0.020099387 -0.15990815 -0.2129063 0.08774027
00000000: e6d1 05be b79f 6e3d a019 d13d 7008 e6bd
00000010: 1a3f 1c3e f907 d9bd 6ac0 16be f281 97bd
00000020: 7a96 49bd 77fd 03be 086c 6cbe 3b0d c13d
00000030: 11d6 c7bd 8b69 863d 7ce4 07be 444a 8cbe
00000040: ce90 65be 4b41 52be 4011 77be aba4 41be
00000050: fdb2 96bd 97f5 313d 38d8 c5bd 734a 00be
00000060: f36c 31be 2714 6ebd c3dd 12bd cef9 ffbd
00000070: 78a7 a4bc f6be 23be 1c04 5abe 2cb1 b33d

conv_blocks.0.0.weight f4 [64, 32, 3]
0.003998533 -0.030179016 -0.015330804 0.010134581 0.010028924 -0.0061649606 -0.075381234 -0.06646953
-0.062130924 0.03585483 -0.034147322 -0.026773633 0.09588931 -0.013508429 0.012268265 0.089653976
-0.07655829 0.05726698 -0.012411754 -0.009317498 -0.086174145 -0.023837088 -0.11021672 -0.25021493
0.09178242 -0.050761074 0.030519638 0.0026833871 -0.5873577 0.016667265 -0.08011955 -0.0067997132
0.06170367 -0.042389523 -0.2986207 0.0037229555 0.032737497 0.005770015 -0.10962575 -0.055063218
0.01727744 -0.014582988 -0.21434005 -0.14299977 -0.12225223 0.007754952 -0.40324205 -0.18344904
-0.19813058 -0.22348928 -0.34566578 -0.034485962 0.021224556 -0.014461738 0.1007191 -0.12854522
-0.10200031 -0.07353199 -0.3115313 -0.5215245 0.064188056 0.057075758 -0.08754564 -0.010993318
-0.026588207 -0.046759192 -0.091944225 0.051596656 -0.10949727 0.019404374 -0.39589733 -0.0074703293
-0.012772033 -0.015528991 -0.026964094 -0.1151219 0.065009736 -0.02386928 -0.08277011 -0.21342228
-0.2334628 -0.23787723 -0.18073283 -0.30940875 -0.22058119 0.07958979 0.0362813 0.034211695
-0.0876523 -0.10420036 0.09028427 -0.09675408 -0.011686956 0.15170243 -0.12279679 -0.012511734
0.05460895 -0.08711144 -0.012610874 -0.1355056 0.053206727 0.10549398 -0.13033342 -0.11970608
-0.025961889 -0.25207978 0.07948518 -0.13756165 -0.28137186 -0.05789032 0.020310076 0.019298514
0.000203367 -0.042942546 -0.1207547 -0.018527774 0.04100521 -0.21674886 -0.043419138 -0.10341752
-0.009444824 -0.076478 -0.023856442 0.026936835 0.046538003 0.0031031778 -0.16890825 -0.08731798
0.020852534 0.050878346 0.029432992 -0.043373298 -0.26856455 -0.1347414 -0.054071315 -0.21058214
0.06560397 -0.008658453 -0.19323492 -0.0153539125 0.062105272 0.037770513 -0.0297985 -0.05697206
-0.06462816 -0.028223487 0.027125807 -0.2232171 -0.12977892 0.033131875 0.05468927 -0.09565649
-0.13462676 -0.02375199 0.0021166988 0.045983464 -0.48260888 0.010843045 -0.056519706 0.032165997
-0.0051383907 0.0016233871 -0.16826326 -0.17668979 -0.048284944 -0.27798808 -0.004734142 -0.22585629
-0.28302252 -0.14903715 0.1628306 -0.28390118 -0.0053987377 -0.16623309 -0.0023571716 -0.009184577
0.018894576 -0.13919698 0.088727236 -0.21965815 -0.021620877 0.012537478 -0.012160633 0.010174946
0.06484892 0.020517241 0.018845491 -0.017334038 -0.013002723 0.036046892 -0.0071530333 -0.00654053
-0.14549743 -0.21489005 -0.4635624 -0.37594226 0.18010826 -0.17779148 0.028409528 0.1604727
0.13722995 -0.00295174 0.12694794 0.13520613 0.17500281 -0.18681724 0.10534313 -0.036811415
-0.15829758 0.030282091 -0.11197425 -0.08018422 -0.2683318 0.15788612 0.0037218197 0.21371984
-0.22752084 -0.15657078 -0.16989021 -0.21975422 -0.0653963 -0.07515549 0.05983655 0.15098546
-0.0015447877 0.01863537 0.035381686 0.033858888 0.021879952 0.13583334 -0.13663322 0.06223991
-0.0246268 0.1382456 -0.010806373 -0.060734916 -0.03161201 0.13230191 0.042853806 0.13175936
-0.034409426 -0.13005948 -0.13553105 -0.22644447 -0.036684874 -0.16827041 -0.036496595 -0.030347748
-0.007765702 -0.15057494 0.051349416 -0.2823979 0.025134807 0.105254196 -0.0060047237 -0.22929336
00000000: 2006 833b fc39 f7bc 0d2e 7bbc 830b 263c
00000010: 5b50 243c 7003 cabb 7a61 9abd 2d21 88bd
00000020: ff7c 7ebd 84dc 123d 10de 0bbd 6154 dbbc
00000030: 9d61 c43d 7552 5dbc d500 493c 819c b73d
00000040: 98ca 9cbd c890 6a3d ab5a 4bbc 6ba8 18bc
00000050: 127c b0bd ff45 c3bc 4eb9 e1bd 2c1c 80be
00000060: 6cf8 bb3d d8ea 4fbd 5204 fa3c c4db 2f3b
00000070: 135d 16bf ca89 883c b815 a4bd 21d0 debb
00000080: fdbc 7c3d a3a0 2dbd d0e4 98be d4fc 733b
00000090: c117 063d 6512 bd3b 7783 e0bd f889 61bd
000000a0: 6b89 8d3c 7ced 6ebc f57b 5bbe 886e 12be
000000b0: 615f fabd 411d fe3b be75 cebe 11da 3bbe
000000c0: bee2 4abe 60da 64be 1bfb b0be 2741 0dbd
000000d0: 1fdf ad3c edf0 6cbc d145 ce3d 5ca1 03be
000000e0: 8ae5 d0bd f197 96bd 0881 9fbe a182 05bf
000000f0: 0775 833d 45c8 693d 214b b3bd 511d 34bc
00000100: 83cf d9bc 9186 3fbd 414d bcbd 0457 533d
00000110: 1b40 e0bd ecf5 9e3c 0eb3 cabe aac9 f4bb
00000120: ca41 51bc 4f6d 7ebc cee3 dcbc 08c5 ebbd
00000130: d323 853d 8289 c3bc 6083 a9bd 5f8b 5abe
00000140: df10 6fbe 1796 73be 0712 39be d36a 9ebe
00000150: 09e0 61be f9ff a23d b39b 143d 9021 0c3d
00000160: 0d83 b3bd 0067 d5bd f6e6 b83d 0127 c6bd
00000170: a57a 3fbc e257 1b3e e27c fbbd 04fe 4cbc
00000180: a2ad 5f3d 7c67 b2bd d79d 4ebc fbc1 0abe
00000190: 4cef 593d 3a0d d83d 2076 05be 7628 f5bd
000001a0: 07ae d4bc 9a10 81be 20c9 a23d f6dc 0cbe
000001b0: f90f 90be 661e 6dbd 5161 a63c eb17 9e3c
000001c0: ea3e 5539 86e4 2fbd 3d4e f7bd 8fc7 97bc
000001d0: 14f5 273d 6af3 5dbe 44d8 31bd 91cc d3bd
000001e0: 77be 1abc 7fa0 9cbd 966e c3bc a3aa dc3c
000001f0: a29e 3e3d af5e 4b3b 49f6 2cbe c5d3 b2bd
00000200: efd2 aa3c d065 503d 751d f13c 33a8 31bd
00000210: 4b81 89be a6f9 09be e279 5dbd d8a2 57be
00000220: 605b 863d 2fdc 0dbc 60df 45be fa8e 7bbc
00000230: 1962 7e3d 41b5 1a3d fc1b f4bc 895b 69bd
00000240: c55b 84bd f134 e7bc f136 de3c 0693 64be
00000250: c4e4 04be 4ab5 073d db01 603d 8de7 c3bd
00000260: 99db 09be 8993 c2bc 50b8 0a3b 2859 3c3d
00000270: 8318 f7be 07a7 313c 3581 67bd 7ec0 033d
00000280: f25f a8bb d5c7 d43a 344d 2cbe 2bee 34be
00000290: 6fc6 45bd 7454 8ebe dd20 9bbb df46 67be
000002a0: 54e8 90be 329d 18be 11bd 263e 7f5b 91be
000002b0: e5e7 b0bb 0239 2abe c77a 1abb e87a 16bc
000002c0: ccc8 9a3c a789 0ebe a0b6 b53d 11ee 60be
000002d0: 441e b1bc fe69 4d3c 643d 47bc d1b4 263c
000002e0: 83cf 843d c613 a83c dc61 9a3c 1d00 8ebc
000002f0: 6009 55bc e8a5 133d fe63 eabb f151 d6bb
00000300: 47fd 14be 230c 5cbe 0d58 edbe 817b c0be
00000310: 4d6e 383e f80e 36be 19bb e83c f552 243e
00000320: 0286 0c3e fb71 41bb a4fe 013e 7a73 0a3e
00000330: f033 333e 054d 3fbe 24be d73d 91c7 16bd
00000340: c318 22be 2612 f83c c152 e5bd a037 a4bd
00000350: c962 89be e6ac 213e c6e9 733b 60d9 5a3e
00000360: 39fb 68be 1754 20be b3f7 2dbe 4007 61be
00000370: 7fee 85bd 1feb 99bd 2c17 753d ef9b 1a3e
00000380: 797a caba 34a9 983c 63ec 103d 9eaf 0a3d
00000390: 963d b33c e517 0b3e 94e9 0bbe 47ef 7e3d
000003a0: 25be c9bc 4190 0d3e 370d 31bc 2dc5 78bd
000003b0: 987b 01bd 277a 073e 7987 2f3d edeb 063e
000003c0: e6f0 0cbd 502e 05be a7c8 0abe 0fe1 67be
000003d0: e142 16bd 144f 2cbe 747d 15bd d79b f8bc
000003e0: 6e77 febb 5130 1abe c453 523d 7596 90be
000003f0: 83e7 cd3c 838f d73d 46c3 c4bb e1cb 6abe

conv_blocks.0.0.bias f4 [64]
4.59459e-05 1.5616746e-05 -1.5855934e-05 1.5756805e-05 -8.67915e-05 -5.2024363e-05 -2.9477918e-05 -4.609156e-06
-2.279395e-05 4.0648512e-05 -3.0571032e-06 3.0892905e-05 -3.8190126e-05 -6.640703e-05 1.4485397e-05 -1.7131766e-06
-2.3704139e-05 -2.2499012e-06 6.063705e-05 -4.5465727e-05 -5.985839e-05 2.0165218e-05 -2.0661553e-05 5.3789427e-05
-3.6849662e-05 2.2625932e-06 -3.4771212e-05 1.0002732e-05 -5.1571544e-05 -4.063795e-05 3.9859635e-05 6.594798e-06
4.526031e-05 -6.678129e-05 -2.2708555e-05 4.8211026e-05 -7.611179e-06 6.7869632e-06 -4.7146073e-05 -3.0563537e-05
-2.1392681e-05 -3.2344036e-05 -5.46344e-05 9.775745e-07 3.5325524e-05 3.0197942e-05 3.5274774e-05 8.045881e-05
2.4975338e-05 -1.8359384e-05 1.8148365e-05 2.4160023e-05 -2.9480225e-05 -2.2334747e-05 -3.620257e-05 -0.00012252307
-1.9489797e-05 -9.401092e-06 6.574108e-05 -5.6067354e-05 -5.2443607e-05 -2.0786003e-05 -0.00010890613 -7.649947e-06
00000000: 09b6 4038 b500 8337 5c02 85b7 7b2d 8437
00000010: d503 b6b8 bc34 5ab8 5947 f7b7 59a8 9ab6
00000020: a335 bfb7 027e 2a38 a228 4db6 0193 0138
00000030: 562e 20b8 0144 8bb8 4e06 7337 4df0 e5b5
00000040: 40d8 c6b7 02fd 16b6 8954 7e38 74b2 3eb8
00000050: 7510 7bb8 7a28 a937 5952 adb7 f59b 6138
00000060: 068f 1ab8 0ed7 1736 4ed7 11b8 68d1 2737
00000070: 864e 58b8 ab72 2ab8 f52e 2738 e248 dd36
00000080: e3d5 3d38 ef0c 8cb8 407e beb7 3236 4a38
00000090: 8863 ffb6 92bb e336 b6be 45b8 5931 00b8
000000a0: 6f74 b3b7 25a9 07b8 3e27 65b8 3435 8335
000000b0: 7e2a 1438 9651 fd37 00f4 1338 ffbb a838
000000c0: 2182 d137 7a02 9ab7 513d 9837 41ab ca37
000000d0: 4d4c f7b7 815b bbb7 37d8 17b8 8979 00b9
000000e0: 057e a3b7 62b9 1db7 79de 8938 dd29 6bb8
000000f0: e5f6 5bb8 9a5d aeb7 8964 e4b8 4658 00b7

conv_blocks.0.1.weight f4 [64]
0.63320816 0.5061723 0.52752495 0.5204834 0.55888456 0.3542635 0.41514817 0.2818327
0.6557641 0.3973175 0.33799788 0.57226324 0.28862658 0.35615054 0.3626256 0.38269514
0.7611319 0.25869328 0.5973841 0.3201814 0.5601053 0.38391075 0.52182144 0.6892161
0.67107373 0.44211793 0.54292303 0.40570313 0.6832763 0.48708737 0.46589965 0.38913885
0.70771897 0.47460943 0.58090997 0.4596709 0.33170196 0.52138454 0.35394788 0.41055548
0.45283443 0.5313862 0.4680561 0.55805695 0.50762635 0.62641853 0.599191 0.64081365
0.3223084 0.48183447 0.32738507 0.5215498 0.40898696 0.46904513 0.22508453 0.4203806
0.24183421 0.36187246 0.50797904 0.49432465 0.64179283 0.49242803 0.5581026 0.3200578
00000000: ee19 223f 8294 013f e00b 073f 663e 053f
00000010: 0f13 0f3f 0762 b53e 4d8e d43e 604c 903e
00000020: 28e0 273f 336d cb3e 0f0e ad3e d87f 123f
00000030: ddc6 933e 5d59 b63e 10aa b93e 9ef0 c33e
00000040: 8ad9 423f 7273 843e 2aee 183f d1ee a33e
00000050: 1063 0f3f f38f c43e 1796 053f 7770 303f
00000060: 7dcb 2b3f 485d e23e 01fd 0a3f 52b8 cf3e
00000070: 32eb 2e3f 8463 f93e 668a ee3e 353d c73e
00000080: 122d 353f 0200 f33e 84b6 143f fc59 eb3e
00000090: d7d4 a93e 7579 053f a838 b53e 5434 d23e
000000a0: ead9 e73e ed08 083f 0da5 ef3e d2dc 0e3f
000000b0: cdf3 013f f75c 203f 9564 193f 5d0c 243f
000000c0: 9b05 a53e 02b3 f63e 049f a73e 4a84 053f
000000d0: bd66 d13e af26 f03e 8f7c 663e 203c d73e
000000e0: 63a3 773e 5947 b93e ea0a 023f 1f18 fd3e
000000f0: 894c 243f 871f fc3e d0df 0e3f 9ede a33e

conv_blocks.0.1.bias f4 [64]
-0.4898939 -0.31319255 -0.48279625 -0.54782057 -0.35593334 -0.42768607 -0.64905894 -0.25412545
-0.4534579 -0.37474734 -0.2760407 -0.4113455 -0.22863914 -0.20807973 -0.21168014 -0.25978425
-0.43254763 -0.18448213 -0.29929045 -0.23311451 -0.3774223 -0.42253804 -0.44018006 -0.46341565
-0.39032823 -0.36411583 -0.41387057 -0.49006358 -0.3360411 -0.49584815 -0.45342022 -0.21544506
-0.65227365 -0.44116595 -0.5903247 -0.25992998 -0.2437044 -0.41894874 -0.22785912 -0.42382336
-0.21036318 -0.43514994 -0.44093227 -0.4098329 -0.35364476 -0.47811282 -0.39116493 -0.5515514
-0.21101709 -0.5008281 -0.22125395 -0.4533045 -0.34303796 -0.47185642 -0.17596647 -0.48363984
-0.13664001 -0.3561516 -0.4994268 -0.56513745 -0.51113075 -0.3564528 -0.67079765 -0.2726487
00000000: 60d3 fabe c65a a0be 1231 f7be f83d 0cbf
00000010: e53c b6be abf9 dabe ba28 26bf bb1c 82be
00000020: a22b e8be e2de bfbe 3555 8dbe e19b d2be
00000030: 6120 6abe da12 55be aec2 58be 7102 85be
00000040: e276 ddbe e2e8 3cbe 993c 99be 92b5 6ebe
00000050: 7f3d c1be e856 d8be 485f e1be d144 edbe
00000060: 1ad9 c7be 646d babe d8e6 d3be 9de9 fabe
00000070: 940d acbe cfdf fdbe b226 e8be a19d 5cbe
00000080: 68fb 26bf 81e0 e1be 851f 17bf 8b15 85be
00000090: a58d 79be 7380 d6be e753 69be 60ff d8be
000000a0: 7269 57be f9cb debe e0c1 e1be 9ed5 d1be
000000b0: ed10 b5be 34cb f4be c546 c8be 7932 0dbf
000000c0: dd14 58be 4536 00bf 6590 62be 8717 e8be
000000d0: aca2 afbe 2a97 f1be 8e30 34be a49f f7be
000000e0: 5ceb 0bbe 8159 b6be dfb4 ffbe d9ac 10bf
000000f0: 77d9 02bf fb80 b6be 65b9 2bbf 9c98 8bbe

conv_blocks.0.1.running_mean f4 [64]
-0.17460483 -0.1462922 -0.07981586 -0.10628448 -0.099832915 -0.0015274724 -0.046946168 0.017935256
-0.14811932 -0.036431767 -0.0077729155 -0.09446275 -0.04885086 -0.03396161 -0.10725103 -0.09958094
-0.07996412 -0.010853354 -0.0728991 -0.09121818 -0.1451591 -0.07344144 -0.1310076 -0.14307402
-0.08350039 -0.057302274 -0.06003589 -0.053522658 -0.16397116 -0.105868325 -0.11389495 -0.06407047
-0.12777789 -0.11315553 -0.14483753 -0.095718995 -0.104947716 -0.08746367 -0.08581012 -0.12444315
-0.08834362 -0.1287022 -0.084486574 -0.121418536 -0.08441226 -0.1678693 -0.1074283 -0.15703636
-0.09514839 0.09163691 -0.05576653 -0.092459925 -0.11235004 -0.08922887 -0.05635577 -0.030070223
-0.038619697 -0.078495644 -0.12165799 -0.10273222 -0.14068079 -0.13467267 -0.115554415 -0.05905325
00000000: 9ccb 32be 9fcd 15be 7f76 a3bd adab d9bd
00000010: 3375 ccbd 7835 c8ba a04a 40bd f5ec 923c
00000020: 97ac 17be 7a39 15bd f1b3 febb b075 c1bd
00000030: d717 48bd 541b 0bbd 6ea6 dbbd 18f1 cbbd
00000040: 3bc4 a3bd 44d2 31bc 204c 95bd 99d0 babd
00000050: 96a4 14be 7768 96bd db26 06be ff81 12be
00000060: 4102 abbd cab5 6abd 32e8 75bd 933a 5bbd
00000070: 0ee8 27be 7ed1 d8bd c141 e9bd 6137 83bd
00000080: 35d8 02be 16be e7bd 4a50 14be 5208 c4bd
00000090: d4ee d6bd 2720 b3bd 37bd afbd 0ddc febd
000000a0: 80ed b4bd 82ca 03be 4c07 adbd 48aa f8bd
000000b0: 56e0 acbd eee5 2bbe 5e03 dcbd 24ce 20be
000000c0: 29dd c2bd 22ac bb3d 726b 64bd a15b bdbd
000000d0: c717 e6bd a0bd b6bd 4fd5 66bd d455 f6bc
000000e0: b02f 1ebd 53c2 a0bd d327 f9bd 4565 d2bd
000000f0: a00e 10be a2e7 09be cba7 ecbd d2e1 71bd

conv_blocks.0.1.running_var f4 [64]
0.02065034 0.016164137 0.023784466 0.018675596 0.01272477 0.016018987 0.0140626 0.011226943
0.030636322 0.00984359 0.016964752 0.027898464 0.014011967 0.009993926 0.016922029 0.016698783
0.016112575 0.009960056 0.026372405 0.018053016 0.013686466 0.01424699 0.015393642 0.02907994
0.018417813 0.014898886 0.018160896 0.01215487 0.039081097 0.013315366 0.013636146 0.012407692
0.014059019 0.018450625 0.015119222 0.011087562 0.014500684 0.016803361 0.013616089 0.012501673
0.012480033 0.016671432 0.013999622 0.011896608 0.015842998 0.018640347 0.012905141 0.019468868
0.014191221 0.020242231 0.0145154325 0.014952394 0.0226092 0.0157032 0.01083499 0.01349338
0.010151348 0.016571775 0.013213529 0.016372468 0.034043245 0.022322891 0.017250894 0.013519746
00000000: e72a a93c a76a 843c a4d7 c23c 90fd 983c
00000010: 8e7b 503c 403a 833c d266 663c 36f1 373c
00000020: 06f9 fa3c 0247 213c aaf9 8a3c 528b e43c
00000030: 7392 653c 90bd 233c 11a0 8a3c e3cb 883c
00000040: 85fe 833c 812f 233c f10a d83c ebe3 933c
00000050: 333d 603c 356c 693c 9d35 7c3c 0e39 ee3c
00000060: f4e0 963c 751a 743c 29c6 943c 3825 473c
00000070: 8013 203d b128 5a3c 246a 5f3c a249 4b3c
00000080: cd57 663c c425 973c 9db6 773c 9ba8 353c
00000090: 4794 6d3c 34a7 893c 0416 5f3c d1d3 4c3c
000000a0: 0d79 4c3c 8792 883c ac5e 653c fee9 423c
000000b0: 2dc9 813c a4b3 983c 1670 533c 2d7d 9f3c
000000c0: 4c82 683c 09d3 a53c 23d2 6d3c e3fa 743c
000000d0: ee36 b93c ffa3 803c 3e85 313c 5613 5d3c
000000e0: d751 263c 88c1 873c 8f7d 583c 8e1f 863c
000000f0: ee70 0b3d 7fde b63c bf51 8d3c ed81 5d3c

conv_blocks.0.4.weight f4 [64, 64, 3]
0.0039439187 0.0058086165 -0.021636888 -0.114690505 0.030863618 -0.06679535 0.0801982 0.22763613
-0.01955865 0.07860863 -0.095844604 -0.1331362 0.032910172 -0.06284057 0.04847443 -0.014818661
-0.18002445 0.008744497 -0.07342896 -0.10828113 -0.0070891883 -0.1829932 -0.20267361 0.0229757
-0.097918056 -0.04090911 0.07700858 -0.053967755 0.07160782 -0.03585808 -0.10034756 -0.12426407
-0.11636656 -0.052299075 0.17345162 0.112110876 -0.07740707 -0.11938576 -0.015756043 -0.022125103
-0.022330152 -0.07262211 -0.10538062 -0.2022807 0.078813866 -0.10063395 0.22084674 0.08133296
-0.059270326 0.185929 -0.012742141 -0.0954661 0.038962893 -0.07769171 0.0014712339 -0.08060102
-0.09056676 -0.061826874 -0.06392671 0.009967634 0.018151376 0.111665 -0.04594474 0.0061168647
0.09699961 -0.07303414 0.04825843 0.08140793 -0.11064943 0.04874992 -0.12708275 -0.07653387
-0.008973225 0.19371808 -0.037420463 -0.06201128 -0.016575651 -0.025841888 -0.0709616 -0.10494362
-0.030682685 0.00012723797 -0.038525805 -0.08321192 0.12767176 -0.043380488 0.0066289054 0.01246537
0.114198476 0.081201404 -0.008440532 0.2377976 -0.016140692 -0.073556915 0.14844178 0.0058891936
-0.045883168 -0.06976247 -0.027149763 0.0012894127 -0.0936254 -0.06511331 0.16565058 0.22446044
-0.0047534807 -0.062581204 0.08322402 -0.0015876952 -0.019200033 -0.037424024 -0.05564974 0.0064708376
0.1452001 0.091698185 0.037306484 -0.098652445 -0.14514123 0.12824091 -0.08478467 -0.07582517
-0.0674685 0.015475581 -0.13126893 0.18841144 -0.032126814 -0.006593981 -0.014602213 0.02776782
-0.07889674 -0.010663323 0.040601566 0.022880953 -0.12416846 0.1115486 0.060985588 -0.0030242198
-0.09613774 -0.02130579 -0.03339952 -0.027710544 0.065434024 -0.08697725 0.015436861 -0.12859835
-0.014157326 -0.042440347 -0.12576501 -0.056860954 -0.043556012 0.17645925 0.09443283 0.19979224
-0.0917386 0.04813067 0.06927998 -0.022466827 0.03694877 -0.1194205 -0.12766995 0.16838348
-0.06672997 0.096542075 0.03137015 -0.015423894 0.027101047 0.15255694 0.14331692 0.028682567
-0.11068845 0.0032044544 -0.0637084 -0.08551979 -0.12500349 0.049186777 -0.11732654 -0.023143841
-0.15173166 -0.062060993 0.022341842 -0.07149321 -0.018613905 -0.08344614 -0.0010112686 -0.105872475
-0.017061379 -0.0039850576 -0.10031825 -0.029892862 0.032674674 -0.038113117 0.008270516 -0.055940114
-0.017818322 0.3085299 -0.049136665 0.08109575 -0.13797298 0.020698648 -0.1007451 -0.10764945
-0.13735676 -0.09713849 0.19922186 -0.005103584 -0.011495935 -0.04633322 0.011522793 -0.067779034
-0.07218745 1.2039525e-05 0.008560504 0.23387215 0.09837773 0.041257937 -0.13857557 -0.069067515
-0.09114194 -0.09761989 -0.12604953 -0.08132171 -0.025444059 0.006243232 -0.052682254 0.013415087
-0.10694232 -0.04587153 -0.06840603 -0.07249 -0.10157843 0.008395794 0.037869625 -0.17767903
-0.12519695 0.017622393 -0.08101937 -0.09478907 -0.20171103 -0.035474904 -0.017689286 -0.037632793
-0.0325328 -0.037778296 0.01846194 -0.005092591 -0.09620205 -0.02070418 0.070857234 0.1848343
0.029715255 0.002961753 -0.08980075 -0.13416414 -0.025703728 -0.095458925 -0.06897928 -0.11276683
00000000: fd3b 813b 3556 be3b d83f b1bc dbe2 eabd
00000010: b3d5 fc3c 00cc 88bd f43e a43d 7219 693e
00000020: 7639 a0bc 90fd a03d 2d4a c4bd db54 08be
00000030: d1cc 063d 8fb2 80bd 208d 463d f8c9 72bc
00000040: 5458 38be 1445 0f3c ec61 96bd 7fc2 ddbd
00000050: 6c4c e8bb 9262 3bbe ac89 4fbe 8937 bc3c
00000060: 4389 c8bd 5090 27bd adb6 9d3d 4b0d 5dbd
00000070: 1fa7 923d ecdf 12bd 0683 cdbd 297e febd
00000080: 9751 eebd 8e37 56bd 4d9d 313e 639a e53d
00000090: 9987 9ebd 8580 f4bd d112 81bc b43f b5bc
000000a0: b9ed b6bc e7ba 94bd cbd1 d7bd ac22 4fbe
000000b0: 2a69 a13d 2c19 cebd a625 623e e591 a63d
000000c0: 71c5 72bd 2c64 3e3e 6ac4 50bc bb83 c3bd
000000d0: 8e97 1f3d d51c 9fbd 6bd6 c03a 2612 a5bd
000000e0: 117b b9bd 2d3e 7dbd 02ec 82bd 4a4f 233c
000000f0: 32b2 943c 9fb0 e43d 8d30 3cbd fb6f c83b
00000100: bba7 c63d ec92 95bd a2aa 453d 33b9 a63d
00000110: 2b9c e2bd ffad 473d fb21 02be cabd 9cbd
00000120: 6f04 13bc 085e 463e 3346 19bd 8aff 7dbd
00000130: a9c9 87bc 5eb2 d3bc 5154 91bd aeec d6bd
00000140: 415a fbbc 2f6b 0539 3ccd 1dbd 036b aabd
00000150: 63bc 023e bdaf 31bd 4a37 d93b 8d3b 4c3c
00000160: e4e0 e93d ec4c a63d 284a 0abc 3781 733e
00000170: 7c39 84bc 02a5 96bd 1f01 183e 23fa c03b
00000180: fdef 3bbd a0df 8ebd 2e69 debc 8301 a93a
00000190: acbe bfbd 215a 85bd 4ea0 293e f5d8 653e
000001a0: 16c3 9bbb 932a 80bd 5b71 aa3d 361a d0ba
000001b0: 6349 9dbc ef49 19bd fbf0 63bd 5209 d43b
000001c0: 56af 143e 42cc bb3d afce 183d 4b0a cabd
000001d0: e79f 14be 9651 033e 96a3 adbd 3a4a 9bbd
000001e0: ed2c 8abd 4b8d 7d3c 5d6b 06be eeee 403e
000001f0: 6897 03bd 5212 d8bb 1f3e 6fbc 5779 e33c
00000200: 9d94 a1bd 38b5 2ebc d44d 263d d670 bb3c
00000210: 094c febd 9873 e43d 06cc 793d fd31 46bb
00000220: dde3 c4bd 7b89 aebc efcd 08bd 3901 e3bc
00000230: 4602 863d 2121 b2bd e3ea 7c3c 49af 03be
00000240: 21f4 67bc eed5 2dbd 8bc8 00be 08e7 68bd
00000250: ca67 32bd bcb1 343e 0066 c13d 5696 4c3e
00000260: 72e1 bbbd aa24 453d aae2 8d3d 5a0c b8bc
00000270: 9857 173d bc92 f4bd e9bb 02be b86c 2c3e
00000280: b9a9 88bd dab7 c53d fd7d 003d 80b4 7cbc
00000290: 0403 de3c e337 1c3e acc1 123e b4f7 ea3c
000002a0: a0b0 e2bd d301 523b 8d79 82bd 0025 afbd
000002b0: ea00 00be 1378 493d e648 f0bd 2798 bdbc
000002c0: 8b5f 1bbe ab33 7ebd 3d06 b73c 086b 92bd
000002d0: 307c 98bc cfe5 aabd 8b8c 84ba abd3 d8bd
000002e0: 4ec4 8bbc 1695 82bb a873 cdbd e0e1 f4bc
000002f0: e1d5 053d 801c 1cbd 0f81 073c 7621 65bd
00000300: bbf7 91bc a2f7 9d3e 8743 49bd 8715 a63d
00000310: ca48 0dbe 3690 a93c 7253 cebd 5177 dcbd
00000320: 40a7 0cbe 8bf0 c6bd d100 4c3e f73b a7bb
00000330: 7259 3cbc e7c7 3dbd 19ca 3c3c bccf 8abd
00000340: 04d7 93bd 5efd 4937 5b41 0c3c 2e7c 6f3e
00000350: 437a c93d 15fe 283d c1e6 0dbe 4573 8dbd
00000360: a0a8 babd f0ec c7bd 2113 01be ff8b a6bd
00000370: 0f70 d0bc 0794 cc3b 59c9 57bd f4ca 5b3c
00000380: 9304 dbbd c9e3 3bbd 7618 8cbd a375 94bd
00000390: 5a08 d0bd 838e 093c 2e1d 1b3d 7ef1 35be
000003a0: a133 00be d65c 903c 7ced a5bd c620 c2bd
000003b0: 568d 4ebe 224e 11bd 1fe9 90bc d824 1abd
000003c0: 1d41 05bd 6abd 1abd 7f3d 973c c0df a6bb
000003d0: 9505 c5bd d09b a9bc 991d 913d 3445 3d3e
000003e0: 686d f33c f819 423b 75e9 b7bd 5362 09be
000003f0: a090 d2bc f87f c3bd 0245 8dbd 4cf2 e6bd

conv_blocks.0.4.bias f4 [64]
-5.442375e-06 -3.708013e-05 4.2481894e-05 -2.0861897e-05 2.367078e-05 -2.907959e-05 -1.2791179e-05 6.228615e-06
-2.295091e-06 6.778488e-06 -2.1378668e-05 3.0077657e-05 -1.3911235e-05 1.7873455e-05 5.843732e-06 -1.1259703e-05
5.4235676e-07 9.21857e-06 8.331757e-06 6.5774284e-06 -9.719441e-06 -1.7429074e-05 -1.4517615e-05 -1.676364e-05
-1.702145e-06 1.6846963e-05 5.002784e-07 -3.0293636e-06 -1.3903288e-05 -4.2498843e-05 6.4500678e-06 -1.2581524e-05
-3.8840253e-06 -8.121148e-06 3.1373156e-06 -3.79798e-06 -1.579057e-05 -8.393164e-06 -8.276835e-06 -5.5234723e-06
6.205514e-06 5.729132e-05 -3.4257722e-05 5.648912e-07 -6.829454e-06 -8.661055e-06 -1.1478545e-05 5.5751416e-06
-1.7826249e-05 -3.8988564e-05 -3.600626e-05 1.7273302e-05 5.311982e-06 -5.5452656e-06 7.5699865e-07 -4.2732998e-05
8.565411e-06 -9.357402e-06 -1.2537923e-05 3.1421062e-06 -1.568013e-05 -2.6009133e-05 -3.5239984e-05 1.4555495e-05
00000000: a59d b6b6 7d86 1bb8 962e 3238 9500 afb7
00000010: 9d90 c637 f2ef f3b7 b299 56b7 65ff d036
00000020: 5d05 1ab6 c572 e336 5756 b3b7 474f fc37
00000030: 4d64 69b7 f4ee 9537 4715 c436 0ee8 3cb7
00000040: 7996 1135 75a9 1a37 a0c8 0b37 aeb3 dc36
00000050: ae10 23b7 a734 92b7 af90 73b7 a59f 8cb7
00000060: 4275 e4b5 9452 8d37 df4a 0635 124c 4bb6
00000070: 2b42 69b7 c940 32b8 a96d d836 3c15 53b7
00000080: 8653 82b6 1140 08b7 ac8a 5236 cde0 7eb6
00000090: fe75 84b7 5dd0 0cb7 bcdc 0ab7 4456 b9b6
000000a0: f638 d036 164c 7038 f3af 0fb8 07a3 1735
000000b0: 9028 e5b6 f34e 11b7 fa93 40b7 1a12 bb36
000000c0: 9489 95b7 a787 23b8 6d05 17b8 22e6 9037
000000d0: 943d b236 7811 bab6 8d34 4b35 353c 33b8
000000e0: 29b4 0f37 bcfd 1cb7 f859 52b7 f9dc 5236
000000f0: d388 83b7 302e dab7 a5ce 13b8 6033 7437

conv_blocks.0.5.weight f4 [64]
0.42536736 0.49926138 0.515041 0.30342087 0.47727776 0.47279528 0.59804994 0.4852222
0.5094981 0.42029625 0.40923756 0.4273392 0.8043074 0.43756568 0.5272238 0.5409432
0.53126264 0.6942179 0.6568294 0.7922701 0.30650863 0.6844969 0.57919514 0.700265
0.41184464 0.7146695 0.48651677 0.6433058 0.394272 0.57745653 0.45220912 0.562471
0.59792894 0.8113362 0.4621286 0.41963348 0.5341551 0.40282142 0.63216007 0.5229063
0.45193994 0.42442364 0.5670816 0.3999929 0.40009665 0.47660932 0.34047258 0.5353288
0.6394388 0.5129354 0.5876852 0.48486608 0.8284369 0.45710903 0.46422446 0.49638894
0.3743353 0.4302839 0.4617723 0.5528234 0.5171489 0.45565882 0.515163 0.79607874
00000000: c0c9 d93e 309f ff3e bad9 033f fb59 9b3e
00000010: c05d f43e 3912 f23e cd19 193f 0b6f f83e
00000020: 786e 023f 1231 d73e 9687 d13e 34cc da3e
00000030: 17e7 4d3f 9c08 e03e 24f8 063f 417b 0a3f
00000040: d400 083f 44b8 313f f925 283f 37d2 4a3f
00000050: b3ee 9c3e 303b 2f3f 2246 143f 9144 333f
00000060: 4ddd d23e 95f4 363f ba18 f93e b0af 243f
00000070: 05de c93e 31d4 133f f487 e73e 19fe 0f3f
00000080: df11 193f bbb3 4f3f 1f9c ec3e 33da d63e
00000090: 63be 083f 9c3e ce3e 3ed5 213f 30dd 053f
000000a0: ac64 e73e 0e4e d93e 422c 113f dfcb cc3e
000000b0: 78d9 cc3e 2306 f43e 6c52 ae3e 4f0b 093f
000000c0: 43b2 233f bc4f 033f 8a72 163f 5e40 f83e
000000d0: 7114 543f 320a ea3e d4ae ed3e b126 fe3e
000000e0: e0a8 bf3e 2c4e dc3e 6b6d ec3e d685 0d3f
000000f0: df63 043f 1d4c e93e b9e1 033f d1cb 4b3f

conv_blocks.0.5.bias f4 [64]
-0.25978896 -0.22455166 -0.23092481 -0.24002872 -0.31242317 -0.34020776 -0.35203195 -0.33151892
-0.21581967 -0.24834675 -0.24833876 -0.2564146 -0.14616172 -0.16629246 -0.17236441 -0.37284747
-0.31515643 -0.2980946 -0.06822191 -0.053661432 -0.17306884 -0.5042692 -0.24887945 -0.28399357
-0.26624888 -0.67156804 -0.31384277 -0.13692407 -0.30574447 -0.2716906 -0.26075906 -0.30844468
-0.2272902 -0.017439922 -0.36099207 -0.27138725 -0.2066323 -0.21630272 -0.30707562 -0.22394082
-0.33553526 -0.28098172 -0.2175505 -0.3431749 -0.2959096 -0.28491983 -0.308709 -0.081575364
-0.34382892 -0.3790377 -0.48443466 -0.28371114 0.051027928 -0.3764223 -0.25109613 -0.3799453
-0.14566322 -0.40893435 -0.0952506 -0.2069468 -0.3712799 -0.22452751 -0.23366576 -0.026830101
00000000: 0f03 85be dff0 65be 8e77 6cbe 17ca 75be
00000010: eef5 9fbe b62f aebe 883d b4be d9bc a9be
00000020: d5ff 5cbe 9c4e 7ebe 844c 7ebe c648 83be
00000030: 6bab 15be 9248 2abe 4c80 30be dde5 bebe
00000040: 2f5c a1be db9f 98be eeb7 8bbd 17cc 5bbd
00000050: f538 31be c917 01bf 41da 7ebe 9b67 91be
00000060: c651 88be e2eb 2bbf 00b0 a0be d335 0cbe
00000070: 8a8a 9cbe 081b 8bbe 3682 85be 76ec 9dbe
00000080: c3be 68be 2bde 8ebc f4d3 b8be 45f3 8abe
00000090: 6b97 53be 767e 5dbe 0439 9dbe be50 65be
000000a0: 47cb abbe d6dc 8fbe 8fc5 5ebe 9fb4 afbe
000000b0: 7781 97be 03e1 91be 1b0f 9ebe fc10 a7bd
000000c0: 580a b0be 3b11 c2be d207 f8be 9642 91be
000000d0: a902 513d 6cba c0be ac8f 80be 3188 c2be
000000e0: bd28 15be d85f d1be bf12 c3bd dde9 53be
000000f0: 6618 bebe 8aea 65be 1446 6fbe cdca dbbc

conv_blocks.0.5.running_mean f4 [64]
-0.061235957 -0.15434228 -0.15274729 -0.077145524 0.0036876728 -0.13424121 -0.15029545 -0.07488512
-0.12856585 -0.08307633 0.2020729 -0.10508182 0.15089065 -0.09130017 -0.12566903 -0.13162555
-0.05237025 -0.07604576 0.04172516 0.09197951 0.06732167 0.0017696809 -0.09656749 -0.15632857
0.12161229 -0.1795148 -0.15870255 -0.014520784 -0.11784927 -0.054502893 -0.09986156 -0.20934844
-0.041509494 0.10620489 -0.13216709 0.17511797 -0.0058052167 -0.043641835 -0.1934775 -0.076835826
-0.10292768 -0.103264965 -0.17169356 -0.120826356 -0.07027187 -0.06402848 -0.078627266 0.037227463
-0.16746874 -0.18666261 -0.12162217 -0.069834605 0.11907026 -0.08184538 -0.05065696 -0.19601902
-0.018156853 -0.05057435 0.08528732 -0.018118612 -0.048084326 -0.13482374 -0.14264898 0.037295848
00000000: 8ed2 7abd e70b 1ebe c969 1cbe 79fe 9dbd
00000010: e2ac 713b 8776 09be 0de7 19be 5f5d 99bd
00000020: c4a6 03be ec23 aabd 33ec 4e3e 2335 d7bd
00000030: 1483 1a3e 95fb babd 62af 00be d9c8 06be
00000040: 3082 56bd e1bd 9bbd 00e8 2a3d c15f bc3d
00000050: f2df 893d a3f4 e73a 2dc5 c5bd 9914 20be
00000060: dd0f f93d bad2 37be ec82 22be 95e8 6dbc
00000070: f55a f1bd 6d3e 5fbd 3884 ccbd 705f 56be
00000080: dc05 2abd f381 d93d cf56 07be 2052 333e
00000090: b039 bebb c8c1 32bd f71e 46be 1a5c 9dbd
000000a0: bfcb d2bd 957c d3bd 70d0 2fbe cf73 f7bd
000000b0: b3ea 8fbd 5d21 83bd 5507 a1bd d37b 183d
000000c0: ed7c 2bbe 7c24 3fbe 0b15 f9bd 7205 8fbd
000000d0: 1cdb f33d 8d9e a7bd ac7d 4fbd 36b9 48be
000000e0: aebd 94bc 0d27 4fbd 1eab ae3d 7c6d 94bc
000000f0: 12f4 44bd 3c0f 0abe 9312 12be 88c3 183d

conv_blocks.0.5.running_var f4 [64]
0.03218351 0.033394914 0.026697632 0.016754754 0.019951224 0.026810369 0.030324198 0.023281734
0.02884958 0.01902138 0.03628856 0.024853999 0.028959263 0.029142227 0.02026767 0.030410875
0.02822954 0.029668504 0.023781369 0.024458708 0.017115336 0.019577892 0.02494331 0.035276823
0.028439764 0.04048152 0.016329966 0.037893552 0.020844799 0.03250293 0.027254244 0.02163244
0.03637088 0.024396872 0.028570578 0.032068774 0.023224236 0.020890886 0.030013679 0.031518664
0.02962709 0.025257098 0.022108046 0.022082299 0.023558084 0.030720262 0.012639921 0.028730951
0.033387564 0.016986525 0.042281915 0.026483778 0.027515316 0.03204029 0.028390251 0.026381174
0.022918455 0.022191076 0.018771611 0.032280814 0.029375734 0.03153066 0.026001394 0.041278217
00000000: dbd2 033d 1bc9 083d feb4 da3c 4441 893c
00000010: c070 a33c 6ba1 db3c 746a f83c 56b9 be3c
00000020: f455 ec3c bad2 9b3c 50a3 143d 9d9a cb3c
00000030: fa3b ed3c aebb ee3c 6208 a63c 3a20 f93c
00000040: a341 e73c 5d0b f33c 25d1 c23c a15d c83c
00000050: 7635 8c3c d161 a03c ea55 cc3c 6e7e 103d
00000060: 82fa e83c f3cf 253d 6cc6 853c 4536 1b3d
00000070: b6c2 aa3c cb21 053d 4b44 df3c 8436 b13c
00000080: a2f9 143d f3db c73c d80c ea3c 8c5a 033d
00000090: c140 be3c 5d23 ab3c 3fdf f53c b719 013d
000000a0: 83b4 f23c f9e7 ce3c ef1b b53c f0e5 b43c
000000b0: e2fc c03c 0fa9 fb3c ac17 4f3c 2c5d eb3c
000000c0: 66c1 083d 5327 8b3c cd2f 2d3d 82f4 d83c
000000d0: cd67 e13c ae3c 033d ac92 e83c 551d d83c
000000e0: 7cbf bb3c 0fca b53c ecc6 993c e338 043d
000000f0: 61a5 f03c 4b26 013d e000 d53c 5913 293d
