emulation/models/checkpoint/cnn/best_TextCNN2_iscxvpn.pth (torch, 155601 bytes, 28 tensors)

len_embedding.weight f4 [1501, 10]
000000 42 5a 05 00 ea 73 05 80 01 5e 05 80 6c 5a 05 00
       4.91556e-40 -5.0076e-40 -4.929e-40 4.91615e-40
000010 ab 60 05 00 60 58 05 00 16 58 05 80 45 5d 05 80
       4.93855e-40 4.9088e-40 -4.90777e-40 -4.92636e-40
000020 e4 57 05 00 fa 5d 05 80 e5 67 05 80 71 59 05 00
       4.90707e-40 -4.9289e-40 -4.96448e-40 4.91263e-40
000030 91 58 05 80 1d 5a 05 00 71 61 05 00 a0 5f 05 00
       -4.90949e-40 4.91504e-40 4.94133e-40 4.93481e-40
000040 51 58 05 80 74 59 05 00 16 59 05 80 8b 63 05 80
       -4.9086e-40 4.91267e-40 -4.91135e-40 -4.94887e-40
000050 00 6c 05 00 e5 59 05 00 bb 5b 05 80 ad 58 05 00
       4.9792e-40 4.91426e-40 -4.92084e-40 4.90988e-40
000060 7f 5c 05 00 c6 5c 05 80 8b 5a 05 80 74 5d 05 00
       4.92359e-40 -4.92458e-40 -4.91658e-40 4.92702e-40
000070 67 5e 05 00 c5 60 05 00 e9 60 05 80 f8 58 05 80
       4.93043e-40 4.93892e-40 -4.93942e-40 -4.91093e-40
000080 89 63 05 00 a5 5e 05 00 97 5c 05 80 43 63 05 00
       4.94884e-40 4.9313e-40 -4.92392e-40 4.94786e-40
000090 3d 65 05 80 24 5f 05 00 fd 60 05 00 22 60 05 80
       -4.95495e-40 4.93308e-40 4.9397e-40 -4.93663e-40
0000a0 ce 5a 05 00 74 59 05 80 62 59 05 00 7b 5a 05 00
       4.91752e-40 -4.91267e-40 4.91242e-40 4.91636e-40
0000b0 c8 5d 05 80 87 5c 05 00 e8 6a 05 80 dd 57 05 80
       -4.9282e-40 4.9237e-40 -4.97528e-40 -4.90697e-40
0000c0 b1 5d 05 00 64 57 05 80 a4 5c 05 80 00 8a 05 00
       4.92788e-40 -4.90527e-40 -4.9241e-40 5.08683e-40
0000d0 4d 58 05 00 74 5a 05 00 4a 65 05 00 65 5e 05 00
       4.90854e-40 4.91626e-40 4.95513e-40 4.9304e-40
0000e0 4c 5f 05 80 1b 5d 05 00 05 6a 05 80 4b 63 05 00
       -4.93364e-40 4.92577e-40 -4.9721e-40 4.94797e-40
0000f0 2a 11 06 80 e5 62 05 00 8d 58 05 80 fe 57 05 80
       -5.5717e-40 4.94654e-40 -4.90944e-40 -4.90743e-40
000100 2b 5b 05 00 ee 59 05 80 30 62 05 00 ac 62 05 80
       4.91882e-40 -4.91438e-40 4.944e-40 -4.94574e-40
000110 d6 5d 05 00 01 d6 06 00 5d 5f 05 80 30 5d 05 80
       4.9284e-40 6.27783e-40 -4.93387e-40 -4.92607e-40
000120 92 64 05 00 b9 60 05 80 ae 5f 05 00 05 63 05 80
       4.95255e-40 -4.93875e-40 4.93501e-40 -4.94699e-40
000130 99 6a 05 00 3c 5c 05 80 c7 67 05 00 ad 62 05 80
       4.97418e-40 -4.92265e-40 4.96406e-40 -4.94576e-40
000140 96 63 05 00 48 5d 06 80 ed 5c 05 00 f0 5b 05 80
       4.94902e-40 -5.84476e-40 4.92513e-40 -4.92158e-40
000150 fd 57 05 00 14 7a 05 80 94 58 05 80 5c 69 05 80
       4.90742e-40 -5.02971e-40 -4.90953e-40 -4.96973e-40
000160 a1 59 05 80 1d 60 05 80 ce 5c 05 00 1c 66 05 80
       -4.9133e-40 -4.93656e-40 4.9247e-40 -4.95807e-40
000170 35 61 06 80 2b 5b 05 00 d9 66 05 80 86 5c 05 80
       -5.85884e-40 4.91882e-40 -4.96072e-40 -4.92369e-40
000180 d0 68 05 80 f1 81 05 80 83 59 05 80 b3 5e 05 00
       -4.96777e-40 -5.05792e-40 -4.91288e-40 4.93149e-40
000190 24 63 05 00 04 5f 05 00 42 5b 05 80 0f 67 05 80
       4.94742e-40 4.93263e-40 -4.91915e-40 -4.96148e-40
0001a0 ac 59 05 00 d1 62 05 80 08 63 05 00 80 67 05 00
       4.91346e-40 -4.94626e-40 4.94703e-40 4.96306e-40
0001b0 17 61 05 80 f1 5f 05 00 a7 60 05 00 c9 64 05 00
       -4.94007e-40 4.93595e-40 4.9385e-40 4.95332e-40
0001c0 7f 59 05 80 c7 60 05 00 cb 64 05 00 15 01 06 80
       -4.91283e-40 4.93895e-40 4.95335e-40 -5.51401e-40
0001d0 ce 57 05 00 4c 5c 05 00 30 5e 05 80 6c aa 05 00
       4.90676e-40 4.92287e-40 -4.92966e-40 5.20313e-40
0001e0 f3 5a 05 80 36 62 05 80 ce 62 05 80 dc 5a 05 00
       -4.91804e-40 -4.94409e-40 -4.94622e-40 4.91772e-40
0001f0 37 5a 05 00 52 64 05 80 d4 67 05 00 2a 5a 05 00
       4.9154e-40 -4.95166e-40 4.96424e-40 4.91522e-40
000200 c9 57 05 00 39 59 05 00 70 67 05 80 ac 62 05 00
       4.90669e-40 4.91185e-40 -4.96284e-40 4.94574e-40
000210 21 63 05 80 c1 60 05 00 a2 60 05 00 af 58 05 80
       -4.94738e-40 4.93886e-40 4.93843e-40 -4.90991e-40
000220 59 5b 05 80 cc 5f 05 00 0e 65 05 80 f5 5d 05 80
       -4.91947e-40 4.93543e-40 -4.95429e-40 -4.92883e-40
000230 f0 5c 05 80 4b 64 06 80 83 62 05 00 08 5d 05 80
       -4.92517e-40 -5.86991e-40 4.94517e-40 -4.92551e-40
000240 58 77 05 80 ef 78 05 80 7f 58 05 80 58 63 05 00
       -5.0199e-40 -5.0256e-40 -4.90924e-40 4.94815e-40
000250 99 60 05 00 88 61 06 00 c9 30 06 80 b3 60 05 00
       4.9383e-40 5.86e-40 -5.68514e-40 4.93867e-40
000260 3c 5a 05 80 5c 5b 05 80 a1 5a 05 80 1e 59 05 00
       -4.91547e-40 -4.91951e-40 -4.91689e-40 4.91147e-40
000270 36 5f 05 00 5a 7f 05 00 64 5d 05 80 5f bb 05 80
       4.93333e-40 5.04863e-40 -4.9268e-40 -5.26394e-40
000280 54 62 05 80 12 59 05 00 50 91 05 80 d3 58 05 00
       -4.94451e-40 4.9113e-40 -5.11306e-40 4.91042e-40
000290 84 60 05 80 b9 5f 05 80 e2 61 05 80 fb 63 06 00
       -4.93801e-40 -4.93516e-40 -4.94291e-40 5.86879e-40
0002a0 6a 7c 05 00 6b 57 05 00 87 66 05 80 fd 5f 05 80
       5.03809e-40 4.90537e-40 -4.95957e-40 -4.93612e-40
0002b0 5d 65 05 00 ff 5b 05 80 d6 5f 05 00 5a 61 05 00
       4.9554e-40 -4.9218e-40 4.93557e-40 4.941e-40
0002c0 86 5e 05 00 35 5a 05 00 ba 6b 05 00 3a 63 05 00
       4.93086e-40 4.91538e-40 4.97822e-40 4.94773e-40
0002d0 ef 5b 05 80 51 66 05 00 b0 63 05 00 20 65 05 80
       -4.92157e-40 4.95882e-40 4.94939e-40 -4.95454e-40
0002e0 27 60 05 00 aa 5a 05 80 7b 62 05 00 93 64 05 00
       4.9367e-40 -4.91702e-40 4.94506e-40 4.95257e-40
0002f0 cf 40 06 00 c8 58 05 00 03 5b 05 00 c0 62 05 80
       5.74262e-40 4.91026e-40 4.91826e-40 -4.94602e-40
000300 09 63 05 00 e4 5f 05 80 6f 5e 05 80 f7 62 05 80
       4.94705e-40 -4.93577e-40 -4.93054e-40 -4.9468e-40
000310 c6 60 05 00 f2 5d 05 80 2f 60 05 80 eb 66 05 80
       4.93893e-40 -4.92879e-40 -4.93682e-40 -4.96097e-40
000320 cd 61 05 80 88 58 05 00 9b 66 05 00 58 de 05 80
       -4.94262e-40 4.90937e-40 4.95985e-40 -5.3894e-40
000330 3d 63 05 80 45 59 05 00 cc 8b 05 00 e8 63 05 80
       -4.94777e-40 4.91201e-40 5.09327e-40 -4.95017e-40
000340 6d 7d 05 00 29 6d 05 00 b8 0c 06 00 ab 60 05 80
       5.04172e-40 4.98337e-40 5.55576e-40 -4.93855e-40
000350 bc 61 05 00 78 76 05 80 43 60 05 80 82 66 05 00
       4.94238e-40 -5.01676e-40 -4.9371e-40 4.9595e-40
000360 c1 58 05 80 c2 58 05 80 83 65 05 80 e1 64 05 00
       -4.91016e-40 -4.91018e-40 -4.95593e-40 4.95366e-40
000370 d6 66 05 00 23 5f 05 00 19 5f 05 80 af 59 05 80
       4.96068e-40 4.93306e-40 -4.93292e-40 -4.9135e-40
000380 fc 5b 05 00 f0 62 05 80 cd 61 05 80 de 5a 05 00
       4.92175e-40 -4.9467e-40 -4.94262e-40 4.91774e-40
000390 6b 5d 05 80 95 a7 05 80 d0 64 05 00 42 f6 05 80
       -4.9269e-40 -5.19295e-40 4.95342e-40 -5.47518e-40
0003a0 2c 65 05 00 9b 90 05 80 e4 b8 06 80 3e 5d 05 00
       4.95471e-40 -5.11052e-40 -6.17339e-40 4.92626e-40
0003b0 9d 60 05 80 01 58 06 00 bd 5f 05 80 f0 61 05 00
       -4.93836e-40 5.82583e-40 -4.93522e-40 4.94311e-40
0003c0 72 5a 05 80 cc 63 05 80 79 60 05 00 9a 5e 05 00
       -4.91623e-40 -4.94978e-40 4.93785e-40 4.93114e-40
0003d0 83 59 05 00 ba 68 05 80 a0 64 05 00 81 5b 05 80
       4.91288e-40 -4.96746e-40 4.95275e-40 -4.92003e-40
0003e0 29 5f 05 80 97 5d 05 00 8f 64 05 00 55 62 05 00
       -4.93315e-40 4.92751e-40 4.95251e-40 4.94452e-40
0003f0 c7 61 05 80 ae 59 05 80 87 60 05 80 70 90 05 00
       -4.94253e-40 -4.91348e-40 -4.93805e-40 5.10992e-40

ipd_embedding.weight f4 [2561, 8]
000000 5b da 2d be 24 9a bb bd 84 55 e2 be 5b c2 cb be
       -0.16977827 -0.09160259 -0.44205868 -0.3979672
000010 04 ab 0d 3f 38 9b 3c 3e 4e 4e c0 bd a5 d1 87 3e
       0.55339074 0.18418586 -0.093899354 0.26527134
000020 08 e2 ff bc 43 6a 88 3b e5 4e c8 3c 44 06 62 3c
       -0.03123571 0.004163058 0.024451682 0.013795439
000030 35 ea d5 3c b5 97 14 bb a9 d2 0a 3d ff d8 b4 bc
       0.026112655 -0.0022673432 0.033892307 -0.022076128
000040 c6 6d 87 3c 2d 75 03 bc 55 a1 19 bb 94 af cc bc
       0.016531836 -0.008023542 -0.0023442109 -0.024986066
000050 ff 45 bb bc 1b 95 26 3c 34 2b f3 bb e7 bf 8d 3c
       -0.022860525 0.010167385 -0.0074209217 0.01730342
000060 89 5a a8 3e 4c 58 ce 3d 30 60 a9 be 13 94 60 be
       0.32881573 0.10075435 -0.33081198 -0.21931486
000070 c9 e6 34 bf 38 9e 18 be 4e 1f 46 bd 73 84 25 bf
       -0.7066465 -0.14904106 -0.0483697 -0.64655226
000080 57 00 d6 3e ba 7e fe be bb de 13 3e 4b 9c 68 be
       0.41797134 -0.4970606 0.14440434 -0.22715871
000090 9c 08 bf 3e 1b 74 d3 be 0e 2f f6 be f1 f4 c2 bd
       0.37311256 -0.4129952 -0.48082775 -0.09519375
0000a0 e9 2f 37 3e c4 14 26 be ca 4b 46 bf af f0 b9 bd
       0.1788937 -0.16218859 -0.77459395 -0.0907911
0000b0 b3 c1 97 be 7c f3 a3 bc 11 4d 89 3e bc 4e 90 be
       -0.29639968 -0.020013563 0.2681661 -0.2818507
0000c0 4f 3c 97 3d ce 0d 0f be 51 e2 49 bd 5b 11 0d bd
       0.0738455 -0.1397011 -0.049288098 -0.03444038
0000d0 27 06 49 be 88 dc 84 3d 5f 98 fc 3d 74 ed 32 3e
       -0.19631253 0.064873755 0.1233375 0.17473394
0000e0 3b c6 f2 3e c4 0c e3 3e 1c 81 b5 be f8 96 d7 be
       0.47416863 0.44345677 -0.35450065 -0.42107368
0000f0 b0 02 74 bd 20 35 a7 be 67 c0 ec bc c0 37 09 bf
       -0.059572875 -0.3265772 -0.028900338 -0.5360069
000100 d0 9a 8b 3f 4f af 0d bf d5 6a c4 3e 55 5e 98 3f
       1.090662 -0.55345625 0.38362756 1.1903788
000110 0f 3a 38 3e a4 29 b1 be 36 60 df 3e 39 93 8c 3d
       0.17990898 -0.34602082 0.4362809 0.06864018
000120 82 55 ce 3e 2d a5 a3 bf af bb 12 bf de 0e 8c 3f
       0.40299612 -1.2784783 -0.5731763 1.0942037
000130 37 e9 09 3f 2a bb 79 bf 2c 3a ea be ec 81 43 be
       0.5387148 -0.97551215 -0.45747507 -0.1909253
000140 bd b1 e7 3f 78 6a 9e 3e df ec ef 3f b9 ee 4e 3e
       1.8101116 0.30940604 1.8744162 0.20208253
000150 d3 fd 4f 3f 8c d7 21 3e 77 26 24 be ef 9f 02 bf
       0.8124668 0.15804881 -0.16030298 -0.5102529
000160 ee 54 99 be 56 34 ba 3f 69 bc 97 be 7e 4a 6f bf
       -0.2994761 1.4547222 -0.29635933 -0.9347304
000170 fc 6d 2a 3e b4 64 cb 3f a0 c4 94 3f 36 43 0a bf
       0.16643518 1.5890107 1.1622505 -0.54008806
000180 ed f4 0a be c1 d7 a2 bd 2b c8 37 3f ec f2 19 bf
       -0.13569994 -0.07951308 0.7178981 -0.60136294
000190 5b 8f c9 3c 0b b5 94 3e 98 e8 9f bf f3 a7 20 be
       0.02460449 0.29044375 -1.2492857 -0.15689068
0001a0 ee 7b a6 3e 6d 98 5e 3d 78 79 1a 3f 0d f0 c5 be
       0.32516426 0.054344583 0.60341597 -0.38659707
0001b0 f0 53 32 3f 81 6c b2 bd 4a e3 8b bf 9c 14 e1 3e
       0.6965933 -0.08712102 -1.0928738 0.43961036
0001c0 a4 84 c7 bc 9c 81 62 3f 3c 69 9d 3f 36 15 28 bf
       -0.02435524 0.8847902 1.229774 -0.65657365
0001d0 7b 7c 78 3f 00 de e3 bd f8 5d a8 bf 9e f4 71 3f
       0.9706494 -0.111263275 -1.3153677 0.9451388
0001e0 5d 98 84 bd 18 c6 f6 bd 85 b6 4e bf 2e 61 70 be
       -0.064743735 -0.12049502 -0.8074725 -0.23474571
0001f0 0a 3e bc 3d e9 ee d0 3e 65 0f ce be 6f b0 10 bf
       0.091915205 0.40807274 -0.4024612 -0.56519216
000200 98 04 a3 bf 9d 8e c9 3e f3 3f 39 be 9a 05 43 be
       -1.2735777 0.39366618 -0.18090801 -0.19045106
000210 71 58 74 3d 49 2f 80 be fb 20 62 bf 8b 9f 84 3e
       0.059654657 -0.25036076 -0.88331574 0.25902972
000220 ec d0 f5 be 8e b3 6e 3e 8e bf a0 bf b2 8b 74 bf
       -0.48010957 0.23310682 -1.2558458 -0.9552566
000230 71 05 19 3f 74 ab bb 3e 6c aa 5a 3f 05 31 66 3f
       0.5977393 0.36654246 0.85416293 0.8991855
000240 42 89 fd 3d 57 17 57 3f 80 69 e2 3f 90 1d b9 be
       0.123796955 0.8401999 1.7688446 -0.36155367
000250 59 d4 cf 3e cb 7e 1a 3f 18 5a 0e bf e1 dc a9 3d
       0.40591696 0.6034972 -0.5560622 0.082940824
000260 29 7b da 3e 15 e1 22 be 5a cf 05 3f 9f 37 94 3f
       0.4267209 -0.15906174 0.5226952 1.1579474
000270 f3 9e af bd 02 5e 82 3f b6 3f 47 3f 61 36 e3 bd
       -0.08575239 1.0184939 0.7783159 -0.11094356
000280 91 3f 39 bf 02 46 01 3e d8 95 99 bf 2e c3 02 3e
       -0.7236262 0.12624362 -1.1998854 0.12769768
000290 4b 32 12 3f e0 68 17 bf 81 91 90 be 9a 86 0c 3f
       0.5710799 -0.591444 -0.2823601 0.54892886
0002a0 d2 43 5a 3c 54 af c6 be d7 fc 45 be 73 32 25 3e
       0.013321834 -0.3880564 -0.19334732 0.16132526
0002b0 34 9c 6b 3f e5 7e 34 bf 25 98 4f 3e c0 66 8f 3f
       0.9203522 -0.70506126 0.20272882 1.1203232
0002c0 c3 98 a0 bf 4d 7f 33 3e e2 24 cd 3e b1 f8 78 bf
       -1.2546619 0.1752903 0.40067202 -0.9725447
0002d0 63 fc 02 3f a7 8f fd 3e 4c 0f 7e bf 98 58 05 be
       0.5116636 0.4952366 -0.9924209 -0.13022077
0002e0 38 04 50 3e 69 e9 bf be 1a 00 ba 3e 4a 4d 61 3f
       0.2031411 -0.37482765 0.36328202 0.8800856
0002f0 6b d3 9a be 45 65 cb 3e f4 42 b1 be 8b 31 ee 3d
       -0.30239424 0.397257 -0.34621394 0.11630543
000300 85 f1 7a 3f 16 a2 65 bf 7f 9a bf 3d 74 4d 0f 3f
       0.9802478 -0.8970045 0.0935564 0.5597756
000310 97 aa b3 3e c4 f8 6a 3f f8 72 c9 be 3b c6 f8 be
       0.35091087 0.91785836 -0.39345527 -0.48588738
000320 2b 08 5b bf 69 7f 17 3f a6 aa 59 bf 9b a7 71 bf
       -0.8555934 0.5917879 -0.85026014 -0.9439637
000330 3c 4a f9 3d 4a 85 87 3f 77 fc 6d 3f 59 67 24 3f
       0.12172362 1.0587552 0.92963356 0.64220196
000340 b7 95 1a bf ba e0 b3 3f ae 78 1b bf 82 4f 10 bf
       -0.60384697 1.4052956 -0.6073102 -0.5637132
000350 3d 8c a0 bd 1e 63 e5 3e e7 48 3a 3f 4f de 71 3f
       -0.07839248 0.44802183 0.7276749 0.9447984
000360 a0 3b 49 3f d2 39 cd 3e 23 a0 c6 be c6 1e bf be
       0.78606606 0.40083176 -0.3879405 -0.37328166
000370 f2 6f 2f bd 82 06 6e 3f 5c ba 07 3f ba c0 ac be
       -0.04283137 0.9297868 0.53018737 -0.3374079
000380 01 0e b3 bf 0a aa f9 3e 75 c0 3d be 4b 43 b3 be
       -1.3988649 0.48762542 -0.18530448 -0.35012278
000390 c5 6b 0a bf 88 53 8a 3d 18 09 64 bf e8 5e 9c 3e
       -0.54070693 0.067542136 -0.89076376 0.30541158
0003a0 93 04 86 bf 79 61 17 3e 94 1f 4a be f5 b7 dd bd
       -1.0470146 0.14783277 -0.19738609 -0.10826103
0003b0 33 94 3e bf 4b f3 06 3f a7 02 c8 3e 41 f8 ab 3e
       -0.74444884 0.52714986 0.39064524 0.3358784
0003c0 ab 9d 93 bf 6e 9a 4a be 2f f8 05 bf c8 8d 29 3f
       -1.1532491 -0.19785473 -0.52331823 0.66231966
0003d0 7e e9 92 be 08 d3 a4 be ee d8 c3 be 3f c9 99 3f
       -0.28693765 -0.32192254 -0.38251442 1.201454
0003e0 2f 8e 7a 3f 0d 6f 48 3e d2 5d 64 3e cb 1b a0 be
       0.97873205 0.19573613 0.22301415 -0.31271204
0003f0 a4 55 67 be 94 ed 37 3f b8 f9 5d 3f c6 30 7a bf
       -0.22591263 0.7184689 0.86709166 -0.9773067

bn_logits.weight f4 [7]
000000 e9 4f f3 40 48 1a d4 40 34 ff 75 3f 27 ff 75 3f
       7.6035047 6.628208 0.96092534 0.96092457
000010 31 ff 75 3f 33 ff 75 3f 28 ff 75 3f
       0.96092516 0.9609253 0.9609246

bn_logits.bias f4 [7]
000000 42 34 90 40 2b c3 8d bf 4e 23 3c c0 3e 23 3c c0
       4.506379 -1.1075186 -2.9396548 -2.939651
000010 42 23 3c c0 47 23 3c c0 3d 23 3c c0
       -2.939652 -2.9396532 -2.9396508

bn_logits.running_mean f4 [7]
000000 93 87 0f bf 4c 92 11 3f 39 f4 06 bd b2 14 07 bd
       -0.56066245 0.56863856 -0.032947753 -0.03297872
000010 2c 09 07 bd 6d 02 07 bd cd 17 07 bd
       -0.03296773 -0.032961298 -0.032981683

bn_logits.running_var f4 [7]
000000 e7 e0 68 3f 41 12 4e 3f 18 a8 0b 3b e2 eb 0b 3b
       0.90968174 0.80496603 0.0021309908 0.0021350314
000010 02 d4 0b 3b 19 c6 0b 3b b8 f2 0b 3b
       0.0021336083 0.0021327792 0.0021354388

fc1.weight f4 [4, 18]
000000 79 c8 da 3d 42 10 a5 be 47 77 9a bd 14 ac 65 3e
       0.106827684 -0.32238966 -0.075422816 0.22428924
000010 1d 6b b9 3c 4c c6 be 3d be b9 aa 3e fa 64 59 3e
       0.022634083 0.09315166 0.33344835 0.21229926
000020 ad a1 e0 bd 8b 44 54 be e4 1e 2b be bf 0c 9a 3e
       -0.10968337 -0.20729272 -0.16711003 0.3008785
000030 3f 89 32 be 91 c4 bf 3e 01 8a c7 3e 1c 51 d5 3d
       -0.17435168 0.37454656 0.38972476 0.10415861
000040 98 4b 26 3c 27 18 68 be 70 10 4b bd 38 b2 87 3d
       0.010149859 -0.22665463 -0.049576223 0.066257894
000050 f2 cc e8 bd 9e d5 66 3c e7 0d 50 3b 09 f2 38 be
       -0.11367215 0.014089016 0.0031746568 -0.18061079
000060 bd 2c 6a bd 9a 9a 4f be 30 04 25 3e 7b bf 26 be
       -0.057171572 -0.2027382 0.16114879 -0.16283982
000070 f8 82 98 3e ee 00 55 3d 9e 89 52 be 1c 0e 0e bc
       0.2978742 0.05200284 -0.2056031 -0.008670356
000080 b3 21 b8 bd cc 40 7d 3e 46 aa b7 be 88 e9 a0 3e
       -0.089908026 0.2473175 -0.35872096 0.3142817
000090 0b 6f bf be 8d 0f 3a 3e 4a a7 8d 3e 90 af b1 be
       -0.37389407 0.18169995 0.27666694 -0.34704256
0000a0 88 3c d3 3e 19 97 78 bd 0d c4 d5 bc 41 76 31 be
       0.4125712 -0.060690973 -0.02609446 -0.17330267
0000b0 76 c4 cd 3d 58 7d 2a 3e 89 ca c6 bd 52 7a fa 3b
       0.100472376 0.16649377 -0.09706599 0.0076439762
0000c0 0e 65 fe bc a0 3b 22 3e dd 63 6e 3d f8 b1 04 3d
       -0.031054046 0.15843058 0.058200706 0.032396287
0000d0 1a db e9 3c 41 de 01 3c 27 6a c0 3e 01 d9 3a be
       0.028546859 0.007926525 0.37580988 -0.18246843
0000e0 dd 60 92 be 89 fa 24 be 16 6e 9b be c0 5a 20 3e
       -0.28589526 -0.16111197 -0.30357426 0.15659618
0000f0 61 1f a9 3e 6f c8 09 be 6c 83 53 3d 98 d0 ba be
       0.33031753 -0.13455366 0.051639006 -0.3648727
000100 44 9a 75 be 6a d6 ea bd 2a c9 45 3e 02 eb e5 3d
       -0.23984629 -0.114666775 0.19315019 0.11226465
000110 79 09 a3 3d 68 6d 2d bd 3d 0e 7d 3e bb aa 78 bd
       0.07960791 -0.042340666 0.24712463 -0.060709696

fc1.bias f4 [4]
000000 9d bf 97 b9 fa f1 16 37 bc e4 9c b8 fb 37 65 b9
       -0.00028943727 8.997036e-06 -7.481265e-05 -0.00021859996

features.0.weight f4 [4, 1, 3, 4]
000000 7d 70 45 bd 1d bc 4f bd d8 4f e7 3e 7c 60 99 be
       -0.04820298 -0.05071651 0.45178103 -0.29956424
000010 cc 15 e0 3d 4d 8b 8e 3d 40 af ad 3e 05 4c c8 3d
       0.109416574 0.06960163 0.33922768 0.097801246
000020 4b 28 e8 3d d7 cf 09 be d5 ca 68 3e e8 33 4c 3e
       0.1133581 -0.13458191 0.22733624 0.19941676
000030 63 b2 cc 3e d9 05 44 be 11 06 d8 bd 8e 01 16 3e
       0.39979848 -0.19142856 -0.10548032 0.1464903
000040 7f 64 6c 3e 33 8b ba bc f9 b3 0f 3d 5e aa 40 3e
       0.23085211 -0.022771453 0.035083745 0.1881499
000050 17 3d d9 3e 60 86 9b 3d 41 89 95 be 8e fc 9a 3e
       0.4242942 0.07593989 -0.2920628 0.3027081
000060 85 45 02 3e 8d f6 94 3e cd cd bb 3e a6 9f 26 be
       0.12721832 0.29094353 0.3668045 -0.16271839
000070 16 01 91 3e 74 19 a0 3d b3 dc 3d 3e 78 13 f2 3c
       0.2832114 0.07817355 0.18541221 0.029550299
000080 3b 95 18 be 65 8a 8c be ab 94 25 3e 02 8e b4 3e
       -0.14900677 -0.27449337 0.16169994 0.35264593
000090 4e 7d 6c 3d e2 78 0f be ac d1 64 be ce f2 90 3e
       0.057736687 -0.14010957 -0.22345608 0.28310245
0000a0 36 c5 0c be 5c a8 23 3d 1c 9e d0 3d 9b ff 5c 3e
       -0.13747105 0.039955482 0.10186407 0.21581881
0000b0 d4 10 8d 3e 06 d6 db be 76 19 c2 bd 04 c9 95 be
       0.275519 -0.42936724 -0.094775125 -0.29254925

features.0.bias f4 [4]
000000 e5 22 52 b9 90 39 65 b9 0d f1 8e b9 9e 2b c8 38
       -0.0002004016 -0.00021860586 -0.00027263947 9.5448675e-05

features.1.weight f4 [4]
000000 d3 c8 8b 3f ec a2 5f 3f d0 6f 7b 3f 26 42 88 3f
       1.0920662 0.87357974 0.9821749 1.0645187

features.1.bias f4 [4]
000000 89 ae 1f be d3 6d 7e 3e ad de 8a 3d 3c ad 05 3c
       -0.15593924 0.24846582 0.06780753 0.008158978

features.1.running_mean f4 [4]
000000 c9 e0 1d 3e 0e 71 8c 3e 43 62 33 3e 72 a8 8a 3d
       0.1541778 0.27430004 0.17517953 0.0677041

features.1.running_var f4 [4]
000000 5b 14 47 3d 18 21 63 3d 8d 8d 7b 3d 0b 43 68 3d
       0.048603397 0.055451483 0.06141429 0.056704562

features.3.weight f4 [4, 4, 3, 1]
000000 8a 92 c4 be a2 58 53 be ff 51 d0 bd b4 ef 81 bd
       -0.3839305 -0.2063928 -0.101718895 -0.06344548
000010 b5 72 38 3e be f9 30 3e 0a 67 3f 3e 6e 83 af be
       0.18012507 0.17282769 0.1869165 -0.3427996
000020 37 ba d6 3d 36 70 95 3d 6d a1 17 bf 8a 8f 45 bd
       0.104847364 0.07296793 -0.5923069 -0.048232593
000030 5a 7e cd bd 21 c5 bf be f7 b6 78 be 58 90 46 be
       -0.10033865 -0.37455085 -0.24288546 -0.19391
000040 62 41 aa bc ab 67 01 3f f0 8e 92 be e1 9f ec 3d
       -0.02078313 0.5054881 -0.28624678 0.11553932
000050 f1 2c d3 bc 65 49 49 3d ea de 76 3e 10 2d c4 bc
       -0.025778266 0.04914226 0.24108472 -0.023947269
000060 27 ef 10 be d2 fa 81 be ce ad 46 ba 1e e6 15 3e
       -0.1415373 -0.25386673 -0.00075789995 0.14638564
000070 3f c9 25 be cc 77 ed bb e3 d6 21 bd b9 6f 91 3e
       -0.1619005 -0.007246947 -0.039511573 0.2840555
000080 13 e0 60 3d 8e 54 00 3e f2 df e4 3e 93 c8 8c bd
       0.054901194 0.12532255 0.44702107 -0.06874194
000090 2d 82 ce be 23 ae 5e bd b4 71 87 be c0 a8 b3 bd
       -0.4033369 -0.05436529 -0.26453936 -0.08772421
0000a0 3d 5d 29 3e 27 27 1b 3e 4e 3d 88 3e 90 92 89 3e
       0.16539474 0.15151654 0.26609272 0.2686963
0000b0 e2 a0 8d 3e 16 87 4e 3e 63 b4 68 3e a7 9e 33 bd
       0.27661806 0.20168719 0.22725062 -0.043852475

features.3.bias f4 [4]
000000 44 5e a6 39 e5 d6 a3 b5 fe 68 11 b7 e5 34 49 b8
       0.0003173222 -1.2206989e-06 -8.667119e-06 -4.7971396e-05

features.4.weight f4 [4]
000000 08 d0 8d 3f 52 e0 7c 3f f5 5a 69 3f 86 52 59 3f
       1.1079111 0.98779786 0.91154414 0.84891546

features.4.bias f4 [4]
000000 69 46 cd be 05 03 2e be 3f 5e 6a be 99 ec 56 be
       -0.4009278 -0.1699334 -0.22887515 -0.20988692

features.4.running_mean f4 [4]
000000 46 9d c6 be 2f 48 a3 bd a9 9c 43 3e 43 07 b3 3e
       -0.38791865 -0.07972752 0.1910273 0.34966478

features.4.running_var f4 [4]
000000 13 ee 68 3e 0c 05 75 3e 74 47 e0 3d fc b4 dc 3d
       0.22747068 0.23927706 0.109511286 0.107767075

features.6.weight f4 [4, 4, 3, 1]
000000 5a eb 71 3e ca 9b 9d 3e 53 cc aa 3e cb 2a af be
       0.23624936 0.3078292 0.33359012 -0.34212336
000010 b2 f9 d9 3c c2 2c 23 be d0 00 8d 3e d2 aa 1e 3c
       0.026608322 -0.15935043 0.27539682 0.009684281
000020 db 8e cd 3d f6 18 bd 3c 02 19 fa 3d d6 0a 40 3e
       0.10037013 0.023083191 0.12211801 0.18754134
000030 18 f0 45 bd a8 cd c3 3d 13 1b a6 3e 7b 74 23 bd
       -0.048324674 0.0956071 0.3244253 -0.039906006
000040 6b 52 9d 3b ac fe c0 bd 9f cc db 3d d6 70 07 3e
       0.0048010848 -0.09423575 0.10732388 0.13226637
000050 6a e8 93 3e a4 df 1e 3e d1 fb 48 3e 69 c4 52 3e
       0.28888255 0.15515 0.1962731 0.20582737
000060 11 0b dc 3e 7c a0 8d 3e ca 83 29 3e 58 14 78 bd
       0.42977193 0.27661502 0.1655418 -0.060566276
000070 a6 20 8c be 24 3a a0 3d 96 e4 4c 3e f1 9a 75 3e
       -0.2736866 0.078235894 0.20009074 0.23984887
000080 ed 9d 9d bd c5 e6 12 3e 67 06 c6 3d 6c ab c6 3c
       -0.076961376 0.14345844 0.0966919 0.024251662
000090 95 80 88 3e 89 c4 46 3e 2f 44 ce 3e b1 3a fe be
       0.266606 0.1941091 0.40286395 -0.49654153
0000a0 17 b2 d2 bd 6b 35 61 be 59 8b 2f 3e ae e8 14 be
       -0.10287874 -0.21993034 0.17143 -0.14541885
0000b0 fb fd d9 3d 87 d4 95 be 00 d1 ff 3d 9b 93 ab 3e
       0.10644146 -0.29263708 0.124910355 0.33511052

features.6.bias f4 [4]
000000 61 c7 cc b7 5c f1 ab b7 c7 13 d3 b7 44 0f 73 b9
       -2.4411538e-05 -2.049718e-05 -2.516237e-05 -0.00023179973

features.7.weight f4 [4]
000000 52 c9 60 3f d8 7a 39 3f 32 f4 5e 3f 2c a0 79 3f
       0.8780719 0.7245307 0.8709136 0.9751003

features.7.bias f4 [4]
000000 06 f4 3b bf 7c f2 c0 be 05 90 ce bd 05 11 c9 be
       -0.73419225 -0.37685 -0.10086063 -0.39270797

features.7.running_mean f4 [4]
000000 74 79 7a 3e 15 c0 9b 3e 86 60 8c 3e 1d 9d 37 3d
       0.24460393 0.30419984 0.27417392 0.04482757

features.7.running_var f4 [4]
000000 eb ef 99 3d d0 26 22 3e e5 92 c0 3d 9f a6 9c 3d
       0.07516464 0.15835118 0.09403018 0.07648968

fc2.weight f4 [7, 28]
000000 0a f8 31 3e 3d 8d 1b be 27 0e 64 bd 19 fd 7c be
       0.17379776 -0.15190597 -0.05567756 -0.24705924
000010 64 36 8f be de 94 65 be 90 88 56 be 22 a8 74 bd
       -0.27971184 -0.2242007 -0.20950532 -0.059730656
000020 40 a5 c5 bd 8f d2 8b be 68 58 20 be aa d3 d0 bc
       -0.096506596 -0.2730908 -0.15658724 -0.025491554
000030 27 47 f8 bd 61 94 e9 3b 43 d8 22 3d 2d 24 8d be
       -0.12122946 0.007128284 0.039757024 -0.27566662
000040 86 a6 14 be 99 29 59 3d b0 f3 cc 3d 43 fd 35 3d
       -0.14516649 0.053018186 0.10007417 0.044430982
000050 4e 99 3b bd 71 e2 c9 bd 8e 9e 2b be 80 17 53 be
       -0.0458005 -0.098576434 -0.16759703 -0.20614433
000060 77 7f 42 be b8 b8 69 be 8e 1a 92 be a9 36 ea bd
       -0.18993936 -0.22824371 -0.28535885 -0.11436207
000070 ad d8 17 be 4a 24 40 3d 35 74 aa bc b5 7e a2 3d
       -0.14828749 0.046909608 -0.020807365 0.07934324
000080 f6 91 d8 3d 17 75 1d 3e 66 3f ea 3d d4 50 81 bd
       0.10574715 0.15376697 0.114378735 -0.06314245
000090 8b de 17 3e 43 76 4b 3e 8d 04 4e 3e 14 ea c1 3d
       0.14830987 0.19869332 0.20118923 0.09468475
0000a0 61 86 a1 3d a3 99 18 bb 4d b7 b4 bc 91 2c 9b 3e
       0.07886959 -0.0023284934 -0.02206006 0.3030744
0000b0 b8 11 2e 3e d8 97 0e 3d 5a 2f 6e bd b5 69 95 bc
       0.16998947 0.03481278 -0.058150627 -0.018238882
0000c0 eb 76 9d 3d 3f 50 be 3d 0f a8 2a 3e d0 fa 57 3e
       0.076886974 0.092926495 0.16665672 0.21091771
0000d0 b3 89 8a 3e e5 8c 98 3e e4 9b a6 3e b5 6a 22 3e
       0.2705818 0.29794994 0.3254081 0.15861018
0000e0 b4 77 c8 3d 01 4a 9b 3d 24 9f da 3d 2b e6 a6 3d
       0.097884566 0.075824745 0.10674885 0.0814937
0000f0 f4 bd 90 3d b3 a4 90 3d 13 50 58 3d b5 6b 58 3c
       0.07067481 0.07062664 0.05281074 0.013209273
000100 7f 63 b0 3c 81 b0 00 bd 68 e5 f5 bb 0d 42 90 bb
       0.021531818 -0.031418327 -0.007504154 -0.004402405
000110 85 46 73 bb bb cf 72 3d 53 99 f7 bc 47 31 8a bd
       -0.003712089 0.05928014 -0.030224478 -0.0674768
000120 8c 44 49 bd 87 1b 25 bd 3e 3e 19 bd 0d 2a eb bc
       -0.049137637 -0.040309455 -0.037412874 -0.028706575
000130 d6 f4 eb bc 33 f9 df bc b5 f8 97 bc b6 ae ea bc
       -0.02880327 -0.027340507 -0.01855121 -0.028647762
000140 8f 96 f1 bc ff 1a e1 bc 3e 36 20 bd 30 22 ea bc
       -0.029490737 -0.027478693 -0.03911423 -0.028580755
000150 75 a7 c8 3d 75 6e 9b 3d 5d d4 da 3d 38 11 a7 3d
       0.09797565 0.075894274 0.10685036 0.08157581
000160 3d e2 90 3d 0f c9 90 3d f5 80 58 3d c1 a2 58 3c
       0.070744015 0.07069599 0.052857358 0.013222397
000170 72 8d b0 3c 82 cf 00 bd 9a 40 f6 bb 24 5e 90 bb
       0.021551821 -0.031447895 -0.0075150253 -0.0044057537
000180 af 45 73 bb 01 fe 72 3d 72 c3 f7 bc f1 51 8a bd
       -0.0037120392 0.05932427 -0.030244563 -0.0675391
000190 85 73 49 bd c8 41 25 bd fc 66 19 bd ab 66 eb bc
       -0.049182434 -0.040345937 -0.03745173 -0.02873548
0001a0 a2 31 ec bc 5d 2f e0 bc a2 20 98 bc d7 e8 ea bc
       -0.02883226 -0.027366335 -0.018570248 -0.02867548
0001b0 70 d6 f1 bc 45 52 e1 bc 1b 5d 20 bd f0 4c ea bc
       -0.029521197 -0.02750505 -0.039151292 -0.02860114
0001c0 a5 96 c8 3d a7 61 9b 3d 9c c1 da 3d 12 02 a7 3d
       0.09794358 0.07586985 0.10681459 0.08154692
0001d0 70 d5 90 3d 47 bc 90 3d ae 6f 58 3d 72 8f 58 3c
       0.0707196 0.07067161 0.05284088 0.013217794
0001e0 96 7e b0 3c 92 c4 00 bd 97 20 f6 bb 16 54 90 bb
       0.021544736 -0.031437464 -0.007511209 -0.004404555
0001f0 24 46 73 bb c0 ed 72 3d a7 b4 f7 bc 71 46 8a bd
       -0.0037120664 0.059308767 -0.030237509 -0.06751717
000200 f9 62 49 bd 48 34 25 bd ac 58 19 bd 4b 51 eb bc
       -0.049166653 -0.040333062 -0.03743808 -0.028725287
000210 3c 1c ec bc 53 1c e0 bc a2 12 98 bc 55 d4 ea bc
       -0.028822057 -0.027357256 -0.018563572 -0.0286657
000220 f2 bf f1 bc c5 3e e1 bc 74 4f 20 bd e4 3d ea bc
       -0.029510472 -0.027495751 -0.039138272 -0.028593965
000230 d8 8c c8 3d 2d 5a 9b 3d b6 b6 da 3d 44 f9 a6 3d
       0.09792489 0.07585559 0.106793806 0.081530124
000240 04 ce 90 3d cb b4 90 3d b5 65 58 3d 08 84 58 3c
       0.07070544 0.070657335 0.05283137 0.013215072
000250 fc 75 b0 3c 3a be 00 bd ab 0d f6 bb 61 4e 90 bb
       0.021540634 -0.031431414 -0.0075089536 -0.0044038747
000260 1c 46 73 bb 30 e4 72 3d 15 ac f7 bc ba 3f 8a bd
       -0.0037120646 0.059299648 -0.030233422 -0.06750436
000270 5b 59 49 bd 7a 2c 25 bd 4c 50 19 bd e9 44 eb bc
       -0.04915748 -0.04032562 -0.037430093 -0.028719382
000280 bf 0f ec bc 2f 11 e0 bc 6f 0a 98 bc 78 c8 ea bc
       -0.028816102 -0.027351944 -0.018559663 -0.028660044
000290 dd b2 f1 bc 70 33 e1 bc 75 47 20 bd 24 35 ea bc
       -0.029504234 -0.027490348 -0.039130647 -0.028589793
0002a0 50 ac c8 3d 24 72 9b 3d ba d9 da 3d 8b 15 a7 3d
       0.09798491 0.0759013 0.10686059 0.08158406
0002b0 e8 e5 90 3d b2 cc 90 3d de 85 58 3d 44 a8 58 3c
       0.07075101 0.070702925 0.05286204 0.013223711
0002c0 b2 91 b0 3c ab d2 00 bd 89 49 f6 bb 1e 61 90 bb
       0.021553848 -0.03145091 -0.0075160903 -0.0044061085
0002d0 5d 45 73 bb ab 02 73 3d ae c7 f7 bc 3e 55 8a bd
       -0.00371202 0.059328716 -0.030246582 -0.0675454
0002e0 3e 78 49 bd a8 45 25 bd 13 6b 19 bd c8 6c eb bc
       -0.049186938 -0.040349633 -0.03745563 -0.028738394
0002f0 bf 37 ec bc e4 34 e0 bc a8 24 98 bc b3 ee ea bc
       -0.028835176 -0.02736897 -0.018572167 -0.028678274
000300 dc dc f1 bc dc 57 e1 bc 06 61 20 bd 43 51 ea bc
       -0.02952426 -0.027507715 -0.03915503 -0.028603202

fc2.bias f4 [7]
000000 93 ef 94 b7 5d b3 dd 37 a6 8d 81 b4 79 bc c8 35
       -1.7754535e-05 2.6428776e-05 -2.4131185e-07 1.4956014e-06
000010 f1 2c f9 33 d3 8c db b4 09 3d 00 b5
       1.1603141e-07 -4.0894392e-07 -4.7772534e-07
