emulation/models/checkpoint/cnn/best_TextCNNTeacher_iscxvpn.pth (torch, 468469 bytes, 44 tensors)

len_embedding.weight f4 [1501, 10]
00000000: c75e 0500 d260 0580 a161 0500 4120 0680
00000010: 0958 0500 b463 0580 f513 0680 9e63 0580
00000020: b35c 0580 dd65 0500 8895 0500 345a 0580
00000030: 8f5a 0580 ca64 0500 965c 0500 d059 0580
00000040: 7e64 0580 e563 0500 205d 0580 a8db 0600
00000050: 825f 0580 2b5e 0500 6364 0580 3a70 0580
00000060: 9f5f 0500 a76c 0500 ca57 0580 0858 0580
00000070: 9e5f 0580 9f5d 0580 9262 0580 ba57 0580
00000080: 3863 0580 5a5d 0580 d25c 0580 e964 0580
00000090: 385d 0500 745e 0580 2962 0500 ba5b 0580
000000a0: 755b 0500 cc5e 0580 285d 0500 4060 0500
000000b0: 9f64 0580 30df 0500 4f5c 0500 4359 0580
000000c0: ed79 0500 da5e 0500 9c5f 0500 d55d 0580
000000d0: b364 0580 1660 0580 8065 0580 7357 0580
000000e0: 4663 0500 d560 0500 6866 0580 ed5a 0580
000000f0: 3e5f 0500 1f62 0580 1d5b 0500 b35c 0580
00000100: f16b 0500 6c64 0500 8266 0500 ed5e 0500
00000110: 7357 0580 db5a 0580 4e86 0580 5f5d 0580
00000120: 7b65 0580 c860 0580 f45e 0580 f659 0580
00000130: 6b62 0500 805c 0500 9658 0500 2159 0580
00000140: 6e59 0500 4049 0680 6e58 0500 5659 0500
00000150: 9d5e 0580 0c5c 0500 375d 0500 b360 0580
00000160: b976 0580 a75c 0580 0e5a 0580 a563 0580
00000170: a660 0580 2e65 0500 6181 0580 2862 0500
00000180: 7458 0580 3d62 0580 bc61 0580 0d62 0580
00000190: 8760 0580 e75a 0580 a85c 0500 a463 0500
000001a0: 3561 0500 0167 0580 375d 0580 925d 0580
000001b0: f261 0580 e470 0500 2e59 0580 9a61 0500
000001c0: 125d 0500 a65f 0580 ce6f 0580 9f64 0580
000001d0: 3363 0500 4f24 0680 a55c 0580 8a63 0580
000001e0: ec79 0500 1f58 0580 ed57 0580 5f5a 0500
000001f0: d658 0580 715e 0580 1462 0580 4767 0580
00000200: 9761 0580 d38b 0500 ec57 0580 4961 0580
00000210: ef58 0580 f061 0580 a55c 0580 6e5e 0500
00000220: d05d 0500 aea5 0580 9460 0580 575a 0580
00000230: 3b60 0500 2962 0580 b06c 0580 855b 0500
00000240: 6a64 0500 d45e 0580 8e5c 0500 9363 0580
00000250: 2b59 0500 bf72 0500 8263 0580 6462 0580
00000260: 5d66 0500 4a6b 0500 1d5a 0500 fc67 0500
00000270: 2c59 0500 9960 0580 48b5 0600 d662 0500
00000280: 8d63 0500 fb6b 0580 a25d 0500 675b 0580
00000290: 7d65 0580 955d 0500 cf66 0580 835a 0580
000002a0: 2c64 0500 5e5b 0580 2558 0580 cb5d 0500
000002b0: 926d 0500 3058 0500 c45f 0500 ef58 0500
000002c0: 4665 0500 075c 0500 5857 0500 d264 0580
000002d0: c65b 0580 9264 0500 4d57 0500 c359 0500
000002e0: 4b60 0500 a15c 0580 625b 0500 6361 0580
000002f0: 5958 0500 8957 0500 6c5b 0580 535b 0580
00000300: 2c65 0500 4c5b 0580 b559 0500 ad64 0580
00000310: 5d6d 0580 f95e 0500 125e 0580 5163 0500
00000320: 3361 0580 7a58 0580 8b57 0500 3460 0580
00000330: 5e78 0500 5159 0580 e75d 0500 bc64 0500
00000340: a642 0600 6160 0580 3d5a 0500 2b5f 0500
00000350: 7458 0500 9558 0500 b863 0500 10c4 0600
00000360: 5f58 0580 ec58 0600 b65b 0500 d662 0500
00000370: 175d 0580 035c 0500 9d82 0580 ab66 0500
00000380: 7dd9 0600 1e5b 0500 ed60 0580 a862 0580
00000390: ec62 0580 1d5c 0580 8d57 0580 b664 0500
000003a0: 5e64 0580 ea9c 0580 3b5b 0580 f2a1 0680
000003b0: fb5b 0500 d75b 0580 c05d 0580 9459 0580
000003c0: be60 0500 3e59 0580 6d5a 0580 c559 0580
000003d0: 5ead 0580 4461 0580 b664 0500 9974 0580
000003e0: ef60 0500 c75d 0580 955e 0580 3b5d 0500
000003f0: 958d 0580 3c5a 0580 315b 0580 2861 0500
4.93177e-40 -4.9391e-40 4.942e-40 -5.62583e-40 4.90759e-40 -4.94944e-40 -5.58172e-40 -4.94913e-40
-4.92432e-40 4.95719e-40 5.12819e-40 -4.91536e-40 -4.91664e-40 4.95334e-40 4.92391e-40 -4.91396e-40
-4.95227e-40 4.95013e-40 -4.92584e-40 6.29811e-40 -4.93439e-40 4.92959e-40 -4.9519e-40 -4.99437e-40
4.9348e-40 4.98155e-40 -4.9067e-40 -4.90757e-40 -4.93478e-40 -4.92762e-40 -4.94538e-40 -4.90648e-40
-4.9477e-40 -4.92666e-40 -4.92475e-40 -4.95377e-40 4.92618e-40 -4.93061e-40 4.94391e-40 -4.92083e-40
4.91986e-40 -4.93184e-40 4.92596e-40 4.93705e-40 -4.95274e-40 5.39242e-40 4.92292e-40 -4.91199e-40
5.02916e-40 4.93204e-40 4.93476e-40 -4.92838e-40 -4.95302e-40 -4.93647e-40 -4.95589e-40 -4.90548e-40
4.9479e-40 4.93914e-40 -4.95914e-40 -4.91796e-40 4.93344e-40 -4.94377e-40 4.91863e-40 -4.92432e-40
4.979e-40 4.95202e-40 4.9595e-40 4.9323e-40 -4.90548e-40 -4.9177e-40 -5.07357e-40 -4.92673e-40
-4.95582e-40 -4.93896e-40 -4.9324e-40 -4.9145e-40 4.94483e-40 4.9236e-40 4.90956e-40 -4.91151e-40
4.91259e-40 -5.7729e-40 4.909e-40 4.91225e-40 -4.93118e-40 4.92198e-40 4.92617e-40 -4.93867e-40
-5.01767e-40 -4.92415e-40 -4.91483e-40 -4.94923e-40 -4.93848e-40 4.95474e-40 -5.0559e-40 4.9439e-40
-4.90908e-40 -4.94419e-40 -4.94238e-40 -4.94351e-40 -4.93805e-40 -4.91787e-40 4.92416e-40 4.94922e-40
4.94049e-40 -4.96128e-40 -4.92617e-40 -4.92744e-40 -4.94314e-40 4.99675e-40 -4.91169e-40 4.9419e-40
4.92565e-40 -4.9349e-40 -4.99285e-40 -4.95274e-40 4.94763e-40 -5.64038e-40 -4.92412e-40 -4.94885e-40
5.02915e-40 -4.9079e-40 -4.9072e-40 4.91597e-40 -4.91046e-40 -4.93057e-40 -4.94361e-40 -4.96226e-40
-4.94186e-40 5.09337e-40 -4.90718e-40 -4.94077e-40 -4.91081e-40 -4.94311e-40 -4.92412e-40 4.93052e-40
4.92831e-40 -5.18612e-40 -4.93823e-40 -4.91585e-40 4.93698e-40 -4.94391e-40 -4.98167e-40 4.92009e-40
4.95199e-40 -4.93195e-40 4.9238e-40 -4.94898e-40 4.91165e-40 5.0034e-40 -4.94874e-40 -4.94473e-40
4.95899e-40 4.97666e-40 4.91504e-40 4.9648e-40 4.91166e-40 -4.9383e-40 6.16044e-40 4.94633e-40
4.9489e-40 -4.97914e-40 4.92767e-40 -4.91966e-40 -4.95585e-40 4.92748e-40 -4.96058e-40 -4.91647e-40
4.95112e-40 -4.91954e-40 -4.90798e-40 4.92824e-40 4.98484e-40 4.90813e-40 4.93532e-40 4.91081e-40
4.95508e-40 4.9219e-40 4.9051e-40 -4.95345e-40 -4.921e-40 4.95255e-40 4.90495e-40 4.91378e-40
4.93721e-40 -4.92406e-40 4.9196e-40 -4.94113e-40 4.9087e-40 4.90579e-40 -4.91973e-40 -4.91938e-40
4.95471e-40 -4.91929e-40 4.91358e-40 -4.95293e-40 -4.9841e-40 4.93247e-40 -4.92924e-40 4.94805e-40
-4.94046e-40 -4.90917e-40 4.90582e-40 -4.93689e-40 5.02357e-40 -4.91218e-40 4.92863e-40 4.95314e-40
5.74922e-40 -4.93752e-40 4.91549e-40 4.93317e-40 4.90908e-40 4.90955e-40 4.9495e-40 6.21347e-40
-4.90879e-40 5.82912e-40 4.92077e-40 4.94633e-40 -4.92572e-40 4.92185e-40 -5.06033e-40 4.96008e-40
6.29033e-40 4.91864e-40 -4.93948e-40 -4.94569e-40 -4.94664e-40 -4.92221e-40 -4.90585e-40 4.95306e-40
-4.95182e-40 -5.15468e-40 -4.91905e-40 -6.09108e-40 4.92174e-40 -4.92123e-40 -4.92809e-40 -4.91312e-40
4.93882e-40 -4.91192e-40 -4.91616e-40 -4.91381e-40 -5.2137e-40 -4.9407e-40 4.95306e-40 -5.01005e-40
4.93951e-40 -4.92818e-40 -4.93107e-40 4.92622e-40 -5.09968e-40 -4.91547e-40 -4.91891e-40 4.9403e-40

ipd_embedding.weight f4 [2561, 8]
00000000: 24e8 623d 021b febe c174 803e 62bf a23f
00000010: 99b6 6d3f b5bc c93d 003b c6be 4b7c 863f
00000020: d51b 043f c153 31bf bdc7 8abf dcde b33e
00000030: 956a 11bf ac68 523e d1b1 0abf dad7 b3be
00000040: 4822 8d3f 677a e3be 9ffa 35bf f5d4 5f3e
00000050: 879e 11be 9f6b e3be 0792 77be 4f38 1bbe
00000060: 9f77 323f b348 1f3f 2cd9 debe 103e 783f
00000070: 713c 933f 5948 8bbe a13a dcbe 6d33 693d
00000080: a82a 6a3f 8ecc 373f c9eb 8c3b ba8d 863f
00000090: 5400 433e b13d cf3e 652f 3ebd cd46 3abf
000000a0: b7bc b13e 64fa bb3e ffd3 0d3d 3dc3 853f
000000b0: f375 f4bd 0cc2 74be 583a 21be aa66 8fbd
000000c0: 774c c73e 4812 603f 20e0 993c 71e7 cb3e
000000d0: a5f1 b7bd e24b 373e c923 87be 494c b6be
000000e0: 3412 3f3f 6209 493f caf6 17bf 8468 993e
000000f0: a34e b73e 234c 513f f212 4ebe 9e67 2ebe
00000100: 5792 263f cef1 583f 74e9 cd3e 2f75 aa3e
00000110: 1b48 67bd 9412 263f 0541 55bf d64c d5be
00000120: e88b 30be 3d7f 473e b9d0 98bd 4041 983f
00000130: b151 6f3f 0060 853f 2051 84bf 8e72 44bd
00000140: b39c bf3e 42ae 253e fe9f fd3e ec8e 2f3e
00000150: 1807 f83d 1e1f 883f ad37 8abf 940d 94be
00000160: a728 1e3f 9572 383f 2849 fe3e d97e a2bd
00000170: edef 563e aaf5 c0bd a623 52bf 365f b2bb
00000180: 577e 983e c0b5 9d3f bc81 063d 02c9 9fbe
00000190: ceaf 703f f33a 053e bb94 83bf 0770 babe
000001a0: 1d19 6c3e 7c88 253f 7669 4e3f ff63 703f
000001b0: 1ab3 2c3e 7d93 70be b49f 5ebf 7ee9 a4be
000001c0: 3bb8 953d b932 873e f42f 603f ba5c 983f
000001d0: 3b25 ab3e 2603 2abe dd3d 4bbf 0322 d3bb
000001e0: b4e2 503f 60b3 d4be 2d36 873f 3d9a 163f
000001f0: 0df3 c8bd eaed 043e 57f4 02bf c7cd 4f3d
00000200: 58eb bc3f 22f3 67be 8e04 713f a71a 023d
00000210: d83b 61be 389a dc3e 7a10 d1be c294 f0be
00000220: ce96 2f3f c9a3 31bf f1ca 45bc 77e2 163f
00000230: 668f be3d 7b38 2bbe c95c 01bf 0b52 a0be
00000240: 5bc9 4a3f fb45 0bbf 3348 143e 8020 d93e
00000250: 13e4 88bd 3f07 17be 97c4 9ebe 78f9 59be
00000260: b496 723f aff3 fdbe e14e 5e3e 9b63 4a3e
00000270: 3635 38be 7d24 e7bd 3e0e 8ebe a1c3 79bd
00000280: 0903 373f 6c6f a9bd 6ee4 1b3e 2ffd c13c
00000290: e57f d6be 6c4d 693d b117 03bf 7594 c7be
000002a0: 8bc0 0f3f e19c a0be 7f99 163f ae69 a33e
000002b0: 7ba9 53be 5a8b 503e 689d 543e 1076 a83e
000002c0: 6f0b a33e aebd f8bd a34b 143f 9a8f d23e
000002d0: 3455 8dbe d6ae 18bc 241e aebe 52b5 a6bd
000002e0: 83df df3c 18cf f43e f1c0 2c3f 644e 9e3e
000002f0: 5ff9 683f 90e8 0b3f 59da 46be e860 93be
00000300: a123 fbbd 7639 ebbe d55a 173f 681b 613e
00000310: 171c 1e3f ea83 123f daa2 c7be 0ecc 4bbe
00000320: d1ed 933e 1f65 e83c 7cc8 ac3e 7816 973e
00000330: 5bb2 203f 2835 0e3f 9af1 60be 6517 8ebf
00000340: f311 113d fd13 84bf 59fb 7a3e 33c6 eb3e
00000350: 511d af3e 2509 c83e b85f 65be c1d9 6dbe
00000360: fe8d 3cbd a6d6 33be ad03 7d3e 493c 053f
00000370: 6514 3d3e fe0e 83be f766 06bf d979 f3be
00000380: d7df ddbd d6ee e6be 6af3 ba3e 94db 3f3e
00000390: d59a 02be d8d6 ca3d b3fc 35bf 3feb ecbe
000003a0: e420 dd3e 4e41 68bf 50db a93e c7c0 fcbd
000003b0: e77e b1bd e119 c43e a611 a5be 3fda 6abd
000003c0: 1be1 593d 9fa3 04bf 6f7f 673e b2ba 303e
000003d0: d3a8 26bc 6f2a b63b 20c1 f7be bc20 adbe
000003e0: d574 c73e 5738 edbe b7d5 d4be 57f7 e6be
000003f0: 296c 923f 1695 023f 7728 aebe 5441 4dbf
0.055397168 -0.4962998 0.25089076 1.2714655 0.92856747 0.09850446 -0.38716888 1.0506681
0.5160497 -0.69268423 -1.0842205 0.35130966 -0.56803256 0.20547742 -0.54177576 -0.3512562
1.1026087 -0.44429323 -0.7108554 0.2185858 -0.1422063 -0.44418046 -0.24176799 -0.15158199
0.6971378 0.62220305 -0.43525064 0.969697 1.150282 -0.27203634 -0.4301348 0.05693381
0.9147134 0.717965 0.0043005687 1.0512002 0.19043094 0.40476754 -0.046431918 -0.72764283
0.3471429 0.3671447 0.034626003 1.0450207 -0.119365595 -0.23902148 -0.15744913 -0.070020035
0.38925526 0.87527895 0.018783629 0.39825013 -0.08981637 0.17900041 -0.2639449 -0.35605076
0.7463715 0.7852994 -0.59360945 0.29962552 0.35802183 0.817568 -0.20124415 -0.17031714
0.65067047 0.84743965 0.40217173 0.3329253 -0.05646525 0.648721 -0.83302337 -0.41660184
-0.1724087 0.19482131 -0.07461686 1.1894913 0.93484026 1.0419922 -1.0337257 -0.04796081
0.3742424 0.16179755 0.49536127 0.17144364 0.12110728 1.0634496 -1.0798241 -0.2891661
0.6178078 0.7204984 0.4966519 -0.079343505 0.20989962 -0.09421857 -0.82085645 -0.005443479
0.2978389 1.2321091 0.032838568 -0.31208044 0.94018257 0.13010769 -1.0279764 -0.36413595
0.23056455 0.64661384 0.8062967 0.9390258 0.16865197 -0.23493762 -0.8696244 -0.3220939
0.0731053 0.26405886 0.8757317 1.1903298 0.33426842 -0.16602764 -0.7939127 -0.0064432635
0.8159592 -0.41543102 1.0563408 0.588291 -0.09811983 0.12981382 -0.51154083 0.050733354
1.4759321 -0.22651342 0.94147575 0.0317637 -0.21995485 0.4308641 -0.40832883 -0.46988493
0.68589485 -0.6939054 -0.012072311 0.5893931 0.09304695 -0.16720764 -0.50532204 -0.31312594
0.79213494 -0.54403657 0.14480667 0.42407608 -0.06684127 -0.14748858 -0.3100936 -0.21286571
0.94761205 -0.49599978 0.21709777 0.19764559 -0.17989048 -0.112862565 -0.2774524 -0.060977582
0.71489006 -0.08273205 0.15223858 0.023680298 -0.4189445 0.0569586 -0.51208025 -0.3898045
0.5615317 -0.3136969 0.58827966 0.31916565 -0.2067012 0.20365658 0.2076317 0.32902575
0.3184466 -0.121455535 0.5792791 0.41125184 -0.27604067 -0.009319028 -0.3400737 -0.08140053
0.027328258 0.4781425 0.67481905 0.30919182 0.9100551 0.5465174 -0.1941923 -0.2878487
-0.12262655 -0.45942277 0.59122974 0.21983111 0.6176161 0.57232535 -0.38991433 -0.1990206
0.28892377 0.02836853 0.33746707 0.2950933 0.6277215 0.5554986 -0.21967164 -1.110089
0.03541751 -1.03186 0.24509944 0.46049652 0.34202054 0.39069477 -0.22399795 -0.23227598
-0.04603385 -0.1756235 0.24708433 0.5204511 0.18464811 -0.25597376 -0.5250086 -0.475539
-0.1083371 -0.45104092 0.36513835 0.18736106 -0.12754376 0.099042594 -0.71088713 -0.4627323
0.43189156 -0.9072465 0.33175135 -0.12341457 -0.08666783 0.38300994 -0.32240027 -0.057337042
0.053193193 -0.51812166 0.22607206 0.17258719 -0.010172087 0.0055592577 -0.4838953 -0.33814037
0.38956323 -0.46332046 -0.415693 -0.4511058 1.1439258 0.5100874 -0.34015247 -0.8017781

proj.0.weight f4 [32, 18]
00000000: e1fe dc3e 777c debe c2c8 27bf a5b8 68bf
00000010: 256c 3cbe bd71 613f df6a 85be 90f2 a6bd
00000020: 5ac1 673d dc61 40bf b5fc c13d a757 62bd
00000030: 2674 3ebf e48b 08bf 9c32 76be 6544 ecbe
00000040: f39f 31be dc16 723e 649a 87be 9067 193f
00000050: e069 ee3e 42cf 0ebf 45d5 e23e f276 053f
00000060: 6109 8fbe 5f2b e8be 0e0c ca3e 824b 043e
00000070: bd61 313e 2f22 a9be c243 ea3e a358 1e3e
00000080: e829 8fbc c336 19be 9b5b ecbd d9ff 92be
00000090: 1c18 553d 718d cabe 3baf 053f 1f11 a5be
000000a0: 7426 00be ef7d 2bbf 7f41 253e 48fb 06bf
000000b0: 7852 893e 359e 38be 06c2 0bbf 657a 66be
000000c0: 31e6 843e 7c9f debe 9154 273c a84f 0f3f
000000d0: 7889 a53e ff81 dd3e 0e04 a2bd fef2 993f
000000e0: 6f61 c43e 1896 ae3e a04b 7d3e b474 023f
000000f0: 377c 39be 8707 34be 6676 e33e 4bf5 4cbf
00000100: 17f0 60bd 2c5f 4f3f 62e1 27bf 5567 113f
00000110: 4dbe e4be fba6 dcbe 4c4b 0b3e 39a2 073e
00000120: e2b3 0dbf dcfe 4ebf 6196 0a3e c9a3 06bf
00000130: 7034 cf3e a727 ffbd dec0 80bc 8354 54be
00000140: 74ac 7ebe 1585 11bf 35c5 febd 39ad f53b
00000150: 14a4 553d fa5a 1abe 2f6d 32be 9f19 cc3e
00000160: bfdb b3be 9512 52bd c711 8cbe a4d5 63be
00000170: 6eb7 c0bd 61d1 c8be cb3f 813e bb74 8dbd
00000180: c68b 5e3e 68ab 2d3e 0926 c9be b7be 78bf
00000190: 59e9 3fbf a3a5 e2bd 572b f4bd 9057 a73e
000001a0: eea6 6b3e e573 1bbe 5cec 003d a758 d0be
000001b0: 6647 4ebe 1fdb e8bd 0bd0 993e 1408 713e
000001c0: f81a 85be 3460 8abd 3dcf 9c3e 5419 87be
000001d0: a7f1 303e dc10 063f 2052 94be 6844 dabc
000001e0: aedc cd3e 96c2 85be 0576 3bbe e4af bebe
000001f0: c668 ca3e 19a3 33be 3f01 813f 312a 7d3f
00000200: 420a 013e d6bd 9bbf 5c63 a33e 7c2f debb
00000210: d31a 26be 5621 94bf cbe6 d0bd 4526 28be
00000220: cc2d de3e a811 0bbf 1675 25be b459 a53d
00000230: 77f3 a9be 41ae 24bf cf49 e53e 6c80 1bbf
00000240: 3084 12bb b801 853e 86a0 973d 31e7 353e
00000250: a722 83be 5eff 0d3f a7ec 32bd cebf a7be
00000260: d35d e3be 20ac 223e eba1 29bf 1ed4 55be
00000270: e00b 8b3d 2533 663e a714 313e 99bd d7bd
00000280: bcd2 873e 315a 0dbf 96ad 123e 627e ddbe
00000290: 3d4a 20be 7020 433d f53b e7bc 2ce3 04bf
000002a0: 2cc8 aa3c 0fb1 64be 763a 1b3e 088d 3a3f
000002b0: 7f6c 003d 1a0c 85be f8b2 97bc 045b 36be
000002c0: 72c8 503d f8eb b1be b9fe 25bf 7461 7bbd
000002d0: 8f29 9a3d 26cb 083f 6d24 073f 773d 12bf
000002e0: 2ef3 c83c f9b4 e63e 1103 553e 566d 1ebe
000002f0: 7f4d 023f 95b1 1e3f be2d 9cbe 3eeb 54be
00000300: 71da f13d 3cc2 3cbe b6d5 643d b075 c2be
00000310: 2d2f a83e 0a7f 9ebe 2fb9 4d3e f389 f1be
00000320: 99eb ff3d a1f9 e73b 515f 83be d4a4 cfbe
00000330: 46c2 dbbd 09dd f73e f9e1 02bf f679 233d
00000340: a19d 5f3e 28d2 81bd 0645 803e 137c 853e
00000350: cf40 44bf 0106 90be 5b7d 5abc f449 563e
00000360: bfde 6abc 9f0c 4e3f c7c7 44bf cac8 0fbf
00000370: 8e58 483f 9eb0 82bd e4a3 06bf 716e c9bd
00000380: bc2f b2be 6de6 b6be 9b40 703d b3de 43be
00000390: 7a1d 6e3d 58da 0cbd aaf2 7d3e c2a7 5f3d
000003a0: 18bd 3b3c 3581 57be 67ae 8e3e 7992 44bf
000003b0: d36e e63e c5b2 913e 2b4f 303e a05f c1be
000003c0: d7d8 9dbe 17c6 31bf 6273 b13e 5f37 b23d
000003d0: 8443 80be b95d 90be 6161 923e 029b 833e
000003e0: c7c1 dc3d 5bda c83d 23ca 553e 2402 0e3b
000003f0: 6bec 843e 1618 b8bb 5136 813f 6c23 363f
0.43163207 -0.43454334 -0.6554071 -0.90906745 -0.18400629 0.88064176 -0.260581 -0.08151734
0.05658088 -0.7514932 0.09472028 -0.055259373 -0.7439598 -0.53338456 -0.24042743 -0.4614593
-0.17346172 0.23641533 -0.26484978 0.5992365 0.4656515 -0.55785 0.44303337 0.5213462
-0.27936843 -0.4534559 0.39462322 0.12919429 0.1732244 -0.33033893 0.4575482 0.154635
-0.017476037 -0.14962296 -0.1154091 -0.2871082 0.052024946 -0.39561036 0.52220505 -0.32239625
-0.12514669 -0.66989034 0.16138266 -0.52727175 0.2682073 -0.18029101 -0.5459293 -0.22507627
0.25956872 -0.43481052 0.010213033 0.5598092 0.32331443 0.43263242 -0.079109296 1.202728
0.38355586 0.34098887 0.2473588 0.50959325 -0.1811379 -0.17580996 0.44426268 -0.8006179
-0.054916468 0.81004596 -0.6557828 0.567983 -0.44676438 -0.43096146 0.13602942 0.13245477
-0.55352604 -0.80857635 0.13533928 -0.52593666 0.40469694 -0.12458735 -0.015716966 -0.20735364
-0.24870473 -0.5684369 -0.12439958 0.0074974564 0.05215843 -0.15073767 -0.17424463 0.39863297
-0.3512859 -0.051287252 -0.27357313 -0.22249466 -0.094099864 -0.39222243 0.25243983 -0.0690703
0.21733007 0.16959918 -0.3928683 -0.9716601 -0.74965435 -0.11066749 -0.11922329 0.32683992
0.23012897 -0.15180929 0.03147541 -0.40692636 -0.20144424 -0.11369919 0.30041537 0.23538238
-0.25997138 -0.067566305 0.3062686 -0.2638651 0.17279683 0.52369475 -0.28968906 -0.026643947
0.40207428 -0.2612502 -0.1830674 -0.3724357 0.3953306 -0.17542686 1.0078505 0.98892504
0.1260157 -1.2167308 0.31911743 -0.006780563 -0.1622117 -1.1572673 -0.1020027 -0.16420849
0.43394315 -0.54323816 -0.16157946 0.0807375 -0.3319356 -0.6432839 0.44782874 -0.6074283
-0.0022356622 0.25977874 0.07403664 0.17763974 -0.25612375 0.55467784 -0.04368272 -0.32763523
-0.4440752 0.15885973 -0.6626269 -0.20881698 0.06789374 0.22480448 0.17293034 -0.1053421
0.26527965 -0.55215746 0.1432403 -0.43260485 -0.1565332 0.047638357 -0.028226832 -0.51909137
0.020847403 -0.22333167 0.1515902 0.72871447 0.03135347 -0.25985795 -0.018517956 -0.17808157
0.05097241 -0.34750342 -0.648418 -0.061372235 0.07527458 0.5343498 0.52789956 -0.5712504
0.02453002 0.45059946 0.20801951 -0.15471396 0.508995 0.6198972 -0.3050365 -0.20792863
0.118092425 -0.1843347 0.055867873 -0.37980413 0.32848492 -0.30956298 0.20090173 -0.4717556
0.124961086 0.0070793186 -0.25658658 -0.4055544 -0.10730414 0.48410824 -0.51126057 0.039911233
0.21837474 -0.06338912 0.2505266 0.26071224 -0.7666139 -0.2812958 -0.013335551 0.20926648
-0.014335333 0.8048801 -0.76867336 -0.56165755 0.78260124 -0.06381343 -0.5259383 -0.09835518
-0.34802043 -0.35722676 0.058655363 -0.19127922 0.05813358 -0.034387916 0.247996 0.054603346
0.011458658 -0.21045382 0.27867433 -0.76786 0.45006427 0.28456703 0.172177 -0.3776827
-0.30829498 -0.69442886 0.34658343 0.087019674 -0.2505151 -0.28196505 0.2858992 0.257042
0.107791476 0.09807273 0.2087789 0.0021668756 0.25961623 -0.0056181056 1.0094701 0.711478

proj.0.bias f4 [32]
00000000: 97cf fb3d e2a3 76be 7969 e0be c491 82be
00000010: d596 2ebe 09b1 9ebe 70b6 b5be 9db0 0dbe
00000020: 15bc debe 14d5 a2be a079 98bc 70da e7be
00000030: ce65 173e 2546 66bd d817 693e 0678 153c
00000040: ba4b 90bd 5914 283e aa3f 5ebe a2bb 383d
00000050: 49c5 093e 1d6f 033e 2d2e c3be 771b 42bd
00000060: 90de 94be 95ff 403e bbe3 93bc e9e7 b5be
00000070: c108 f0be d4f2 9e3d 8dab 87be 4f8a 21bf
0.12295454 -0.24085954 -0.4383047 -0.25501835 -0.17049725 -0.30994442 -0.3549075 -0.13836904
-0.4350287 -0.3180319 -0.018612683 -0.45283842 0.14784929 -0.05621924 0.22763002 0.009122854
-0.07045694 0.16414012 -0.21703973 0.045100816 0.13454165 0.12835355 -0.38121167 -0.047389474
-0.29076052 0.18847497 -0.018052926 -0.35528496 -0.4688168 0.077611595 -0.2649807 -0.6310167

conv_blocks.0.0.weight f4 [64, 32, 3]
00000000: 8c4b 8fbe ed5b dcbe 9b5e 23bd a5a3 aebe
00000010: a797 09be 414a 19bf 299f e5ba 3759 68bd
00000020: 795e 24bd d917 83bc a399 d93b 7e5b 7fbe
00000030: 78c5 afbc 7fd9 363d c65e 57bd 8093 0e3d
00000040: d675 8cbb c88f c63d 7fe6 19bd 3f45 63bd
00000050: f779 c2bd 414c 2a3d 1398 abbe 9f82 aabe
00000060: 2028 a9bd 10e5 9bbd da9b ed3a 792d 2bbe
00000070: 7125 38bd 3d31 06bf 1845 e3bc ce70 bbbc
00000080: deef 69bb 4010 c5bc 9d30 07bd 6915 bbbe
00000090: 4f79 58bc fa75 f63d 17b3 093d f7fe 033d
000000a0: 3d1b 0d3d cf80 d93d 3e48 ea3d f28e 6f3d
000000b0: e3da c73e ed79 ba3d a148 b0be 7ac6 57be
000000c0: 2474 943d 3b65 3abd 6ee2 44be 07ca 2dbd
000000d0: ef6d a8bc 0b02 bfbc 4764 f13d 7d1c 3bbc
000000e0: 175a 57be 6268 9d3d 3314 18bd 7b63 75be
000000f0: 5394 de3d a2dd bf3d 48b5 b5be 2eac 503d
00000100: 1e84 7ebe a048 4dbe 33f6 d63d 3b4d 5d3d
00000110: 1d29 81bb a1b3 dabe 5807 61be 1a66 c6bc
00000120: 3613 093c 73f5 d0be 5700 0bbf b843 4cbe
00000130: d778 873c 0d78 d4bd a3fb d5bd bc36 273d
00000140: fb6a 8f3c f317 e6bd af87 b73c 75dd cbbe
00000150: 2469 ca3c d15a 05be 1a4a 1cbf bd0b 943d
00000160: 7e59 b3bd dec3 fbbe ec2c 0d3c c912 d13d
00000170: d2c4 403d bee0 7fbe c636 8a3d 7a96 7abd
00000180: 223d 553e 859e 54bd 6094 abbd 8207 a73d
00000190: e2fa 59be 875c 05be 192d 17be 2c52 593d
000001a0: f4ea 2e3e d9d5 6fbd 0ea0 67bd 7473 683e
000001b0: 5d5b 013a 8ab8 083c 0f62 6dbe 3577 87be
000001c0: 318d 053b dad0 87be 990d b8bd 5998 04bc
000001d0: a7de 76be 6966 23bc 5505 413e 3d42 0d3d
000001e0: a173 ccbe c1d6 c63d 5584 7bbd 5084 85bd
000001f0: 3038 a3be 5d00 f8be 416f 69be 0ad2 c63e
00000200: 9351 78be 4427 343e 0d9a afbc 988c 20bd
00000210: 29d8 7cbe eabf 8cbd 379a a9bd 6105 1bbe
00000220: 3ca2 723d 6913 bbbe 5cc6 5bbe 1607 663e
00000230: 3105 4c3e 8964 71be 9a70 d73d 8443 6dbe
00000240: 10ce ce3c 3b6c 263e c40c 9a3c 581c f2bd
00000250: f11b cabd de83 d1be bd23 04be d6be 993c
00000260: aa14 5ebe 0f59 a53c 2685 563e deed 38bd
00000270: bb3d b4bd faaa 913d 0c28 a5bd a01e 79be
00000280: 4fec 61bd 8bdf 01bf a999 2ebe 8bfa 12bd
00000290: b1e7 13be 2132 283e bc2b 6c3b 92c3 29be
000002a0: 342f e53c 8137 95bc e028 6d3d 78bf a8be
000002b0: d99c 813d 022f b4be 2651 35be 8914 193e
000002c0: e304 9fbe d95f a6bd b31b bcbe eabc 4b3e
000002d0: e071 55bd 38da e53d fb4d f93d eaac 07bd
000002e0: 8256 a8be dbcd 213e 8fe4 5fbd d5d5 8b3d
000002f0: e4f8 febe 3a99 8dbe 4286 5739 384e 0dbf
00000300: d6e1 f0bc d9a9 1cbe 1720 ae3d fa49 44bd
00000310: e235 e2bd e34e aabd e7df 643e 6550 1dbe
00000320: 47c1 0dbe 4bfa 093e 4732 0c3e 5c91 203d
00000330: 249f 1abf d8ad cc3e c42a 4dbf 1f35 cebe
00000340: 4af2 a73e d646 73be cd28 963c 78ba 89be
00000350: d691 66bd 790c f7bc 4eec a93e 3789 c4bd
00000360: fded 1dbe b805 143d 1e15 ddbd 8500 80be
00000370: 18e0 44be 6e4e 14be d6d0 ac3d d6c3 97be
00000380: d959 9e3d 5e86 21bc 558f 30bc 3651 c4bc
00000390: 3d5e a13e fd98 3ebe 5e21 b53d e6b0 713e
000003a0: 78ce a9bd 03c9 f83d c6c9 143e 5bd9 c8bd
000003b0: 08da 7abd cc32 ee3c 5e0f a83b 8b4b 0fbd
000003c0: 3f7c 003e 8cc3 92b9 8e20 8ebd 216d 123d
000003d0: 03b2 ccbe d6a6 603d 2b29 02be 2855 d13c
000003e0: 9fff 68be 187d f73c 8176 023e 5442 9dbe
000003f0: 3bef debc ffbb 913e b807 14be 9015 ea3d
-0.27987325 -0.43038884 -0.039885145 -0.34109226 -0.13436757 -0.5987893 -0.0017518747 -0.056725707
-0.04012916 -0.016002582 0.0066406294 -0.24937245 -0.021456465 0.044641014 -0.052580617 0.034808636
-0.004286508 0.09695393 -0.037573334 -0.05548596 -0.09495919 0.041576628 -0.3351446 -0.3330278
-0.08259606 -0.076120496 0.0018128112 -0.16716565 -0.044957582 -0.5241888 -0.027742907 -0.022880938
-0.003569595 -0.0240556 -0.033005346 -0.36539772 -0.013212516 0.12034221 0.03361806 0.032225575
0.034449805 0.106202714 0.1143956 0.058485933 0.39034185 0.09105287 -0.3443041 -0.21071807
0.072487146 -0.045506697 -0.19227001 -0.042428996 -0.020560233 -0.023316404 0.117867045 -0.011420366
-0.2103046 0.07685925 -0.03712864 -0.2396373 0.10868134 0.09368445 -0.3548987 0.050945453
-0.24855086 -0.20047235 0.104961775 0.05402873 -0.0039416687 -0.4271517 -0.21975458 -0.024218608
0.008366397 -0.40812263 -0.54297394 -0.19947708 0.016537113 -0.1037446 -0.104483865 0.040823683
0.017507067 -0.11235037 0.022403566 -0.39817396 0.024708338 -0.13022925 -0.6105057 0.072288014
-0.08757304 -0.49172872 0.008616667 0.10208661 0.047062702 -0.24988076 0.067487285 -0.061178662
0.20824102 -0.05190899 -0.0837791 0.08155729 -0.2128711 -0.13023578 -0.14763297 0.05305688
0.17081815 -0.05855355 -0.056549124 0.22700292 0.00049345737 0.008344779 -0.23181938 -0.26458135
0.0020378346 -0.2652653 -0.089869685 -0.008092963 -0.24108373 -0.009973147 0.1884969 0.034486998
-0.39931968 0.0970893 -0.0614055 -0.06519377 -0.31878805 -0.48437777 -0.22796346 0.38832122
-0.24249868 0.17593104 -0.021435762 -0.03919658 -0.24691834 -0.06872542 -0.08281367 -0.1513877
0.05923675 -0.36538246 -0.21462387 0.2246364 0.19923855 -0.23573507 0.10519524 -0.23170286
0.025244743 0.16252224 0.018804915 -0.118218124 -0.09868611 -0.4092092 -0.12904258 0.018767755
-0.2168757 0.020184068 0.2094923 -0.045148723 -0.08800837 0.07112689 -0.08064279 -0.24328089
-0.055157002 -0.50731725 -0.17050804 -0.035883468 -0.14443852 0.16425373 0.003603681 -0.1657851
0.02797661 -0.018214943 0.05790031 -0.3295858 0.063287444 -0.35192114 -0.17706737 0.1494924
-0.31058416 -0.0812375 -0.36739883 0.19896284 -0.052110553 0.112232625 0.12173077 -0.033123888
-0.328785 0.15801184 -0.05466133 0.068278946 -0.49799263 -0.27655965 0.00020554013 -0.5519748
-0.029404562 -0.15299167 0.085022144 -0.047922112 -0.110454336 -0.08315828 0.22351037 -0.153627
-0.1384326 0.13474385 0.13691054 0.039201126 -0.6039908 0.39976382 -0.8014338 -0.40274903
0.3280204 -0.2375749 0.018330002 -0.26900077 -0.056291424 -0.030157315 0.331881 -0.09596484
-0.15422817 0.036138266 -0.107950434 -0.25000396 -0.1922611 -0.14483044 0.0843827 -0.29641598
0.07731981 -0.009858696 -0.0107763605 -0.023964506 0.3151721 -0.18613048 0.08844255 0.23602638
-0.08291334 0.12147715 0.14530095 -0.09807082 -0.061243087 0.029076956 0.005128785 -0.034984153
0.12547396 -0.00027992984 -0.06939803 0.035748605 -0.39979562 0.054846607 -0.12711017 0.025553301
-0.22753762 0.030211017 0.12740518 -0.30714667 -0.027213683 0.28463742 -0.1445607 0.11429894

conv_blocks.0.0.bias f4 [64]
00000000: 1707 27b7 2b65 8eb8 c307 8437 2bc9 5bb8
00000010: dff9 deb7 018c a637 dc7d 5637 c754 1336
00000020: 7e07 5bb8 c4aa 3ab6 dce2 6e37 a863 cbb7
00000030: 4975 2338 c1de 67b8 837b 0b38 3747 e9b8
00000040: 2a69 8bb8 1240 1f37 004d 3d37 ceaa 1cb8
00000050: 1ed9 40b8 a579 8237 5769 ebb7 d719 7537
00000060: e823 1eb9 20d6 9037 efbb a1b8 dc1f e337
00000070: b8c1 ff37 ce2f dc37 f105 49b7 6ba8 af37
00000080: b0c6 4f38 1ffe 6eb7 ae14 d138 3ab9 d937
00000090: 88a0 f8b6 b1df 1d39 8376 b9b7 2498 47b7
000000a0: 5eff 29b7 e8bd 6fb8 748d 97b7 ed69 06b8
000000b0: d435 4c37 1e2b 8fb6 a225 bb37 f5cc 4937
000000c0: c74d 8d38 624c 3bb8 e94b a2b7 907e 04b8
000000d0: fcd8 ca38 3f69 3c38 869b 7d37 d57d 74b8
000000e0: aeeb 2a38 27f8 f237 2fc7 e6b7 b2b9 adb6
000000f0: dc66 86b7 acf1 2c36 6d8f 2037 3790 07b8
-9.955626e-06 -6.789932e-05 1.573924e-05 -5.240102e-05 -2.6580818e-05 1.9853936e-05 1.2784698e-05 2.1954054e-06
-5.2220646e-05 -2.7815558e-06 1.4238725e-05 -2.4245892e-05 3.897146e-05 -5.5282148e-05 3.325521e-05 -0.000111235706
-6.647625e-05 9.492056e-06 1.1283206e-05 -3.7352373e-05 -4.5978573e-05 1.5553853e-05 -2.8063236e-05 1.4609154e-05
-0.0001508143 1.7265847e-05 -7.7120836e-05 2.7075344e-05 3.0488576e-05 2.6248304e-05 -1.1981917e-05 2.0940051e-05
4.9537688e-05 -1.4245073e-05 9.9697485e-05 2.5954669e-05 -7.4096642e-06 0.00015056018 -2.2108905e-05 -1.1896747e-05
-1.0132642e-05 -5.7158904e-05 -1.8066472e-05 -3.204674e-05 1.217188e-05 -4.2667516e-06 2.2309661e-05 1.2028254e-05
6.737891e-05 -4.465541e-05 -1.9347253e-05 -3.1589123e-05 9.672527e-05 4.492071e-05 1.5116186e-05 -5.8291324e-05
4.0750652e-05 2.8964203e-05 -2.7510889e-05 -5.1774196e-06 -1.6021942e-05 2.5770669e-06 9.570137e-06 -3.232082e-05

conv_blocks.0.1.weight f4 [64]
00000000: 8fd9 363f 152e 303f a4af 113f 7894 233f
00000010: f845 513f 7f1e 2f3f b07c 493f aac9 1f3f
00000020: 09a3 403f 1bb3 433f 2d38 273f 9188 403f
00000030: a095 203f 348b 133f 62f9 4c3f 08bf 443f
00000040: 0086 5b3f 609f 513f 7dd3 1d3f 0d11 433f
00000050: b206 403f 5c66 393f 4cdc 453f 12a0 1b3f
00000060: 593f 453f 3305 133f e3ce f43e 64c5 403f
00000070: e55e 343f ab9d 053f 1101 503f 78ff 2d3f
00000080: e6a7 343f 9d3d 073f c187 343f afd2 4e3f
00000090: fb1a 293f ad39 3e3f 3852 273f 1f2a 183f
000000a0: 8280 113f da55 323f 2a1c 3c3f 1fe1 1e3f
000000b0: 35ca 613f 2132 373f b0b7 243f 8472 243f
000000c0: 74ba 1b3f 6875 2c3f 09ff 1d3f 3084 1f3f
000000d0: c6e0 233f 29b4 443f 0ae0 373f 6726 393f
000000e0: 1c69 403f 40f9 083f a30f 5c3f d3a9 4c3f
000000f0: 8902 163f 2050 3f3f 23ba 503f 6a17 303f
0.7142572 0.68820316 0.5690863 0.6389842 0.8174739 0.6840591 0.78705883 0.6241709
0.7524877 0.7644517 0.6532009 0.75208384 0.6272831 0.5763428 0.8006803 0.7685399
0.8575134 0.8188381 0.6165083 0.7619789 0.75010216 0.72421813 0.7728927 0.6079112
0.77049786 0.5742981 0.47814092 0.75301194 0.704573 0.5219371 0.8125163 0.6796794
0.7056869 0.5282839 0.70519644 0.8079023 0.66056794 0.74306756 0.6535983 0.5943927
0.5683671 0.6966225 0.73480475 0.6206226 0.8819917 0.71560866 0.64342785 0.64237237
0.6083138 0.6736665 0.6171728 0.6231108 0.6401485 0.768374 0.7182623 0.7232422
0.75160384 0.53505325 0.8596136 0.7994663 0.5859762 0.74731636 0.8153402 0.6878573

conv_blocks.0.1.bias f4 [64]
00000000: 1f38 01bf 8efa 1dbf 7b9a cabe a772 f7be
00000010: f2dc 35bf a12b e8be 102a 06bf 10bc b7be
00000020: ee68 1dbf 43df 3cbf 5ad7 0ebf 7414 19bf
00000030: 9cb5 8dbe 9813 debe 7457 18bf 4b43 46bf
00000040: 0d0c 8ebf a8f0 08bf e462 e2be 6f36 1ebf
00000050: 1807 0bbf b1ec 1ebf e241 febe 76eb f0be
00000060: 7569 3bbf 3c2e e3be 2374 b9be e053 2bbf
00000070: 780b 25bf bb6a cdbe a36c 2dbf 380b bfbe
00000080: 9a4b 1ebf af80 a3be 25c7 48bf c2f7 30bf
00000090: cf12 09bf 5254 4cbf d6e7 d3be f5aa cfbe
000000a0: bcef d7be ccbc 19bf 820a f0be 96f5 f0be
000000b0: 25c6 30bf 511a 02bf b6bc f4be cd7a f3be
000000c0: 370b e9be 187d ccbe 5251 a8be 1f5d 0ebf
000000d0: bd3f f8be b23b 2bbf 9d17 2fbf 5e19 42bf
000000e0: 0938 f4be 7afb e3be d13e 31bf ae76 36bf
000000f0: 92fc d8be 7bd5 2fbf c031 10bf 43d1 09bf
-0.5047626 -0.6171044 -0.39570984 -0.4832966 -0.7104026 -0.45345786 -0.5240793 -0.35885668
-0.61488235 -0.7377817 -0.5579735 -0.59796834 -0.2767762 -0.43374324 -0.5950844 -0.7744643
-1.1097428 -0.5349221 -0.44216073 -0.6180181 -0.543077 -0.6207991 -0.4965964 -0.47054642
-0.7320779 -0.44371212 -0.36221418 -0.6692486 -0.64470625 -0.4012049 -0.6774389 -0.37313247
-0.6183411 -0.31934115 -0.7842887 -0.6912805 -0.53544325 -0.7981616 -0.41387814 -0.40560117
-0.4217509 -0.60053706 -0.46883017 -0.47062367 -0.69052345 -0.50821406 -0.47800225 -0.47554627
-0.4551637 -0.3993919 -0.32874542 -0.5561084 -0.48486128 -0.6688796 -0.68395406 -0.7581996
-0.47699 -0.445278 -0.69236475 -0.7127484 -0.42380196 -0.6868512 -0.5632591 -0.53834933

conv_blocks.0.1.running_mean f4 [64]
00000000: 9366 d4be fcb5 02bf b2f7 8bbe fdd1 d7be
00000010: 6fc9 04bf 2763 05be 9331 a7be c36d 74ba
00000020: f910 bcbe a587 efbe ac21 5abe 5c93 febe
00000030: 4b54 eebd 00b1 4dbe 4c8a e3be 15b7 03bf
00000040: e82d 1dbf 80f1 c7be f64d 52be 2313 c3be
00000050: 0b53 d3be 2b74 05bf 4be2 bfbe 229a b7be
00000060: b0e5 9cbe cb44 27bd 4ce4 babd 437c 00bf
00000070: 75c0 c1bd b150 99be 8af8 afbe bb44 17be
00000080: c1ea a1be 2d5d 62be 39ca 03bf f634 f2be
00000090: bb59 b6be f8ca f9be 89e4 51be da8c 2c3d
000000a0: b3f1 95be 4958 e4be e291 b8be 03af 80be
000000b0: 8c37 cebe 9d16 dabe 6e28 b2be 7959 2f3d
000000c0: 08a1 bebe b08e 97be c703 7fbd 3697 d2be
000000d0: fa6d b4be 0f56 fdbe c7a8 393d f540 b9be
000000e0: b9b4 2dbe 0ff7 a6be 728e c1be 3e4d f1be
000000f0: 1cdf 70be 24a4 e8be ce66 bcbe b74f bdbe
-0.41484508 -0.51058936 -0.27337414 -0.42152396 -0.51869863 -0.13026105 -0.3265501 -0.0009324217
-0.367317 -0.46783176 -0.21301907 -0.497218 -0.11637171 -0.20087051 -0.4444145 -0.51451236
-0.6139817 -0.39051437 -0.20537552 -0.38100538 -0.41274294 -0.52130383 -0.37477335 -0.35859782
-0.30643988 -0.04083709 -0.091255754 -0.5018961 -0.094605364 -0.29944375 -0.34369308 -0.14772312
-0.31624416 -0.22105856 -0.5148044 -0.4730603 -0.35615334 -0.48787665 -0.20497335 0.042126514
-0.29285964 -0.44598606 -0.360488 -0.25133523 -0.40276754 -0.42595378 -0.3479647 0.042809937
-0.37232232 -0.2960105 -0.06225946 -0.4113099 -0.35240155 -0.4947972 0.045326974 -0.3618237
-0.16963471 -0.32610366 -0.3780399 -0.47129244 -0.2352261 -0.4543773 -0.36797184 -0.3697488

conv_blocks.0.1.running_var f4 [64]
00000000: 8868 233e b5bc 283e 8073 173e 6359 2c3e
00000010: 388d 463e e434 243e bc0c 3a3e 4dd2 1b3e
00000020: 4a57 653e a266 4f3e 4895 0a3e 83dc 453e
00000030: e9a2 223e 2935 103e e4fb 893e 7b65 1d3e
00000040: 729f 263e 8d98 3d3e 0617 0e3e 605e 563e
00000050: 42c0 323e ac63 4d3e b164 553e 1b7e 093e
00000060: 737b 3a3e 4beb 113e 9214 eb3d 89e1 273e
00000070: de89 323e 0142 053e 6012 483e 392d 2b3e
00000080: bdc3 063e b7c2 173e d2fe 2f3e f84e 3e3e
00000090: 5271 503e 72c2 183e 977a 0b3e 320e 113e
000000a0: 6f81 043e 2bbb 193e c513 433e 867d 153e
000000b0: 2747 713e 0a5b 873e d885 1b3e 241e 013e
000000c0: 0ebd 3a3e ae1f 513e f1b6 233e 99ce 0f3e
000000d0: 7f52 f63d 3ee9 353e 37d6 003e 9ede f83d
000000e0: 03e6 203e 5415 203e 563d 813e e646 283e
000000f0: 052a 2a3e d5b0 323e c93e 5f3e 4bac 203e
0.15957844 0.16478236 0.14790154 0.16830973 0.19389808 0.16035801 0.1816892 0.15216942
0.2239658 0.20253995 0.13533509 0.193224 0.15882458 0.14082779 0.2694999 0.15370743
0.16271761 0.18515225 0.1387597 0.20934439 0.17456153 0.20057553 0.20839192 0.13427012
0.18211155 0.14249913 0.11478533 0.16394629 0.17435405 0.1301346 0.1953826 0.1671647
0.13160606 0.14820372 0.1718705 0.18584812 0.20355728 0.14917925 0.13620983 0.14165571
0.1294 0.15012805 0.1905051 0.14598665 0.23562299 0.26436645 0.15187776 0.12609154
0.18236181 0.20422241 0.15987755 0.14043655 0.12027454 0.17764756 0.12581716 0.12151836
0.15712743 0.15633136 0.25242108 0.16433296 0.16617592 0.17450269 0.21801294 0.15690725

conv_blocks.0.4.weight f4 [64, 64, 3]
00000000: d75c a1bd 14af b03d cd31 b23a b86b cabb
00000010: 6ddb 963d 113f 603e bc57 5fbd 01d2 cfbd
00000020: 22d2 79be e296 2cbe a2aa e83d f349 debd
00000030: ee5a 443d cc27 c3bd 01d9 c8be 79da 75be
00000040: 5f8a 1dbd be52 75be 97d6 c03d 9441 1f3e
00000050: 1878 7abe e53f 6d3a 3037 80be ab3c 26be
00000060: c5c4 0d3e be36 893e ed94 b1bd 1f92 253e
00000070: 79ab 26be cc7a 49bc 7f25 11be f06f 1ebe
00000080: 5472 8abd 5e20 553e c0e4 a53e ef2c 0c3e
00000090: 5e36 2ebc 9796 efbc 0edf 0bbe 9ced 11bd
000000a0: fcc3 01be 380d e1bd 8674 54be 454a 53be
000000b0: 1cad 4e3c 00fe c1bc dd4f 5e3e 4bb6 023d
000000c0: 02bf 9fbd 0fe8 293e c7d3 e53e 6d18 37be
000000d0: 874b b3be a624 e2bb fb03 efbd 6a1e 8cbe
000000e0: 2abf 453d e97c 32be 5fd4 f3bd 88f9 913d
000000f0: c849 f93c fe17 a7bd d8d2 4b3e a534 c1bc
00000100: 840a 14be 9cdf 5bbd 3c9e 2bbc 4989 edbc
00000110: 6d7a a0bd 9762 f93c 8040 ae3c 7138 e6bc
00000120: 9359 c63e 4f17 ac3e ca4e 42be 16b7 c6bd
00000130: 42d5 b03e 37dc 02bd 7a57 80be 73f1 cdbe
00000140: 0610 53bb b270 5b3e 9565 55bd ef80 8dbe
00000150: 5b71 823e 1ad1 953d 53e7 9ebd 0eed 0d3e
00000160: 346c 533e 02d6 2ebe 53b3 d63d 462c 4a3e
00000170: e5fe d7be 7f54 033e b0a2 893e 632e 1dbf
00000180: 54c7 31be 0815 10be 3073 a9ba 7b2e f8bd
00000190: 21ef b83d eaa5 aa3d 7423 67bd 4f8b 99be
000001a0: e8ab 073d 2004 6dbe 1a3a 09be 9e1c 20bd
000001b0: 3c1d 093e db15 28be 59e5 0e3e b307 90be
000001c0: a6d9 9fbe 70dd 0abc 7c7c ee3d 5d19 163e
000001d0: 6d7f 783c 67c5 01be b206 1cbe 68d4 74be
000001e0: 4dc8 843d 18eb 96bd d13e 3e3c 0ef0 0dbc
000001f0: 294a 86be 91a1 023e d6ce b73c c2d5 ae3d
00000200: cf4c ffbd e210 20be d4d3 11be c357 003d
00000210: 2b7a 42be bbf4 37be 73bd 973d 8caf d2bd
00000220: 9204 f6bd 8884 b93c 88ef a33d 6845 acbe
00000230: 0fa7 903d 60c9 653b 8840 6b3c 92c6 c63b
00000240: e609 b9bd 287a fb3d ca5f 0cbd 1db4 5c3c
00000250: a0a4 acbe 48a9 cdbc 76ce 14be d444 37be
00000260: bbdb 1fbe 86a8 153d cd57 a9bd eac3 b0bd
00000270: 1d69 abbd a8da 90be 21dd 13bd f9e4 45be
00000280: 2cd4 2ebe a8ef 15be 8280 c7bd 1f7d 80be
00000290: f7a1 24bd 6510 2a3d 0bc8 82bd 6423 a0be
000002a0: cbf5 1a3a 68f3 c63c 1f39 1cbc d36e 66be
000002b0: 4949 b13e 3ad5 75be b9b3 1dbe c22c 3fbe
000002c0: b568 8dbe 887a f3bd fe01 6bbe 0ec1 c0bd
000002d0: 5e88 5bbe c481 8dbe a67c 58be 7aad bfbe
000002e0: d6a7 f7bd bb8d b3bd d392 4ebd 018e 823e
000002f0: 63eb d8bc e9c7 91bd 0c02 cbbd 8e28 9fbc
00000300: c419 ef3c 7288 b0bd bc76 e2bb da79 dcbc
00000310: 3444 58be 1f54 01be 9540 75bc 2a85 233e
00000320: 7abb f3bd 11df 89bd 7d6c c53d 6d15 75bd
00000330: dacb 473c 033c cfbd adbc 943c e602 793d
00000340: 4b4f 94bd 6486 b2bc d2a0 01be cc8b 24be
00000350: c86c 11be 0682 76bd 0277 3fbc 6390 503c
00000360: 6fff 14bd ca10 f8bc fb28 943d d5af 623d
00000370: d55a 4c3d 5e09 1c3d d5b6 21be ede6 95bd
00000380: 07b5 bb3c 1a10 9b3d 9e6e 833e 8745 e5bc
00000390: a9dd 693e dd8d 883d bf5c 29be f997 8dbd
000003a0: 5116 613e 6dfa ae3d 533f 03be 0c3a 62bd
000003b0: 606c 51be 158a 233d 882a 573b 1e40 733d
000003c0: a76b b0bb 4866 9d3d 49b0 5bbe 2f27 563e
000003d0: 3542 ce3e a125 553e 1366 95bd 0963 db39
000003e0: 50d2 c03d 9c14 7fbc e36c e23e bda6 f8bd
000003f0: fafc 9ebc d522 b93d 400c 983d 97eb 9bbe
-0.07879036 0.086271435 0.0013595164 -0.006177392 0.07366071 0.21899058 -0.05452703 -0.10147477
-0.24396566 -0.16854432 0.113606706 -0.108539484 0.04793828 -0.09529075 -0.3922806 -0.24009122
-0.03846204 -0.23957345 0.0941593 0.1555236 -0.24459875 0.00090503535 -0.25042105 -0.1623408
0.13844593 0.26799577 -0.086709835 0.16169022 -0.16276349 -0.012297343 -0.1417446 -0.15472388
-0.067600876 0.20813128 0.32401085 0.13689016 -0.010633079 -0.029246612 -0.13659307 -0.035626993
-0.12672418 -0.109888494 -0.20747575 -0.206338 0.012614515 -0.023680687 0.21710153 0.03191213
-0.07800104 0.1659243 0.44888136 -0.17880411 -0.3501856 -0.0069013415 -0.11670681 -0.27366954
0.04827801 -0.17430462 -0.11905741 0.071276724 0.03043069 -0.08158873 0.1990465 -0.023584673
-0.14457136 -0.053680047 -0.010474738 -0.028996127 -0.07835851 0.03044252 0.02127099 -0.028103085
0.38740215 0.33611533 -0.18975368 -0.097028896 0.34537703 -0.031948294 -0.2506674 -0.40223274
-0.0032205596 0.21429709 -0.05209883 -0.2763743 0.25477108 0.073152736 -0.07758965 0.1385996
0.20646745 -0.17073825 0.10483422 0.19743451 -0.42186657 0.12825201 0.26881933 -0.61398906
-0.17361194 -0.14070523 -0.0012928005 -0.121182404 0.09029985 0.08332427 -0.056430295 -0.29989097
0.033122927 -0.23146105 -0.1340107 -0.03908979 0.13390058 -0.16414587 0.13954677 -0.28130874
-0.3122074 -0.008475646 0.11644837 0.14658113 0.015167099 -0.1267296 -0.15236929 -0.23909152
0.06483517 -0.07369059 0.011611656 -0.0086631905 -0.26228455 0.12756945 0.022437494 0.08536865
-0.12465822 -0.1563144 -0.14240962 0.031333696 -0.18991916 -0.17964451 0.074091814 -0.10287389
-0.120125905 0.022646204 0.08004671 -0.33646703 0.07063114 0.0035062656 0.014358647 0.006066152
-0.09035091 0.12279159 -0.03427104 0.013470677 -0.3371935 -0.025105134 -0.14531884 -0.1789735
-0.15611164 0.03653767 -0.082687 -0.08631118 -0.08369658 -0.2829182 -0.036099557 -0.19325627
-0.17073125 -0.14642203 -0.09741308 -0.2509546 -0.040193524 0.04151954 -0.063858114 -0.31277
0.000591126 0.024285987 -0.009535103 -0.22503214 0.34626225 -0.2400712 -0.1540059 -0.18669418
-0.27618948 -0.11888605 -0.22949979 -0.09411822 -0.21438739 -0.27638066 -0.211413 -0.3743704
-0.12092559 -0.08767267 -0.05043299 0.25498965 -0.026479429 -0.07118208 -0.099125 -0.019428518
0.02918709 -0.08619775 -0.006911127 -0.026913572 -0.21119767 -0.12629746 -0.014969011 0.15968767
-0.11900993 -0.06732 0.09639833 -0.059834886 0.012194598 -0.10118868 0.018156374 0.06079378
-0.072416864 -0.021792598 -0.12659004 -0.16068953 -0.14201653 -0.060182594 -0.0116860885 0.012729737
-0.036376413 -0.030281443 0.07234379 0.055343468 0.04989131 0.03809487 -0.15792401 -0.07319436
0.022913469 0.075714305 0.25670332 -0.027987255 0.22838463 0.06667683 -0.16539286 -0.06913752
0.2198117 0.08543859 -0.12817125 -0.05523114 -0.20451498 0.039926607 0.0032831747 0.05938732
-0.005383927 0.07685524 -0.21453966 0.20913385 0.40284887 0.20815136 -0.0729486 0.00041844722
0.09415114 -0.0155688785 0.442237 -0.12141178 -0.019407738 0.09039847 0.074242115 -0.30453178

conv_blocks.0.4.bias f4 [64]
00000000: 416f 9c38 7e48 10b6 5c04 e836 cf9f 7737
00000010: 215a cfb7 b936 ddb7 8b6e bd37 2c70 1eb6
00000020: 4235 8538 0b70 22b7 2344 97b6 9158 54b7
00000030: ed9d c936 3bec 7eb7 4c48 a4b5 f819 3fb8
00000040: 5757 3238 1668 16b6 232e 4eb7 4098 19b8
00000050: 251c 4337 84e3 31b8 eb3b 3b37 add6 28b8
00000060: 6d90 ff37 0cbd beb7 952d f1b5 9530 ecb6
00000070: d21f 65b7 a74d 46b8 7dcd 76b5 ffdc 0d38
00000080: ea82 76b8 ea4b 41b5 96a2 17b6 55c6 8137
00000090: bf48 2c37 d0d1 d4b7 c825 beb5 ae1b fdb7
000000a0: e2b3 5ab7 d9d0 ffb7 d139 8337 120a 9fb8
000000b0: 2778 6b35 1656 1f37 0fd7 4135 6ab0 26b7
000000c0: 9b7f 8eb6 5158 81b7 e3dd a6b7 0ad4 7537
000000d0: 0028 b3b7 3e83 c835 fb3a 08b7 97e5 5636
000000e0: 5baf dd37 4408 b336 8ade 8a37 1962 8536
000000f0: 0765 5436 d4b2 8b37 78b8 57b6 7e7f 2d37
7.459382e-05 -2.1499868e-06 6.9146463e-06 1.4759556e-05 -2.4718292e-05 -2.6370735e-05 2.2582031e-05 -2.3609127e-06
6.351854e-05 -9.6820395e-06 -4.508083e-06 -1.2656806e-05 6.008652e-06 -1.51945815e-05 -1.2239993e-06 -4.5562134e-05
4.251985e-05 -2.2412328e-06 -1.2289299e-05 -3.6619836e-05 1.1629459e-05 -4.241198e-05 1.1160019e-05 -4.0254254e-05
3.0465622e-05 -2.2737797e-05 -1.7969165e-06 -7.039004e-06 -1.3656872e-05 -4.7279198e-05 -9.1941166e-07 3.382284e-05
-5.8772894e-05 -7.200857e-07 -2.259539e-06 1.5470354e-05 1.0268936e-05 -2.5370071e-05 -1.4167099e-06 -3.017284e-05
-1.3035695e-05 -3.0495621e-05 1.564334e-05 -7.5835866e-05 8.7719167e-07 9.497182e-06 7.2211054e-07 -9.935446e-06
-4.246785e-06 -1.5419124e-05 -1.9892066e-05 1.4652507e-05 -2.135709e-05 1.4939358e-06 -8.119964e-06 3.2022124e-06
2.642691e-05 5.335578e-06 1.655451e-05 3.975129e-06 3.1649267e-06 1.6653365e-05 -3.2144872e-06 1.0341288e-05

conv_blocks.0.5.weight f4 [64]
00000000: 8542 3b3f 2fa3 473f 0a46 163f 6067 2f3f
00000010: ca2f 343f 78f7 0e3f 8b09 273f 99b7 293f
00000020: 2c82 343f 2acb 373f beac 7a3f e301 1d3f
00000030: 2d61 253f 246f 273f 79eb 3e3f 3332 223f
00000040: 9117 3a3f 310e 413f 1799 233f e6fc 303f
00000050: d0bb 383f cc3b 223f 2321 5a3f 108f 1b3f
00000060: d716 453f f527 3d3f d67f 313f d7c0 153f
00000070: 64ca 2e3f 5d41 2d3f 43d9 183f e86d 3d3f
00000080: ab86 313f 8131 443f fccb 2c3f 1590 303f
00000090: e79f 293f 1ff4 2c3f 3cc2 2c3f 8101 463f
000000a0: 8d2a 193f debd 3a3f 91a9 2e3f 2757 193f
000000b0: e314 383f c369 1b3f 727a 593f 7883 313f
000000c0: 2bb2 1c3f a3c6 2c3f 2481 783f e5f3 4a3f
000000d0: 5413 2c3f b208 713f 4f2e 5e3f b443 1d3f
000000e0: eb91 373f a530 3c3f 7c91 0d3f 53ea 5a3f
000000f0: c97e 293f 4bee 433f 3e0c 2f3f 4a13 243f
0.73148376 0.77983373 0.5870062 0.6851711 0.7038542 0.5584636 0.65248936 0.6629577
0.70511127 0.7179438 0.97919834 0.61331004 0.64601403 0.6540396 0.7457805 0.6335785
0.7269221 0.7541228 0.6390547 0.6913589 0.7216158 0.6337249 0.8520681 0.6076517
0.76987976 0.73889095 0.6933569 0.58497375 0.68277574 0.6767786 0.59706515 0.7399583
0.6934611 0.76638037 0.67498755 0.6896985 0.66259617 0.6756 0.6748388 0.77346045
0.5983055 0.72945964 0.6822749 0.5989861 0.7190687 0.60708255 0.8495246 0.6934123
0.6120936 0.67490596 0.9707205 0.79278404 0.6721699 0.94153893 0.8678941 0.6143143
0.7170703 0.73511726 0.55300117 0.855138 0.66209084 0.7653548 0.68378055 0.6409193

conv_blocks.0.5.bias f4 [64]
00000000: 598b 39bf 8947 a4be 689f f9be 0932 e9be
00000010: 3914 21bf 7517 73be 5e46 18bf 1f07 13bf
00000020: 29eb bfbe 37e7 22bf 5227 02be f9f3 e4be
00000030: 6284 26bf 9f44 3bbf 25e4 84be 6965 e5be
00000040: ff6f 14bf d7e7 31bf b78d f3be 9082 0bbf
00000050: 543e babe 08bc dabe 6141 a5bd 4b4a dfbe
00000060: 98b4 53bf 0b9b 59bf d7f7 67bf 9ed5 d9be
00000070: 69db f7be c814 9fbe a945 d0be 67d8 38bf
00000080: cbd7 1dbf 2c62 1ebf c4f2 0abf 04af 0cbf
00000090: 8e47 38bf ee0e 48bf 2909 1fbf be4f 33be
000000a0: 1be2 0abf 4dc2 19bf 3d5a b3be 23a3 a2be
000000b0: 1a56 3cbe 4b65 26bf 46c8 44bf 0ab2 2abf
000000c0: 3d02 82be 21be 07bf 910c 0dbe 3d76 f9be
000000d0: 5e48 bfbe 8b36 74be 599f d6be 7ef6 8dbe
000000e0: b984 03bf b6c8 11bf e4d2 babe febb 81be
000000f0: 7cab f0be cd2b e3be e176 3cbf d14b 24bf
-0.7247825 -0.32085827 -0.4875443 -0.45545986 -0.6292148 -0.23739417 -0.5948237 -0.5743274
-0.374841 -0.63634056 -0.12710312 -0.44717386 -0.6504575 -0.7315158 -0.2595531 -0.44803932
-0.5798339 -0.69494385 -0.47569057 -0.544961 -0.36375678 -0.4272158 -0.08069111 -0.4361137
-0.8269744 -0.850022 -0.9061255 -0.4254579 -0.48409584 -0.31070542 -0.40678146 -0.72205204
-0.616574 -0.6186855 -0.5427668 -0.5495455 -0.71984184 -0.7814778 -0.6212335 -0.17510888
-0.5425126 -0.60062104 -0.35029784 -0.31765088 -0.1839222 -0.6499831 -0.76868093 -0.66677916
-0.25392333 -0.5302449 -0.13774325 -0.4872302 -0.373599 -0.23848931 -0.41918448 -0.2772712
-0.51374394 -0.56946886 -0.36489022 -0.2533874 -0.47005832 -0.44369355 -0.73618895 -0.64178187

conv_blocks.0.5.running_mean f4 [64]
00000000: fb57 12bf ef8c 2e3e 9a59 e4be b8a3 aabe
00000010: ec39 07be 29ed 62be ea46 d7be 7361 a9bd
00000020: 2eee cdbd edb1 7dbe 7d21 853e 34a9 a7be
00000030: 0fb6 babe 76c8 35bf d7f4 9a3c 2f91 95be
00000040: 13d8 1f3d a936 d5bd e3ff 33be f21c 9fbe
00000050: 30c3 913d 745e b3be 7b23 053e 876f 98be
00000060: 57e4 30bf e290 adbe 22a5 f3be 5119 62be
00000070: 7c32 f7bd 9ff3 9dbe 1025 d7bd f631 ffbe
00000080: 1477 e7be cf4e b83b 500b 79be d5b9 b4be
00000090: 6f66 c6be d021 0ebf 0f1c ccbe 7d36 c03d
000000a0: 61df ccbe b5e7 d4be 1002 19be 0e9d 74be
000000b0: 4cda bd3d a89e 9ebe 1ac8 0fbe cfba a8be
000000c0: 670e 863d 262e e73d fafe 4a3e 1a54 bcbe
000000d0: 3902 16be f479 563e 9889 4c3e 0a78 6fbd
000000e0: ecd6 26bb 6a95 e4be 3419 8cbe b2dd 8d3e
000000f0: 5cd3 6f3d cc42 5d3d 1e8f d9be 21a9 91be
-0.571655 0.1704595 -0.4459961 -0.33328032 -0.13205689 -0.22160782 -0.4204629 -0.0827054
-0.10055195 -0.24774905 0.26002112 -0.3274628 -0.36467025 -0.71009004 0.018915577 -0.2921233
0.039024424 -0.10410816 -0.17578082 -0.3107677 0.07117307 -0.35033 0.13001816 -0.2977259
-0.6909842 -0.338996 -0.47586924 -0.2207997 -0.12070176 -0.3084993 -0.10505116 -0.49842805
-0.45208037 0.005624629 -0.24320722 -0.3529803 -0.38750026 -0.55520344 -0.39865157 0.09385393
-0.40014175 -0.41583028 -0.14942193 -0.23888037 0.092701524 -0.3098042 -0.14041176 -0.32955024
0.06545716 0.11288099 0.19823828 -0.36782914 -0.14649285 0.20944959 0.19974363 -0.058464088
-0.0025457693 -0.44645244 -0.27362978 0.27708203 0.058551177 0.05401878 -0.42492002 -0.28449348

conv_blocks.0.5.running_var f4 [64]
00000000: 4d37 9f3e f581 703e 0f89 433e 8281 523e
00000010: 1182 173e 7a6b 4f3e 4a12 4e3e 3e7f 2d3e
00000020: aa62 653e 4a30 323e edca c33e 016e 3c3e
00000030: 224c 523e 6e1c 703e 2ea5 3c3e cbe3 1d3e
00000040: 60ed 423e e9c8 3f3e 5b61 3d3e 6758 4e3e
00000050: 46e0 5e3e f95b 3e3e 5f80 b33e 2140 2a3e
00000060: dc1a bc3e 1a25 413e 26b3 273e 57e0 303e
00000070: 3118 4b3e 96b0 803e dc84 243e 2e43 903e
00000080: 3c4a 413e 217f 763e e898 4b3e 1609 773e
00000090: 3d51 2d3e ee0a 703e 0650 673e 9b26 893e
000000a0: ad0e 433e 54fa 733e e0ea 6e3e de1b 413e
000000b0: fd42 673e 9f30 5b3e 42b2 533e f963 4d3e
000000c0: 60f3 683e 7a79 343e 16d2 b63e f88c 613e
000000d0: e897 3a3e 1efd 953e 3149 373e a46a 363e
000000e0: f7c5 543e 39f9 4e3e 73a6 243e ec8f 903e
000000f0: 043b 2c3e a019 5f3e ffbf 553e cf9e 183e
0.3109688 0.23487075 0.19095252 0.20557216 0.1479571 0.20255843 0.20124164 0.1694307
0.22400919 0.17401233 0.38240758 0.18401338 0.20536855 0.23448345 0.18422386 0.15418927
0.19035864 0.18728985 0.1849417 0.2015091 0.21765241 0.18589772 0.35058877 0.16626026
0.36739242 0.1886181 0.16376933 0.17273079 0.19833447 0.25134724 0.16066307 0.28176254
0.18875974 0.24071933 0.19882548 0.2412456 0.16925521 0.2344167 0.2258912 0.26787266
0.19048567 0.23825961 0.23331785 0.18858287 0.22584148 0.21405266 0.20673469 0.20057668
0.2274909 0.17624465 0.35707158 0.22026432 0.1822201 0.29294676 0.17899014 0.17814118
0.20778643 0.20212258 0.1607912 0.28234804 0.16819388 0.21787119 0.20874022 0.1490433
