emulation/models/checkpoint/cnn/best_TextCNN1_iscxvpn.pth (torch, 151282 bytes, 16 tensors)

len_embedding.weight f4 [1501, 10]
4.90616e-40 -4.94863e-40 4.94472e-40 4.92743e-40 4.92102e-40 4.94752e-40 5.14815e-40 4.94054e-40
-4.93906e-40 5.02651e-40 -4.92793e-40 4.91085e-40 4.94856e-40 -4.91133e-40 4.94577e-40 4.92238e-40
4.95456e-40 4.91583e-40 -4.94765e-40 -4.92577e-40 -4.94294e-40 4.90707e-40 4.9458e-40 4.94738e-40
-4.94801e-40 4.93197e-40 -5.34936e-40 4.95377e-40 -4.9519e-40 4.93225e-40 -4.95014e-40 4.9131e-40
4.94473e-40 4.9441e-40 -4.92837e-40 -4.94183e-40 4.92258e-40 -4.94604e-40 -4.90958e-40 -4.94054e-40
-4.9214e-40 4.94021e-40 4.93665e-40 5.3121e-40 -4.9119e-40 4.93372e-40 4.93963e-40 -4.94601e-40
5.80178e-40 -4.93096e-40 4.92811e-40 5.06799e-40 4.9479e-40 -4.9533e-40 -4.9058e-40 -4.92402e-40
5.18237e-40 4.91707e-40 4.92844e-40 -4.92088e-40 4.90586e-40 -4.92297e-40 -5.01759e-40 -4.95758e-40
-4.92315e-40 -4.941e-40 -4.97891e-40 4.91919e-40 -4.9541e-40 4.9445e-40 4.93693e-40 4.91574e-40
-6.2374e-40 4.93955e-40 4.9239e-40 4.90695e-40 -4.90475e-40 4.93813e-40 4.92017e-40 4.91784e-40
4.92287e-40 -4.91975e-40 -4.91089e-40 5.38527e-40 -4.95023e-40 -4.95196e-40 -5.86061e-40 4.92429e-40
4.92734e-40 -4.95356e-40 -4.90767e-40 -5.5243e-40 -4.94693e-40 4.94252e-40 4.95437e-40 -4.94237e-40
-5.47015e-40 -4.92471e-40 4.92691e-40 4.96287e-40 5.0923e-40 -4.95348e-40 -4.9614e-40 -4.91039e-40
-4.92917e-40 5.02553e-40 5.55208e-40 4.90781e-40 -4.92128e-40 4.9905e-40 4.93619e-40 -4.9147e-40
4.91606e-40 4.94696e-40 -4.90532e-40 4.91295e-40 -4.92706e-40 4.93003e-40 4.91368e-40 4.93364e-40
-4.91287e-40 4.94417e-40 4.93296e-40 4.93979e-40 4.95003e-40 4.92317e-40 4.91344e-40 -4.9159e-40
4.91682e-40 -4.92213e-40 -4.94064e-40 -4.94909e-40 4.9462e-40 -4.91004e-40 -4.93734e-40 -4.93561e-40
-4.95812e-40 -4.91794e-40 4.92774e-40 -4.90634e-40 4.91905e-40 -4.94615e-40 4.95366e-40 -4.93198e-40
-4.95596e-40 4.93673e-40 4.90955e-40 4.95065e-40 4.96556e-40 -4.95166e-40 4.91238e-40 -4.93982e-40
4.92985e-40 -4.94284e-40 -4.9207e-40 -4.91176e-40 4.93883e-40 4.90955e-40 4.91067e-40 4.94293e-40
-4.94304e-40 -4.93211e-40 4.95282e-40 -4.94405e-40 4.92866e-40 -4.93228e-40 -4.93946e-40 4.91206e-40
4.91297e-40 -4.91093e-40 4.90515e-40 4.94427e-40 4.95288e-40 -4.91944e-40 -4.94595e-40 -4.95271e-40
-4.9262e-40 -4.94038e-40 5.03764e-40 -4.9062e-40 -4.90994e-40 4.91713e-40 -5.0903e-40 4.92853e-40
4.97027e-40 4.96305e-40 -4.95395e-40 4.93755e-40 -4.9352e-40 4.92282e-40 4.9477e-40 5.48423e-40
-4.94887e-40 4.94165e-40 4.92188e-40 4.94277e-40 4.9405e-40 -4.94314e-40 -4.95052e-40 -4.92526e-40
-4.9088e-40 4.94071e-40 4.91824e-40 -4.94478e-40 -4.943e-40 4.9224e-40 -4.92572e-40 4.91099e-40
-4.90548e-40 -4.95367e-40 4.93443e-40 -5.00198e-40 4.95998e-40 -4.92506e-40 -4.9489e-40 -4.92741e-40
-4.91431e-40 -4.92825e-40 -4.91434e-40 -4.91592e-40 -5.05304e-40 -4.949e-40 4.95516e-40 -5.45647e-40
4.9183e-40 4.94277e-40 -4.91057e-40 -4.92416e-40 5.01309e-40 4.95474e-40 -4.91343e-40 4.92911e-40
-4.93491e-40 4.94301e-40 -4.9536e-40 -4.95196e-40 -4.94734e-40 -4.91056e-40 4.9208e-40 4.91099e-40
-4.92803e-40 4.932e-40 4.93798e-40 4.9089e-40 -4.9877e-40 5.60184e-40 -4.9516e-40 4.91678e-40
-4.942e-40 4.90893e-40 4.90952e-40 -4.96581e-40 4.92465e-40 4.97322e-40 4.95742e-40 4.95226e-40
00000000: a357 0500 7a63 0580 6362 0500 915d 0500
00000010: c85b 0500 2b63 0500 189b 0500 3961 0500
00000020: cf60 0580 3079 0500 b55d 0580 f258 0500
00000030: 7563 0500 1459 0580 ae62 0500 295c 0500
00000040: 2165 0500 555a 0500 3463 0580 1b5d 0580
00000050: e461 0580 e457 0500 b062 0500 2163 0500
00000060: 4e63 0580 d55e 0500 2fd3 0580 e964 0500
00000070: 6364 0580 e95e 0500 e663 0580 9359 0500
00000080: 6462 0500 3762 0500 d45d 0580 9561 0580
00000090: 375c 0500 c162 0580 9758 0580 3961 0580
000000a0: e35b 0580 2161 0500 2360 0500 ccc8 0500
000000b0: 3d59 0580 525f 0500 f860 0500 bf62 0580
000000c0: 4d51 0600 8d5e 0580 c25d 0500 c084 0500
000000d0: 4663 0500 c764 0580 8a57 0580 9e5c 0580
000000e0: a2a4 0500 ae5a 0500 d95d 0500 be5b 0580
000000f0: 8e57 0500 535c 0580 b376 0580 f965 0580
00000100: 605c 0580 5a61 0580 eb6b 0580 455b 0500
00000110: 0065 0580 5362 0500 3760 0500 4f5a 0500
00000120: bcca 0680 f260 0500 955c 0500 dc57 0500
00000130: 3f57 0580 8d60 0500 8b5b 0500 e55a 0500
00000140: 4c5c 0500 6d5b 0580 f558 0580 32dd 0500
00000150: ec63 0580 6864 0580 b361 0680 b15c 0500
00000160: 8b5d 0500 da64 0580 0f58 0580 f303 0680
00000170: 0163 0580 c661 0500 1465 0500 bb61 0580
00000180: dbf4 0580 cf5c 0580 6c5d 0500 7267 0500
00000190: 878b 0500 d464 0580 0967 0580 d158 0580
000001a0: 0d5e 0580 ea78 0500 b20b 0600 1958 0500
000001b0: da5b 0580 266f 0500 0260 0500 055a 0580
000001c0: 665a 0500 0363 0500 6757 0580 8859 0500
000001d0: 775d 0580 4b5e 0500 bc59 0500 4c5f 0500
000001e0: 8259 0580 3c62 0500 1c5f 0500 0361 0500
000001f0: de63 0500 615c 0500 ab59 0500 5a5a 0580
00000200: 9c5a 0500 175c 0580 4061 0580 9b63 0580
00000210: cd62 0500 b858 0580 5460 0580 d95f 0580
00000220: 1f66 0580 ec5a 0580 a75d 0500 b057 0580
00000230: 3b5b 0500 c962 0580 e164 0500 d65e 0580
00000240: 8565 0580 2960 0500 9558 0500 0a64 0500
00000250: 3268 0500 5264 0580 5f59 0500 0561 0580
00000260: 3e5e 0500 dd61 0580 b15b 0580 3359 0580
00000270: bf60 0500 9558 0500 e558 0500 e361 0500
00000280: eb61 0580 df5e 0580 a564 0500 3362 0580
00000290: e95d 0500 eb5e 0580 ec60 0580 4859 0500
000002a0: 8959 0500 f858 0580 5b57 0500 4362 0500
000002b0: a964 0500 575b 0580 bb62 0580 9d64 0580
000002c0: 395d 0580 2d61 0580 4a7c 0500 a657 0580
000002d0: b158 0580 b25a 0500 f88a 0580 e05d 0500
000002e0: 8269 0500 7f67 0500 f664 0580 6360 0500
000002f0: bc5f 0580 485c 0500 3863 0500 c8f8 0500
00000300: 8b63 0580 8861 0500 055c 0500 d861 0500
00000310: 3661 0500 f261 0580 0164 0580 f65c 0580
00000320: 6058 0580 4561 0500 015b 0500 6762 0580
00000330: e861 0580 2a5c 0500 175d 0580 fc58 0500
00000340: 7357 0580 e264 0580 855f 0500 5972 0580
00000350: a466 0500 e85c 0580 8d63 0580 905d 0580
00000360: e959 0580 cc5d 0580 eb59 0580 5c5a 0580
00000370: 9580 0580 9463 0580 4c65 0500 0bf1 0580
00000380: 065b 0500 d861 0500 de58 0580 a85c 0580
00000390: 7275 0500 2e65 0500 aa59 0580 095e 0500
000003a0: a75f 0580 e961 0500 dd64 0580 6864 0580
000003b0: 1e63 0580 dd58 0580 b85b 0500 fc58 0500
000003c0: bc5d 0580 d75e 0500 8260 0500 6758 0500
000003d0: 5e6e 0580 9119 0600 4e64 0580 995a 0500
000003e0: a161 0580 6958 0500 9358 0500 4468 0580
000003f0: cb5c 0500 556a 0500 ed65 0500 7d64 0500

ipd_embedding.weight f4 [2561, 8]
0.13451344 -0.108737715 -0.14735705 0.26122457 0.1356975 -0.4663386 -0.13348034 -0.22144899
0.023095336 0.003322177 0.0008830271 0.007196581 0.03345375 -0.0068496265 -0.014828926 0.011651975
-0.17507839 0.064425915 0.048753254 -0.062458538 -0.025494441 0.1808291 -0.08789276 0.23928538
0.09041217 -0.011410619 -0.021461232 0.12132817 0.09921282 -0.06528756 0.035249833 0.08591684
0.40858775 -0.22067082 -0.0741098 0.0017027118 0.06813079 0.42648476 -0.34601414 0.1560806
0.036953352 -0.3375618 -0.039979335 0.11030564 0.12956797 0.22189991 0.21438093 0.57769686
-0.035245687 0.078341305 0.026841018 0.019134538 0.23215482 0.12676875 -0.419307 0.26733932
-0.28879595 0.782974 -0.07166545 0.052353267 0.120898515 0.3226943 -0.29278755 0.3843693
0.19131042 -0.1559827 -0.051969208 0.21658097 -0.086724214 -0.036085233 -0.15503095 -0.072540864
-0.5815057 -0.24654093 0.05644114 -0.121805035 -0.06505189 -0.5749035 -0.6023898 -0.028780853
0.23912013 0.9698996 -0.024087911 0.37699363 0.2443765 0.6512753 0.51410264 -0.02567211
-0.2096109 0.05636317 -0.16279747 0.40478665 -0.19290881 -0.41872868 -0.80150026 0.7353218
0.07682715 0.6580071 -0.078797065 0.2644107 -0.0054676165 0.2616666 -0.6007326 -0.11137668
0.1905954 -0.25425112 -0.03686515 0.08310917 -0.14082651 -0.037097894 -0.035874546 0.36772913
-0.045915525 -0.17705846 -0.06635744 -0.03844406 0.040906437 0.16911559 -0.44828212 0.032271508
0.060944173 0.85675424 0.014491757 0.14888474 -0.076276384 -0.07632217 -0.19303876 -0.15171154
-0.32676178 0.01566166 -0.15011679 -0.14352755 0.07194851 0.09383945 -0.23169354 0.021844307
0.30402666 0.87761635 -0.36087438 -0.19927092 -0.25066042 -0.17739353 -0.14448826 0.08535359
0.058207124 0.02086004 -0.051203113 -0.3245143 0.057715654 -0.019659055 1.0484387 0.54187745
-0.12071842 0.23849407 0.13198248 0.2505214 -0.06627294 0.11451616 0.15139276 -0.088600375
0.6839845 -0.5228502 -0.03229604 0.0071286885 -0.2754157 -0.25795665 0.0929853 0.2860724
0.23435944 0.7254629 -0.035594255 0.14021035 0.056464706 -0.41157106 0.069549836 -0.30980235
0.2964453 -0.17426974 -0.07406565 -0.031516336 -0.10436015 0.2255053 0.18111522 0.3097138
-0.20890631 0.9354602 -0.036669698 0.052562714 0.14985801 -1.3019155 -0.976124 0.054012768
0.22478184 -0.09759503 -0.30601645 -0.08189998 -0.031468924 0.7584948 -0.46326584 -0.28813022
-0.04862072 -0.08526702 -0.08375968 0.042143997 0.15495917 -0.45675316 0.17473324 0.5661893
-1.1328179 -0.11641811 -0.405325 0.37841117 0.56040937 0.17482078 -0.1946025 -0.83475846
-0.17130463 -0.30251375 0.041117053 0.044226 -0.008837804 -0.05072809 0.6926511 0.40739253
0.104031414 0.15402675 0.2211308 -0.101520404 0.052415837 -0.40012318 -0.76346695 -0.0032438105
-0.4130647 -0.43406034 -0.10195777 0.44714847 0.46500233 0.32021612 0.40134817 -0.3519084
0.17825088 -0.40587398 0.1787889 0.40518034 -0.19279444 0.18544805 -0.26195675 -0.39757755
-0.23382479 -0.35875806 0.042833604 -0.1045111 -0.008784842 0.080184914 0.081682935 -0.046613757
00000000: e4bd 093e e1b1 debd c4e4 16be 3abf 853e
00000010: 49f4 0a3e efc3 eebe 12af 08be 86c3 62be
00000020: 6e32 bd3c e2b8 593b f27a 673a 4cd1 eb3b
00000030: cd06 093d d572 e0bb 06f5 72bc ede7 3e3c
00000040: c047 33be bcf1 833d 7eb1 473d 86d4 7fbd
00000050: b8d9 d0bc 432b 393e 1f01 b4bd 3a07 753e
00000060: 042a b93d 9bf3 3abc 77cf afbc e77a f83d
00000070: 1730 cb3d 7cb5 85bd 2162 103d 2bf5 af3d
00000080: 6a32 d13e 88f7 61be e1c6 97bd 872d df3a
00000090: 2888 8b3d 365c da3e c428 b1be 98d3 1f3e
000000a0: 665c 173d e6d4 acbe 5fc1 23bd ece7 e13d
000000b0: 77ad 043e bb39 633e ad86 5b3e f1e3 133f
000000c0: c85d 10bd 6871 a03d b2e1 db3c 09c0 9c3c
000000d0: feb9 6d3e abcf 013e 68af d6be b3e0 883e
000000e0: 10dd 93be fc70 483f 56c5 92bd 6170 563d
000000f0: a499 f73d 3038 a53e 40e8 95be 0ecc c43e
00000100: e1e6 433e eeb9 1fbe aadd 54bd 67c7 5d3e
00000110: 779c b1bd 1cce 13bd 6fc0 1ebe 4e90 94bd
00000120: 8fdd 14bf 3a75 7cbe d32e 673d eb74 f9bd
00000130: ed39 85bd e02c 13bf 3836 1abf d3c5 ebbc
00000140: e8db 743e 574b 783f 0354 c5bc 4f05 c13e
00000150: d53d 7a3e fab9 263f 3b9c 033f 514e d2bc
00000160: 3da4 56be 11dd 663d 61b4 26be 3240 cf3e
00000170: e389 45be 9b63 d6be 1f2f 4dbf 0d3e 3c3f
00000180: 8e57 9d3d 2773 283f 5b60 a1bd d760 873e
00000190: b129 b3bb 2af9 853e 9dc9 19bf 7519 e4bd
000001a0: 712b 433e 342d 82be e9ff 16bd 2435 aa3d
000001b0: d334 10be f6f3 17bd 30f1 12bd fe46 bc3e
000001c0: eb11 3cbd d04e 35be 69e6 87bd 8577 1dbd
000001d0: 828d 273d a32c 2d3e 3c85 e5be 212f 043d
000001e0: 99a0 793d 3f54 5b3f d66e 6d3c 3e75 183e
000001f0: cb36 9cbd cc4e 9cbd f4ab 45be 455a 1bbe
00000200: 524d a7be e24c 803c 37b8 19be e3f8 12be
00000210: be59 933d e62e c03d 1241 6dbe d5f2 b23c
00000220: 62a9 9b3e 77ab 603f 87c4 b8be ad0d 4cbe
00000230: 9056 80be a6a6 35be bbf4 13be ddcd ae3d
00000240: 986a 6e3d ade2 aa3c 5bba 51bd bd26 a6be
00000250: 4067 6c3d 070c a1bc 3d33 863f 7bb8 0a3f
00000260: 383b f7bd ca37 743e 6a26 073e 5744 803e
00000270: 1bba 87bd 7387 ea3d b406 1b3e 1d74 b5bd
00000280: 9c19 2f3f 83d9 05bf da48 04bd c697 e93b
00000290: 4903 8dbe e512 84be 146f be3d 1578 923e
000002a0: ecfb 6f3e f0b7 393f 48cb 11bd 4d93 0f3e
000002b0: 8947 673d 71b9 d2be 2570 8e3d 6a9e 9ebe
000002c0: aec7 973e c473 32be bbaf 97bd 4617 01bd
000002d0: c6ba d5bd ddea 663e 4576 393e cf92 9e3e
000002e0: 89eb 55be 527a 6f3f f732 16bd 004c 573d
000002f0: 6174 193e 2ba5 a6bf 43e3 79bf 7e3c 5d3d
00000300: 362d 663e e7df c7bd 30ae 9cbe 2dbb a7bd
00000310: 8fe5 00bd b72c 423f 2e31 edbe ce85 93be
00000320: 8526 47bd 7aa0 aebd 328a abbd 2f9f 2c3d
00000330: 9ead 1e3e 8ddb e9be 45ed 323e c8f1 103f
00000340: 2d00 91bf 9e6c eebd c286 cfbe 1cbf c13e
00000350: fd76 0f3f 3804 333e e145 47be bbb2 55bf
00000360: 7b6a 2fbe 15e3 9abe 5b6a 283d 5226 353d
00000370: 70cc 10bc 42c8 4fbd 9551 313f c195 d03e
00000380: 6c0e d53d 30b9 1d3e 1d70 623e eee9 cfbd
00000390: fdb1 563d f2dc ccbe 9272 43bf 1c96 54bb
000003a0: 377d d3be 283d debe 3ccf d0bd a5f0 e43e
000003b0: c914 ee3e 5ef3 a33e 827d cd3e 562d b4be
000003c0: 6687 363e b7ce cfbe 7014 373e cc73 cf3e
000003d0: e86b 45be 18e6 3d3e 321f 86be 498f cbbe
000003e0: c46f 6fbe 23af b7be 4a72 2f3d ea09 d6bd
000003f0: 4cee 0fbc fd37 a43d 6249 a73d 11ee 3ebd

bn_logits.weight f4 [6]
5.4691753 0.6448161 0.64844483 0.647381 5.0238733 0.64685607
00000000: 7c03 af40 ab12 253f 7b00 263f c3ba 253f
00000010: 92c3 a040 5c98 253f

bn_logits.bias f4 [6]
3.8800619 -3.518664 -3.5137572 -3.5160458 -0.92156243 -3.5146327
00000000: ef52 7840 ca31 61c0 66e1 60c0 e506 61c0
00000010: 84eb 6bbf beef 60c0

bn_logits.running_mean f4 [6]
-0.014621383 0.027229268 0.02736055 0.02727342 -0.0071150097 0.02724554
00000000: 868e 6fbc ea0f df3c 3b23 e03c 826c df3c
00000010: 0725 e9bb 0a32 df3c

bn_logits.running_var f4 [6]
0.007774716 0.00014966888 0.00015451771 0.00015238722 0.006460498 0.00015140774
00000000: 0bc3 fe3b 6ff0 1c39 0806 2239 22ca 1f39
00000010: 96b2 d33b 35c3 1e39

fc1.weight f4 [4, 18]
0.1935535 -0.032717682 -0.22422256 -0.13207857 -0.046403177 0.22555377 -0.02073338 0.17427307
0.18771257 -0.16082019 -0.16535288 -0.106044024 0.010746139 0.10188122 -0.21943916 -0.094933696
0.34164602 -0.22711968 0.3453995 -0.21576564 0.03140175 -0.33323163 0.2174892 -0.19928218
-0.23670328 0.18023835 0.31904286 -0.175262 0.2958426 -0.19666499 0.014770343 -0.021603042
0.43039405 -0.23085497 0.1057801 -0.24211814 0.291724 -0.11405039 -0.084879465 -0.39840376
0.15106796 0.09685918 -0.2434621 0.083244964 0.19431563 -0.25174034 0.19012578 -0.0035863167
-0.1317342 0.14668594 -0.26225054 -0.24441785 -0.033687603 -0.09725026 -0.17993681 0.1719289
0.20769124 0.10655175 -0.017910479 -0.040234502 0.07428883 -0.068888396 -0.09687595 0.21647625
0.08492478 0.11066261 0.020198252 0.18782125 0.26550722 -0.0058224946 -0.09768597 0.24068536
00000000: e432 463e fa02 06bd 999a 65be 9b3f 07be
00000010: 4211 3ebd 91f7 663e 0dd9 a9bc a474 323e
00000020: b937 403e 0cae 24be 4452 29be 9c2d d9bd
00000030: 9310 303c 1aa7 d03d a9b4 60be 996c c2bd
00000040: 3aec ae3e 1092 68be 34d8 b03e abf1 5cbe
00000050: 1f9f 003d 569d aabe 7db5 5e3e a110 4cbe
00000060: 5862 72be 6790 383e 9659 a33e e277 33be
00000070: ae78 973e 8c62 49be 4fff 713c ddf8 b0bc
00000080: 9c5c dc3e 3f65 6cbe 3da3 d83d d1ed 77be
00000090: d95c 953e 4093 e9bd 49d5 adbd 94fb cbbe
000000a0: 8fb1 1a3e 1b5e c63d 214e 79be 567c aa3d
000000b0: adfa 463e 1ce4 80be 55b0 423e 6908 6bbb
000000c0: 55e5 06be d734 163e b445 86be ac48 7abe
000000d0: 03fc 09bd 252b c7bd 5b41 38be 210e 303e
000000e0: 03ad 543e ce37 da3d ffb8 92bc efcc 24bd
000000f0: be24 983d 5c15 8dbd e666 c6bd f3ab 5d3e
00000100: 0bed ad3d 14a3 e23d ce76 a53c 3754 403e
00000110: 90f0 873e a0ca bebb 950f c8bd 3976 763e

fc1.bias f4 [4]
0.10655735 -0.09216461 0.09935302 0.0122040035
00000000: bd3a da3d cdc0 bcbd 9979 cb3d 4df3 473c

conv3.weight f4 [4, 1, 3, 4]
0.01296883 -0.0043201293 0.15427043 0.120593 -0.108759485 0.15841286 -0.13218784 0.07860126
-0.09437021 0.20432878 -0.08009495 0.061631225 -0.55212265 0.237789 -0.18285938 -0.3113739
-0.32638836 0.32216212 -0.20829739 -0.13972972 -0.3452664 -0.2754324 -0.50224364 0.08858435
-0.015535646 0.06981347 0.055745218 0.14457229 -0.29658177 -0.20408244 0.1861152 -0.22271776
0.09464932 0.06786329 0.19242392 0.15674932 -0.11808784 -0.23186384 0.0140759805 0.19918391
-0.26827168 -0.069178596 -0.16395767 0.3115385 -0.17939092 -0.13616885 -0.01739831 0.26201013
00000000: 377b 543c df8f 8dbb 11f9 1d3e 76f9 f63d
00000010: 4bbd debd fb36 223e 405c 07be b3f9 a03d
00000020: 2b45 c1bd 903b 513e d208 a4bd 0671 7c3d
00000030: e957 0dbf f67e 733e 7d3f 3bbe 666c 9fbe
00000040: 601c a7be 6ff2 a43e e94b 55be 4f15 0fbe
00000050: c2c6 b0be 7a05 8dbe 0a93 00bf b66b b53d
00000060: 3989 7ebc 5dfa 8e3d 1955 643d c20a 143e
00000070: 91d9 97be fdfa 50be fc94 3e3e 2010 64be
00000080: 81d7 c13d e9fb 8a3d c70a 453e e582 203e
00000090: 0ad8 f1bd b76d 6dbe f19e 663c def6 4b3e
000000a0: e85a 89be 82ad 8dbd 85e4 27be f981 9f3e
000000b0: 41b2 37be d96f 0bbe e786 8ebc 3126 863e

conv3.bias f4 [4]
0.2207552 -0.17619002 -0.051292393 0.035621334
00000000: a70d 623e 286b 34be f917 52bd ade7 113d

conv4.weight f4 [4, 1, 4, 4]
0.06639104 0.039249934 -0.15492797 0.023887688 -0.19030313 -0.0435479 -0.17608954 0.101315744
0.14322159 -0.007519648 -0.14859784 0.16222124 0.17088537 -0.024192788 0.057138093 0.1758443
-0.004848138 -0.26850486 -0.36360538 0.17784242 -0.25247696 -0.39542356 -0.18588352 0.09271862
-0.17202766 -0.40594655 0.025639664 0.23277852 -0.07834715 -0.2630858 -0.3263224 0.2676246
0.08028078 -0.029664276 0.1835114 0.14060155 0.106593646 0.020225517 0.031881355 0.03551799
-0.08790426 -0.07186105 0.09035926 0.015941892 -0.11217402 -0.11942998 0.024739265 -0.22099742
-0.0441191 -0.26638636 -0.34176624 0.03514156 0.1070942 -0.25573492 -0.056798212 0.12225797
0.013087975 -0.29005593 0.08993088 -0.2874806 0.0951272 -0.11795652 -0.12590991 -0.32720506
00000000: 07f8 873d 8ac4 203d 70a5 1ebe 1db0 c33c
00000010: d3de 42be 485f 32bd d150 34be a17e cf3d
00000020: aea8 123e 6167 f6bb 082a 18be 531d 263e
00000030: 93fc 2e3e f42f c6bc a209 6a3d 8710 343e
00000040: 21dd 9ebb 7879 89be 7c2a babe 531c 363e
00000050: a944 81be f574 cabe 4058 3ebe 43e3 bd3d
00000060: 0528 30be 3ad8 cfbe 460a d23c 7e5d 6e3e
00000070: 7874 a0bd 2fb3 86be bb13 a7be 1706 893e
00000080: 406a a43d 7f02 f3bc 6aea 3b3e daf9 0f3e
00000090: c54d da3d fcaf a53c 0696 023d 507b 113d
000000a0: 2607 b4bd e32b 93bd 470e b93d 9298 823c
000000b0: 7ebb e5bd b597 f4bd 00aa ca3c 264d 62be
000000c0: 3bb6 34bd cb63 88be fcfb aebe 99f0 0f3d
000000d0: 3454 db3d b0ef 82be 3ea5 68bd 6362 fa3d
000000e0: f26e 563c 3682 94be ae2d b83d a830 93be
000000f0: 0dd2 c23d 3093 f1bd 87ee 00be 6c87 a7be

conv4.bias f4 [4]
0.23764306 -0.06260049 -0.035474222 -0.10704428
00000000: b458 733e b034 80bd 6b4d 11bd 083a dbbd

conv5.weight f4 [4, 1, 5, 4]
-0.15934058 -0.07457274 -0.106248364 0.13113084 -0.2371595 -0.39743662 -0.077938505 0.14390345
-0.22384675 -0.27176413 -0.13143495 0.17707954 -0.103556156 -0.23259729 -0.22163104 0.18154669
-0.09181359 -0.1680563 -0.28485546 0.115178436 -0.18019335 -0.07957158 -0.426804 -0.21837729
0.007482184 -0.24955945 -0.2571447 -0.23344721 -0.13113374 -0.15746145 0.20362109 0.124138854
0.105948195 0.102167055 -0.029894061 -0.22602953 0.10356454 -0.02001175 -0.28669295 0.20269366
-0.19632412 -0.2534088 -0.18381448 0.025369791 -0.09916699 -0.27437636 -0.20904782 0.0293592
-0.096790545 -0.3322663 -0.06537299 0.13073291 -0.0032284388 -0.24034262 -0.1638167 0.0831465
0.07702874 -0.097277336 -0.31161493 0.009140518 0.12902018 -0.13988495 0.13132365 -0.077713095
0.052661415 -0.09605702 -0.18865554 0.1013099 -0.19486319 0.1135125 0.08326611 -0.071157776
0.30694056 0.1480217 -0.1266294 -0.013948611 0.06394923 0.0079144705 -0.11114061 0.19602558
00000000: 2d2a 23be 98b9 98bd be98 d9bd 2a47 063e
00000010: f1d9 72be d07c cbbe 399e 9fbd 6d5b 133e
00000020: 1538 65be ab24 8bbe e296 06be 5754 353e
00000030: 4015 d4bd fc2d 6ebe 3ff3 62be 60e7 393e
00000040: c308 bcbd f316 2cbe 93d8 91be ace2 eb3d
00000050: 9b84 38be 6df6 a2bd 0e86 dabe 4c9e 5fbe
00000060: 1c2d f53b 838c 7fbe 78a8 83be c90c 6fbe
00000070: ec47 06be 933d 21be 0c82 503e 833c fe3d
00000080: 5efb d83d f63c d13d 64e4 f4bc 4974 67be
00000090: a519 d43d aeef a3bc 6bc9 92be ed8e 4f3e
000000a0: 3109 49be ccbe 81be dd39 3cbe 4fd4 cf3c
000000b0: 1018 cbbd 0f7b 8cbe a210 56be b482 f03c
000000c0: 1f3a c6bd cf1e aabe 46e2 85bd d9de 053e
000000d0: 3794 53bb 601c 76be 91bf 27be b648 aa3d
000000e0: 3ec1 9d3d 5739 c7bd fe8b 9fbe 1cc2 153c
000000f0: de1d 043e 003e 0fbe b579 063e 0b28 9fbd
00000100: 7fb3 573d 8bb9 c4bd eb2e 41be 917b cf3d
00000110: 378a 47be 3e79 e83d 6c87 aa3d 2bbb 91bd
00000120: 5027 9d3e 0093 173e 23ab 01be b788 64bc
00000130: d0f7 823d b2ab 013c b09d e3bd eeba 483e

conv5.bias f4 [4]
0.19291873 -0.14171517 0.26154006 -0.06849203
00000000: 7d8c 453e c81d 11be 94e8 853e 8d45 8cbd

fc2.weight f4 [6, 72]
0.020177938 0.080754586 0.08575507 -0.011495311 -0.1147272 -0.05449279 -0.10680886 -0.018388087
-0.09027967 -0.18342286 -0.19585228 -0.24870381 -0.2547725 -0.30076867 0.038916145 0.08591182
0.06549654 0.013522652 0.045061216 0.0024940013 0.00084938057 -0.07893995 -0.058946803 0.057503752
0.086669266 0.06695177 -0.049560778 -0.12393263 0.06550571 0.016554538 0.023604404 0.06471284
0.032521278 0.09780122 0.23402654 0.22689646 0.11573444 0.20772883 0.272261 0.13314128
0.053760152 0.055213623 -0.013943884 -0.01896852 4.0798222e-05 0.049011987 -0.44096863 -0.307289
-0.13072221 -0.13222936 -0.07343822 -0.01042934 -0.22088838 -0.112552516 -0.14602166 -0.1640388
-0.2572768 0.29870218 0.19098452 0.21691583 0.1574209 0.13780957 -0.12940924 -0.026115842
-0.06617216 -0.088167205 -0.064416915 -0.015392831 -0.045668494 -0.09201373 -0.07080534 -0.029280713
0.023429755 0.06330809 0.06549182 7.8593715e-05 -0.0723571 -0.03799969 -0.066461675 0.0047850013
0.0067196735 -0.004000966 -0.01416742 -0.0068000495 0.0074010678 -0.0051622847 0.024420716 0.062149014
0.04959009 0.01678891 0.032128885 -9.846288e-05 0.0008561004 -0.014294878 -0.07861617 -0.078312054
-0.07526227 -0.017401146 -0.044153903 -0.024014264 0.03896006 0.014103995 0.0191685 0.04390059
0.024007034 0.057004422 0.023808852 0.019094627 -0.0026312072 -0.043835558 0.003989267 0.041045
0.020119652 0.036184203 -0.007236133 -0.014747259 -0.0015815052 0.02680576 0.037332736 0.010815147
0.045494292 -0.013056162 0.0049653566 -0.035591204 0.109308146 0.031647637 0.055910636 0.06771733
0.048914485 -0.00981338 0.039950814 0.027658517 0.008524086 -0.0031795672 -0.014831114 -0.056204148
-0.009693418 -0.022448635 -0.09093855 -0.008224973 -0.02909501 -0.053108968 -0.05845299 -0.008981456
0.023081962 0.06404666 0.06605017 -0.0005892976 -0.07322945 -0.03903492 -0.06757297 0.004505576
0.00673689 -0.0034690802 -0.013576629 -0.006881952 0.007842312 -0.0046277377 0.02495317 0.06324952
0.050055493 0.017416004 0.032735374 -0.00013775291 0.00075926376 -0.01452562 -0.08451565 -0.08466187
-0.080083266 -0.021348609 -0.04511197 -0.024180053 0.039552853 0.014774128 0.020662008 0.04504207
0.024353627 0.05786284 0.023444936 0.020772211 -0.003673165 -0.04908748 0.003770949 0.040166516
0.021165423 0.037146553 -0.0066676084 -0.0145933 -0.0014347347 0.027135717 0.038435094 0.010275086
0.050442647 -0.011361239 0.00537745 -0.03317239 0.114645205 0.036524072 0.072882384 0.07216571
0.05147258 -0.010590027 0.03972882 0.025689522 0.00891528 -0.0040353127 -0.015260448 -0.06128759
-0.017337305 -0.028119335 -0.09344537 -0.00853536 -0.029923145 -0.05451146 -0.059619997 -0.009329716
0.02320315 0.063848376 0.06572445 -8.562705e-05 -0.07315901 -0.038629334 -0.06688529 0.0042883563
0.006616543 -0.0038437995 -0.01445358 -0.006429662 0.0077513657 -0.0050906446 0.024841337 0.062780105
0.049867567 0.01705274 0.032445654 -3.38901e-05 0.00061720645 -0.013805749 -0.08075665 -0.083126195
-0.07772906 -0.0187988 -0.047017727 -0.024235222 0.039032623 0.014359501 0.019746564 0.044559028
0.024338853 0.057728224 0.02335524 0.021453766 -0.004589081 -0.04588625 0.0028000707 0.040647894
00000000: 344c a53c a962 a53d 5ba0 af3d d456 3cbc
00000010: 18f6 eabd d533 5fbd 9bbe dabd 9da2 96bc
00000020: 8ce4 b8bd 34d3 3bbe 808d 48be 36ac 7ebe
00000030: 8b71 82be 5afe 99be 8966 1f3d 89f2 af3d
00000040: 0d23 863d 1d8e 5d3c 1c92 383d 6672 233b
00000050: f7a8 5e3a 45ab a1bd 3472 71bd 0e89 6b3d
00000060: a87f b13d 021e 893d 3e00 4bbd 64d0 fdbd
00000070: dc27 863d 629d 873c 065e c13c 2a88 843d
00000080: 0835 053d 024c c83d a7a4 6f3e 8c57 683e
00000090: 2e06 ed3d deb6 543e cb65 8b3e 3056 083e
000000a0: 9b33 5c3d ae27 623d e374 64bc df63 9bbc
000000b0: c21e 2b38 cbc0 483d a4c6 e1be fc54 9dbe
000000c0: 0bdc 05be 2267 07be c766 96bd d3df 2abc
000000d0: 9030 62be ef81 e6bd b486 15be caf9 27be
000000e0: c9b9 83be 7eef 983e 7291 433e 2f1f 5e3e
000000f0: f232 213e f41d 0d3e db83 04be e4f0 d5bc
00000100: 4585 87bd 0291 b4bd 04ed 83bd 3632 7cbc
00000110: e30e 3bbd b271 bcbd 6402 91bd 1bde efbc
00000120: c2ef bf3c aca7 813d 9320 863d aed2 a438
00000130: f62f 94bd 90a5 1bbd 0f1d 88bd 80cb 9c3b
00000140: b530 dc3b 891a 83bb 771e 68bc f3d2 debb
00000150: a884 f23b 6228 a9bb f40d c83c f78f 7e3d
00000160: fa1e 4b3d e588 893c 9499 033d db7d ceb8
00000170: ed6b 603a 1035 6abc 8401 a1bd 1262 a0bd
00000180: 1b23 9abd d98c 8ebc b9da 34bd 90b9 c4bc
00000190: 9594 1f3d 7114 673c 4207 9d3c 1bd1 333d
000001a0: 66aa c43c 787d 693d c80a c33c 566c 9c3c
000001b0: 5570 2cbb ea8c 33bd 66b8 823b cd1e 283d
000001c0: f8d1 a43c e335 143d 151d edbb 7d9e 71bc
000001d0: 824a cfba c197 db3c 36ea 183d 0432 313c
000001e0: 3958 3a3d 83e9 55bc 6eb4 a23b 15c8 11bd
000001f0: f3dc df3d f4a0 013d 8d02 653d 62af 8a3d
00000200: 8e5a 483d 4dc8 20bc 77a3 233d 1d94 e23c
00000210: 9ca8 0b3c 4960 50bb 33fe 72bc 5236 66bd
00000220: 24d1 1ebc 33e6 b7bc fe3d babd 0ac2 06bc
00000230: a958 eebc ca88 59bd 676c 6fbd f526 13bc
00000240: 6216 bd3c e52a 833d 5045 873d 187b 1aba
00000250: 52f9 95bd 15e3 1fbd b363 8abd 83a3 933b
00000260: 21c1 dc3b 8259 63bb 8270 5ebc ff81 e1bb
00000270: 0a7d 003c 47a4 97bb 976a cc3c f788 813d
00000280: fd06 4d3d 02ac 8e3c 8715 063d c471 10b9
00000290: 5409 473a defc 6dbc 8b16 adbd 3463 adbd
000002a0: b202 a4bd 47e3 aebc 54c7 38bd 3f15 c6bc
000002b0: 2c02 223d 2f0f 723c 5f43 a93c 097e 383d
000002c0: 4281 c73c 9601 6d3d 980f c03c 7c2a aa3c
000002d0: 7cb9 70bb f40f 49bd 0722 773b a585 243d
000002e0: 1c63 ad3c fc26 183d f47b dabb bd18 6fbc
000002f0: b50d bcba b94b de3c 1e6e 1d3d d658 283c
00000300: f39c 4e3d 7d24 3abc 5235 b03b c6df 07bd
00000310: 1bcb ea3d 449a 153d 5c43 953d 9ecb 933d
00000320: e9d4 523d cb81 2dbc b0ba 223d d572 d23c
00000330: 6511 123c a83a 84bb f506 7abc b208 7bbd
00000340: f706 8ebc 855a e6bc 4960 bfbd e5d7 0bbc
00000350: 6221 f5bc 6947 5fbd 1934 74bd aadb 18bc
00000360: 8814 be3c f0c2 823d 8a9a 863d ac92 b3b8
00000370: 64d4 95bd cb39 1ebd 28fb 88bd 5785 8c3b
00000380: 96cf d83b 41e8 7bbb b5ce 6cbc eaaf d2bb
00000390: 2bff fd3b 6ccf a6bb 0f80 cb3c db92 803d
000003a0: ef41 4c3d 30b2 8b3c bce5 043d 3825 0eb8
000003b0: 06cc 213a 8231 62bc be63 a5bd 113e aabd
000003c0: 6a30 9fbd f1ff 99bc a995 40bd f288 c6bc
000003d0: ace0 1f3d 1d44 6b3c 8cc3 a13c 8783 363d
000003e0: 4662 c73c 6e74 6c3d 7d53 bf3c cfbf af3c
000003f0: 0060 96bb 38f3 3bbd 6481 373b 687e 263d

fc2.bias f4 [6]
-0.000104171064 -8.187749e-07 1.0874609e-06 2.4762685e-06 8.856087e-05 -9.559804e-06
00000000: 6a76 dab8 c8c9 5bb5 dff4 9135 f82d 2636
00000010: c1b9 b938 0c63 20b7
