emulation/models/checkpoint/cnn/best_TextCNN1_ustc-tfc2016.pth (torch, 154005 bytes, 16 tensors)

len_embedding.weight f4 [1501, 10]
0	0xbf916117	-1.1357754
1	0x3da42f5c	0.080168456
2	0xbd0421f9	-0.03225896
3	0xbe362c1e	-0.17790267
4	0xbd0fc8e5	-0.035103697
5	0x3ea9467d	0.3306159
6	0x3ec9cfb0	0.39416265
7	0xbbc69d8c	-0.0060612615
8	0x3fcc9f8c	1.598619
9	0x3fafe8c9	1.3742915
10	0x3f070200	0.52737427
11	0x3e27e370	0.16395354
12	0x3f08e14c	0.53468776
13	0xbf6b1902	-0.91835034
14	0x3eb13850	0.34613276
15	0xbd84814d	-0.06469975
16	0xbcd243d9	-0.025667118
17	0x350dcf81	5.282855e-07
18	0x3eac2623	0.33622846
19	0xb8eeb7eb	-0.00011382982
20	0x3f04d188	0.5188222
21	0xbcfb870c	-0.030704044
22	0x3db16d8a	0.08663471
23	0x3eead519	0.45865706
24	0x3f364591	0.711999
25	0x3fbaa124	1.4580426
26	0xbd0a75de	-0.033803813
27	0xbabb5b9a	-0.0014294267
28	0xac3291e9	-2.5376318e-12
29	0x3ccaeb44	0.024770387
30	0x2bfd2f97	1.798994e-12
31	0x3ee0733b	0.43837914
32	0x3fcb5789	1.5886089
33	0x3e8c73de	0.2743215
34	0xbda842fd	-0.08215902
35	0xbb5ad683	-0.003339202
36	0xbf1637d8	-0.5867896
37	0x3f0a000f	0.5390634
38	0xb48f212b	-2.6659959e-07
39	0xbec1882a	-0.37799197
40	0xbe06a242	-0.13147834
41	0x29ec9289	1.0505925e-13
42	0xbe818886	-0.25299472
43	0x3ead5bad	0.33859006
44	0x3f966ba4	1.1751599
45	0xbe386d38	-0.18010414
46	0xbfbcc09b	-1.4746279
47	0x3ecbe18f	0.39820525
48	0x3df30fb3	0.11868229
49	0x3fb24652	1.392771
50	0x3ed2013e	0.41016573
51	0xbf4caf2d	-0.799548
52	0x38fd0414	0.0001206474
53	0xbe83da59	-0.25752524
54	0x3eb1ead5	0.34749475
55	0xbf3c18f7	-0.73475593
56	0x3e80c40d	0.25149575
57	0x3f624ba0	0.88396645
58	0x3d8f83cd	0.07007561
59	0x3eb87d47	0.3603308
60	0x3d3827ca	0.04495982
61	0xb00188d9	-4.71244e-10
62	0xbf5abbdc	-0.854429
63	0x3f8c8746	1.0978782
64	0xa876c604	-1.3698681e-14
65	0xbe8d4042	-0.27588087
66	0xbd7584bd	-0.059941042
67	0x38e32add	0.000108321874
68	0x3d86fde7	0.06591397
69	0xa99a226e	-6.8449464e-14
70	0xbd26431c	-0.040591344
71	0x3ee777bd	0.4520854
72	0xad6e00fd	-1.3528953e-11
73	0xbef348cd	-0.4751648
74	0x3fa8fa29	1.3201343
75	0xbfbc176d	-1.4694649
76	0x3f933bf1	1.1502668
77	0x3f9916ad	1.1960045
78	0xbde0f35a	-0.109839156
79	0xb311415c	-3.3819887e-08
80	0x3f34a4e9	0.7056413
81	0x3fe3342e	1.7750299
82	0xbfb48345	-1.410256
83	0xbff29e20	-1.8954506
84	0x39d083ed	0.00039771144
85	0x3ef1cb59	0.47225454
86	0xbeb06df3	-0.34458885
87	0xbfa6d275	-1.3032976
88	0xbe9121cb	-0.28346094
89	0x3f04b87a	0.5184399
90	0x3d214a36	0.039377414
91	0xbe436e4f	-0.19085048
92	0x3d79c82e	0.06098192
93	0x3e301da8	0.17198813
94	0x3f7bff6d	0.98436624
95	0xba72fb09	-0.00092689745
96	0x2eae5f10	7.9294904e-11
97	0x3db0d443	0.08634236
98	0x3e8488c4	0.25885594
99	0x3d70c0b7	0.058777537
100	0xbec3eeca	-0.3826812
101	0x3e81b6b3	0.253347
102	0x3fc2c020	1.5214882
103	0xbe8d995f	-0.27656075
104	0xaf74fa89	-2.2280679e-10
105	0xbe7a31e3	-0.24433093
106	0xbfd30f8b	-1.6489118
107	0x3e8f1a92	0.2794996
108	0xbd2de33c	-0.042453036
109	0x3f4a58ea	0.7904192
110	0x29b08acd	7.840048e-14
111	0xbf637f00	-0.8886566
112	0x3f83780f	1.0271014
113	0xa8c0de0e	-2.1412583e-14
114	0xbf037be4	-0.5136092
115	0x3d96cf86	0.07363801
116	0x3eec9338	0.4620607
117	0x3ed17753	0.4091135
118	0x3eb792f2	0.35854298
119	0xb6aa5202	-5.0759418e-06
120	0xbe209262	-0.1568084
121	0xbe29649c	-0.16542286
122	0xbf869765	-1.0514952
123	0x3f2e2ba8	0.68035364
124	0xbf26fe09	-0.65231377
125	0xb1ec40e7	-6.8758825e-09
126	0x3f651ff8	0.89501905
127	0x33fd16c8	1.17853745e-07
128	0x3c93bf21	0.018035473
129	0xabb1ac84	-1.2624489e-12
130	0x3ddf6a2e	0.10908924
131	0x3e61ff34	0.22070009
132	0xbc002058	-0.007820211
133	0xbf539a0d	-0.8265694
134	0xbec74696	-0.3892104
135	0x3ebbbe3e	0.3666858
136	0x33efa1a9	1.11587106e-07
137	0xbe263f9a	-0.162352
138	0x3c80cc8d	0.015722537
139	0xb0a90f83	-1.2300777e-09
140	0xbd5fd672	-0.05464787
141	0xc016f259	-2.3585417
142	0xbe55fa8c	-0.20896357
143	0x3ec7b2ca	0.39003593
144	0x3ea1d9ee	0.3161158
145	0xb19f609a	-4.6384914e-09
146	0xbc8ebf93	-0.017425334
147	0xbeb83d6a	-0.35984355
148	0x308797d9	9.8657e-10
149	0x3fab4b87	1.3382424
150	0x3f41adc1	0.7565575
151	0x3f45f9ac	0.77334094
152	0xbe4c8230	-0.19971538
153	0xbfde9f18	-1.7392302
154	0x2ead1895	7.871496e-11
155	0x3dabe94f	0.083941095
156	0x3f8f7a17	1.1209134
157	0x3f86853a	1.0509408
158	0x2aced656	3.6741676e-13
159	0xbd22c8b6	-0.039742194
160	0x3f190b35	0.59782726
161	0x3c036ae1	0.008021087
162	0xbf8a3eda	-1.0800431
163	0xbd04c411	-0.032413546
164	0x3d886c46	0.066612765
165	0xbad9c059	-0.001661311
166	0xbee25b8a	-0.44210464
167	0x3eed2191	0.46314672
168	0x3d662d75	0.056195695
169	0x3f2ca56d	0.6743992
170	0xbe24b54c	-0.16084784
171	0x3e18a7b0	0.14907718
172	0x3f771e63	0.9653074
173	0xbf974171	-1.1816846
174	0xa87c55e7	-1.4007437e-14
175	0x3f2fe0bf	0.6870231
176	0x3f95667d	1.1671902
177	0xb7e957c8	-2.781664e-05
178	0x2e3053b4	4.009211e-11
179	0xbf85e4df	-1.0460471
180	0x3f88bf33	1.0683349
181	0x3ce4ee18	0.027945563
182	0x3eb64139	0.35596636
183	0x3fb53c6f	1.4159068
184	0x3d499974	0.04921861
185	0xbd8b7ace	-0.068105325
186	0xbed30985	-0.412182
187	0x3fa876a6	1.3161209
188	0x3ef4f238	0.47841048
189	0xbe1b09da	-0.15140477
190	0x3cc0a4c8	0.023516074
191	0xbf47c985	-0.7804187
192	0xa57925f0	-2.1610161e-16
193	0xbc929cce	-0.017897036
194	0x3ed11d21	0.40842536
195	0x3f1980e0	0.5996227
196	0x3f068b3c	0.52556205
197	0xbf826f39	-1.0190192
198	0xbf89b05d	-1.0756947
199	0xbf5e835d	-0.86919194
200	0xbf8f4060	-1.1191521
201	0x3d76de6f	0.060270723
202	0x2965ecb5	5.1053525e-14
203	0x3ce0fbf9	0.0274639
204	0xbaa197c3	-0.0012328554
205	0xb93d92a9	-0.0001807908
206	0xbb6ab533	-0.003581357
207	0x3d6addbe	0.057340376
208	0xbf24b836	-0.64343584
209	0x2b128cff	5.206529e-13
210	0x3e0779e2	0.13230088
211	0x3e924867	0.28570864
212	0xbf0daa50	-0.55338
213	0x3d93d6fd	0.0721874
214	0x2b2484a4	5.844858e-13
215	0xbec665eb	-0.38749632
216	0x3fa26e30	1.2689877
217	0xbf85680f	-1.0422381
218	0xb993afe2	-0.00028169068
219	0x3e356d70	0.17717528
220	0x3cd7d024	0.026344366
221	0x3df41ffb	0.11920162
222	0xb5b10076	-1.3187662e-06
223	0xbe604e35	-0.21904834
224	0x3bab2207	0.0052225622
225	0xbf444921	-0.76674086
226	0x3f3ff3df	0.7498149
227	0xab941333	-1.0521361e-12
228	0x3fe139c7	1.7595757
229	0x2ab6c103	3.2463623e-13
230	0x38f14e0d	0.000115063136
231	0x3de6482f	0.11244237
232	0x283bf947	1.0434639e-14
233	0x3e8ee95b	0.2791241
234	0xbd7135cb	-0.05888919
235	0x3b93392d	0.0044929
236	0xbf06e5bb	-0.5269429
237	0x3f65e45e	0.89801586
238	0x3feae672	1.8351576
239	0x3f401e20	0.7504597
240	0x3f1be6ec	0.60899234
241	0xbecdec60	-0.40219402
242	0xbe94890d	-0.2901081
243	0xbeee3899	-0.46527556
244	0x3ee53fe8	0.4477532
245	0xb4b2026e	-3.3156851e-07
246	0xbef18a13	-0.47175655
247	0xc02b190f	-2.6734045
248	0x2a56765c	1.9048082e-13
249	0xbf4b84a4	-0.7949927
250	0x3acccac0	0.0015624389
251	0xbf104516	-0.56355417
252	0xbfb69a54	-1.4265847
253	0x3e6f51bd	0.23371024
254	0xbe117b13	-0.14207105
255	0xbda12661	-0.07868648

ipd_embedding.weight f4 [2561, 8]
0	0xbf1eab23	-0.61979884
1	0x3f7ee5ec	0.9956958
2	0xbed1154b	-0.40836558
3	0xbf15a0de	-0.5844859
4	0x3efa9ce7	0.48947832
5	0xbffe4780	-1.986557
6	0xbe11a166	-0.14221725
7	0xbe367b27	-0.17820416
8	0x3f70ec7d	0.9411085
9	0x3f49c066	0.788092
10	0xbf186320	-0.5952625
11	0xbf967d11	-1.1756917
12	0x3e08d56f	0.13362668
13	0x3fb97cf9	1.4491264
14	0x3e0a8db1	0.13530613
15	0xbee4293f	-0.44562718
16	0xbf8dc26e	-1.107496
17	0xbebb26ee	-0.36553138
18	0x3f8021b1	1.0010282
19	0x3f8562e6	1.0420806
20	0x3e88902f	0.26672503
21	0xbf3ed20c	-0.74539256
22	0xbe2b249b	-0.16713183
23	0x3c8f58a8	0.01749833
24	0x3ec9cc61	0.3941374
25	0xbf969ae2	-1.1766016
26	0xbfad8d70	-1.3558788
27	0x3e90d3ee	0.2828669
28	0x3fcfdd0f	1.6239337
29	0x403bd8b3	2.9351013
30	0x3f906dc7	1.1283501
31	0x3f700e2d	0.9377163
32	0x3f18c22b	0.59671277
33	0xbe81a9ce	-0.25324863
34	0x3ecfd143	0.40589342
35	0x3ecbd424	0.39810288
36	0x3fa6c516	1.3028896
37	0xbd0b8e18	-0.034071058
38	0x3f091c69	0.53558975
39	0x3f722cc2	0.94599545
40	0x3fa269a2	1.2688487
41	0xbf52aee5	-0.8229812
42	0xbf082144	-0.5317576
43	0xbecf85b3	-0.40531692
44	0xbf7f27e1	-0.99670225
45	0xbf9cf76e	-1.226301
46	0xbe99d8b5	-0.30048147
47	0xbe91ad1b	-0.28452381
48	0xbe06d1b5	-0.13165934
49	0x3f06183a	0.52380717
50	0xbf00cc1f	-0.50311464
51	0xbfbc644f	-1.4718112
52	0x402076d6	2.5072532
53	0xbf98363c	-1.1891551
54	0x3fb5bc48	1.4198084
55	0xbecff48d	-0.40616265
56	0xbf6b2dcd	-0.9186676
57	0x3f44406a	0.7666079
58	0xbc67f33d	-0.014157114
59	0xbecc3f73	-0.39892158
60	0xc01bd7f8	-2.4350567
61	0xbdc7e823	-0.097610734
62	0xbed9e84d	-0.42560044
63	0xbd859801	-0.06523133
64	0xbfea2892	-1.8293631
65	0x3eb19819	0.34686354
66	0xbf726f9e	-0.94701564
67	0x3ff6bfe6	1.9277313
68	0xbf7b0d7d	-0.98067456
69	0x402ab483	2.6672676
70	0xbfa02a2a	-1.2512867
71	0xbf0e2c0e	-0.5553597
72	0xbfa172d1	-1.2613164
73	0xbe3239fd	-0.17404933
74	0x3ddc5df7	0.1076011
75	0x3fc25cc5	1.5184561
76	0xbf80ab34	-1.0052247
77	0xbfc8994e	-1.5671785
78	0xbfb8513f	-1.4399794
79	0xbf3efd5b	-0.7460534
80	0xbea01d23	-0.3127223
81	0x3fd856d9	1.6901504
82	0xc055e75a	-3.3422456
83	0xbdc8ff23	-0.098142885
84	0xbfe27f02	-1.769501
85	0xbfbbe41e	-1.4678991
86	0xbe8d1602	-0.27555853
87	0x3f297451	0.6619311
88	0x3fd3abfd	1.6536862
89	0xbf681a81	-0.9066544
90	0x3faab777	1.3337239
91	0x3fc13356	1.5093791
92	0xbef0abd0	-0.47006083
93	0xbe8153ee	-0.25259346
94	0x3f52a838	0.8228793
95	0x3f76e3ab	0.96441144
96	0x3e08778d	0.13326855
97	0x3e3157d1	0.17318656
98	0x3f625727	0.88414234
99	0x3fc45ce2	1.5340846
100	0xbe9c6186	-0.30543154
101	0x3deef250	0.11667311
102	0x404a050a	3.1565576
103	0x3fcb2991	1.587206
104	0x3f8455c8	1.0338678
105	0xbf12da08	-0.5736394
106	0x3e99cfa4	0.3004123
107	0x3e00f9f0	0.12595344
108	0x3ed0bb41	0.40767863
109	0xbf109c5a	-0.56488574
110	0x3ed3f377	0.41396686
111	0x3f65fd56	0.89839685
112	0xbf9eab8e	-1.2396104
113	0x3d0bc4de	0.034123294
114	0x3f3325cc	0.6997955
115	0x3fa02d8c	1.25139
116	0x3e90dc40	0.28293037
117	0xbfe4e159	-1.7881271
118	0xbe9c4190	-0.3051877
119	0x3f1afa30	0.60538006
120	0x3dbc5a98	0.09196967
121	0xbd2a92fa	-0.041644074
122	0xc008ab9f	-2.135475
123	0x3f9e2793	1.2355827
124	0xbf107275	-0.5642465
125	0xbf0557e9	-0.52087265
126	0xbec534b4	-0.38516772
127	0xbf23e537	-0.6402163
128	0xbe95e657	-0.29277298
129	0x3fb1fda6	1.3905532
130	0xbf2c2ffe	-0.6726073
131	0x3d6a19ed	0.05715363
132	0x3f43b565	0.7644866
133	0x3de08f85	0.10964874
134	0xbf27fe44	-0.65622354
135	0xbd8961de	-0.0670812
136	0xbfde41c8	-1.7363825
137	0xbf88f5b8	-1.0699987
138	0x3fa8b57f	1.3180388
139	0xbe620b5a	-0.22074643
140	0x3f0f9a53	0.56094855
141	0x3f956a69	1.1673099
142	0x3f2ae0c9	0.66749245
143	0xc003de5d	-2.060447
144	0x3f4d5329	0.8020502
145	0x4023522d	2.5518906
146	0xbfe9650c	-1.8233962
147	0xbe2ff808	-0.1718446
148	0x3fef0733	1.8674072
149	0x3f5619e1	0.8363324
150	0x3d0cecd7	0.034405556
151	0x3b7336fb	0.0037111628
152	0xbf344617	-0.7041945
153	0x3f28e4ca	0.65974104
154	0x3dffade2	0.124843374
155	0xbf843cf4	-1.0331101
156	0xbff25302	-1.8931582
157	0xbf953514	-1.1656823
158	0xbea084ae	-0.31351227
159	0xbf14e92d	-0.581683
160	0xbf9c77af	-1.2224025
161	0xbd86837e	-0.06568049
162	0x3d061683	0.032736313
163	0x3ebb265a	0.36552697
164	0x3f6bb3f3	0.92071456
165	0x3f01eac4	0.5074885
166	0xbf0182f0	-0.5059042
167	0xbd93f124	-0.07223728
168	0xbc68957e	-0.014195798
169	0x3f384161	0.7197476
170	0xbf087083	-0.5329668
171	0x3d70ebfe	0.05881881
172	0xbf96858a	-1.1759503
173	0xbdd66a4a	-0.10469492
174	0x3e871fb8	0.26391387
175	0x3eddd9d7	0.4333026
176	0xbdfb7c38	-0.12279552
177	0xbe1ea5ee	-0.15492985
178	0xbf8c96e5	-1.0983549
179	0x3fbbfdcf	1.4686831
180	0x3d8d3a03	0.068958305
181	0xbce6de5b	-0.0281822
182	0xbe96dc30	-0.29464865
183	0x3f836951	1.0266515
184	0x3fc53509	1.540681
185	0xbddafde8	-0.1069296
186	0xbf98f566	-1.194989
187	0xbce8e93d	-0.02843153
188	0x3d9f0ffb	0.0776672
189	0xbbdd689f	-0.0067568566
190	0xbe0e910b	-0.13922517
191	0x3f446d89	0.7672964
192	0x3f739a84	0.9515765
193	0xbda648ff	-0.08119392
194	0xbeb06b61	-0.34456924
195	0xbd2f1d46	-0.042752527
196	0xbdf68e95	-0.12038914
197	0xbef8430f	-0.48488662
198	0x3f49f74c	0.7889297
199	0x3f614104	0.8798983
200	0xbfeeb9e8	-1.8650484
201	0x3f3bfe1a	0.73434603
202	0xbd491b72	-0.04909844
203	0xbc899f3d	-0.016799564
204	0xbe682edc	-0.22674125
205	0x3ea5739f	0.32314774
206	0x3e4c1abe	0.19932076
207	0x3f512e13	0.8171093
208	0x3fad0c34	1.3519349
209	0x3c8ea1db	0.017411163
210	0xbe4a5a2e	-0.19760963
211	0xbe258554	-0.16164142
212	0xbfc91493	-1.5709404
213	0x3ec8e25d	0.392352
214	0x3f344bc5	0.70428115
215	0x3e61af5b	0.22039549
216	0x3e13724e	0.14399073
217	0x3e43e86f	0.19131635
218	0x3e9dbebf	0.3080959
219	0x3f1228b2	0.57093346
220	0xbf9c508a	-1.2212079
221	0xc01260e8	-2.2871647
222	0x3f4bc601	0.79599005
223	0xbfe502b4	-1.789145
224	0xbf962fb1	-1.1733304
225	0x3f02d2a8	0.51102686
226	0x3f8aff3e	1.0859144
227	0xbe1435dc	-0.1447367
228	0x3fe203d0	1.7657413
229	0xbe9cf8b9	-0.3065851
230	0xbf2d041e	-0.6758441
231	0xbda7e17d	-0.08197305
232	0xbfdba387	-1.715928
233	0xbe8f7570	-0.28019285
234	0x3f78f1dc	0.9724405
235	0xbfd1c31c	-1.6387668
236	0xbf0abe19	-0.54196316
237	0xbfc1fc4d	-1.5155121
238	0x3b07f0f4	0.0020742984
239	0x3fc099db	1.5046953
240	0x3eb8c2c4	0.36086094
241	0xbf8e163b	-1.1100534
242	0xbf8b2b56	-1.08726
243	0xbeb64f03	-0.35607156
244	0xbe14903b	-0.14508145
245	0x3e093a2f	0.13401102
246	0xbf2a1a00	-0.6644592
247	0x3ecb754b	0.39737925
248	0xbdcf8dc1	-0.10134459
249	0xbe856501	-0.26053622
250	0x3f71d323	0.94462794
251	0x3f2ba57c	0.67049384
252	0xbeaca0b7	-0.33716366
253	0xbf6966af	-0.9117231
254	0xbf83aaf9	-1.0286552
255	0xbf4823ab	-0.78179425

bn_logits.weight f4 [12]
0	0x3fc015d4	1.5006661
1	0x3f4db025	0.803469
2	0x3f4b60a0	0.79444313
3	0x3f4dcf6b	0.8039462
4	0x3f4c7160	0.79860497
5	0x3f4d0251	0.8008166
6	0x3f4c2070	0.79736996
7	0x3f4b3c0c	0.793885
8	0x3f515b8e	0.81780326
9	0x3fc2aa38	1.5208197
10	0x3f4cac84	0.7995074
11	0x3f4f3dbd	0.8095358

bn_logits.bias f4 [12]
0	0x3ee8deb2	0.45482403
1	0xbee894c5	-0.45426002
2	0xbee9ce3d	-0.4566516
3	0xbee6ca16	-0.45076054
4	0xbee78e81	-0.4522591
5	0xbee9fefa	-0.45702344
6	0xbee8ce10	-0.45469713
7	0xbeeb3f9d	-0.4594697
8	0xbee3ac8c	-0.4446758
9	0x3ed565ce	0.41679233
10	0xbee94e7c	-0.4556769
11	0xbee5a8c3	-0.44855317

bn_logits.running_mean f4 [12]
0	0x3e06fdda	0.13182774
1	0xbd9bcb32	-0.07607116
2	0xbd2dd322	-0.04243768
3	0xbe8cb955	-0.27485147
4	0xbda09d23	-0.078424715
5	0xbe393552	-0.18086746
6	0xbe93c563	-0.28861532
7	0xbd2807e0	-0.041023135
8	0xbdcdd690	-0.1005069
9	0xbe75b8f8	-0.23996341
10	0xbe725eb0	-0.23668933
11	0xbe3de2aa	-0.18543497

bn_logits.running_var f4 [12]
0	0x3ee4e089	0.44702557
1	0x3ec762ac	0.38942468
2	0x3ea27fd9	0.31738165
3	0x3e92a59e	0.2864198
4	0x3e96af7f	0.29430768
5	0x3ea3f1eb	0.32020506
6	0x3eeeeb0c	0.46663702
7	0x3ea3dd9d	0.32005015
8	0x3e9f0082	0.31055075
9	0x3ed78af8	0.42098212
10	0x3e8a6129	0.27027252
11	0x3e7285b6	0.23683819

fc1.weight f4 [4, 18]
0	0x3b9f768f	0.004866428
1	0xbdb19903	-0.08671763
2	0x3e176184	0.14783293
3	0x3e470a3f	0.19437502
4	0xbeb37206	-0.3504793
5	0x3e8d288a	0.2756999
6	0x3e095310	0.13410592
7	0x3d29b139	0.04142878
8	0xbe5139eb	-0.2043225
9	0x3dfa0f04	0.12209895
10	0xbdecfdc6	-0.11571841
11	0x3d562967	0.052285578
12	0xbc1bbf19	-0.00950601
13	0x3d2cddf9	0.042203877
14	0xbdad15e0	-0.08451438
15	0xbe02e46e	-0.12782452
16	0xbd5ff04e	-0.05467253
17	0xbe0fd732	-0.14046934
18	0xbe08bf00	-0.1335411
19	0x3e711e42	0.23546699
20	0x3de413a2	0.11136557
21	0x3e86f697	0.26360008
22	0xbe319d99	-0.17345275
23	0x3c09ac2e	0.008402867
24	0xbd371610	-0.044698775
25	0xbdc40492	-0.09571184
26	0x3e6707f9	0.22561635
27	0x3e3c6ee6	0.1840168
28	0xbdd7b154	-0.105318695
29	0xbd19a392	-0.03750951
30	0x3d925d4e	0.07146703
31	0xbdaf728a	-0.085667685
32	0xbddf83a9	-0.10913784
33	0xbe0a423a	-0.13501826
34	0x3da8a4d2	0.08234562
35	0xbda333de	-0.07968877
36	0x3c16214d	0.009163213
37	0x3e8f1e97	0.27953026
38	0xbe0cc08f	-0.1374533
39	0x3da35e2c	0.07976946
40	0x3e6b6660	0.22988272
41	0xbdbab3d5	-0.091163315
42	0x3d9b3a16	0.075794384
43	0x3d54a0df	0.05191123
44	0xbca17cd5	-0.019712845
45	0xbd4570db	-0.04820333
46	0xbdd02960	-0.10164142
47	0x3dfdf1b6	0.12399618
48	0xbcea5298	-0.028603837
49	0x3e15d7b8	0.14633071
50	0xbced23ff	-0.028947828
51	0xbdb3b34d	-0.08774433
52	0xbda3631f	-0.0797789
53	0xbe15f2f0	-0.14643455
54	0x3daa9a15	0.0833017
55	0x3da65e5f	0.081234686
56	0xbdcb1281	-0.09915639
57	0x3e1a86e9	0.15090527
58	0xbdb893cb	-0.09012564
59	0x3dd24864	0.10267714
60	0xbd84427e	-0.06457995
61	0x3c40aa6e	0.011759384
62	0x3e41d16b	0.18927543
63	0x3e53354a	0.20625797
64	0x3d2df82d	0.042473007
65	0xbdc6853a	-0.0969338
66	0xbce60143	-0.028076774
67	0xbc777e27	-0.015105761
68	0x3ccaf717	0.024776025
69	0x3e1c2660	0.15249014
70	0xbe1b4288	-0.15162098
71	0x3dbcd110	0.09219563

fc1.bias f4 [4]
0	0xbe064606	-0.1311265
1	0xbda2cb16	-0.07948892
2	0x3da78a22	0.081806436
3	0x3dd18539	0.10230488

conv3.weight f4 [4, 1, 3, 4]
0	0xbdd9b2c0	-0.10629797
1	0x3e2d8944	0.16946894
2	0xbe53ef59	-0.20696773
3	0xbe365a1c	-0.17807811
4	0xbcf7af16	-0.030234855
5	0x3d2728e1	0.04081047
6	0xbe44c95a	-0.19217435
7	0x3e7b1d24	0.24522835
8	0x3e61abc7	0.22038184
9	0x3e2ea184	0.17053801
10	0x3cc1e43b	0.0236684
11	0x3de2a927	0.110674195
12	0x3c337391	0.010952846
13	0xbe75e959	-0.24014796
14	0x3e0384eb	0.12843673
15	0x3ce4ce84	0.027930506
16	0x3e0be9d0	0.13663411
17	0xbe2416f9	-0.16024388
18	0xbde4232f	-0.11139523
19	0xbda79e74	-0.081845194
20	0xbb1bbb24	-0.0023762668
21	0x3e121b87	0.14268313
22	0x3de4c739	0.11170811
23	0x3d08342f	0.03325289
24	0x3e443b87	0.19163333
25	0xbe37d9c6	-0.17954168
26	0x3e907f56	0.2822215
27	0xbe8f7437	-0.28018352
28	0x3d8b20b2	0.067933455
29	0x3d3a6846	0.0455096
30	0x3e9458b2	0.2897392
31	0xbe89d968	-0.2692368
32	0x3d819733	0.06327667
33	0xbd5c0b3e	-0.05372166
34	0x3e43a66d	0.19106455
35	0x3dd76d9b	0.105189525
36	0x3c2e8cb7	0.010653666
37	0xbe53e750	-0.20693707
38	0xbe4f60af	-0.20251726
39	0xbd970968	-0.07374841
40	0xbe6ce70e	-0.23135015
41	0x3dbacb0e	0.09120761
42	0xbe320e77	-0.1738833
43	0x3d71cd33	0.059033584
44	0x3d55adc6	0.052167676
45	0xbe48c8ea	-0.19607893
46	0x3e121c36	0.14268574
47	0xbdfa90ef	-0.12234675

conv3.bias f4 [4]
0	0xbb8e25f2	-0.0043380195
1	0x3d80b978	0.06285375
2	0xbe2b4a38	-0.16727531
3	0xbe952085	-0.29126373

conv4.weight f4 [4, 1, 4, 4]
0	0x3e0942db	0.1340441
1	0xbda1e820	-0.079056025
2	0xbe3e6de3	-0.18596606
3	0x3e5da42b	0.21644656
4	0x3d803854	0.06260744
5	0xbe6a4881	-0.2287922
6	0xbd62b835	-0.055351455
7	0xbcb787d4	-0.022403635
8	0x3e251de9	0.16124691
9	0x3e51fff9	0.20507802
10	0x3e87b995	0.26508775
11	0x3da29fc7	0.07940631
12	0xbddd6440	-0.10810137
13	0x3e4148d9	0.18875445
14	0xbd233b2c	-0.039851353
15	0x3caf13e5	0.021371791
16	0xbe083a96	-0.13303599
17	0x3e4cda39	0.2000512
18	0x3e251d89	0.16124548
19	0x3c92d548	0.017923966
20	0xbe890d79	-0.2676809
21	0xbc08c778	-0.008348338
22	0x3eaad630	0.33366537
23	0xbd0466c3	-0.032324564
24	0xbdadbdad	-0.084834434
25	0x3db307b1	0.087417014
26	0x3de14102	0.109987274
27	0x3e1ac0af	0.15112565
28	0xbdbec1fb	-0.093143426
29	0xbdcc83e0	-0.09986091
30	0x3e550b3d	0.20805068
31	0xbe1a6dc4	-0.15080935
32	0xbe2e5f48	-0.17028534
33	0xbda3490d	-0.07972918
34	0x3d7d8986	0.06189873
35	0xbd7d77ba	-0.06188176
36	0xbe2d8600	-0.16945648
37	0xbe5ea255	-0.21741612
38	0xbc9a270a	-0.018817443
39	0x3c8e1194	0.017342366
40	0xbe038640	-0.12844181
41	0x3dfdf0bd	0.12399433
42	0x3c01a264	0.007912252
43	0x3e4ea66a	0.2018067
44	0xbe6ff569	-0.2343346
45	0xbd1de05e	-0.03854405
46	0xbc149f3d	-0.0090711685
47	0xbe2feb5e	-0.17179629
48	0x3ca796db	0.020457676
49	0xbd7797d4	-0.06044753
50	0xbd936386	-0.07196717
51	0x3c8d3a0b	0.017239591
52	0x3e5b6528	0.21425307
53	0xbe3e9aa0	-0.18613672
54	0xbe103b11	-0.14085032
55	0x3ce64c68	0.028112605
56	0xbe362d9c	-0.17790836
57	0x3dd2d038	0.10293621
58	0x3e7e522f	0.24836038
59	0x3e338366	0.17530593
60	0x3d751549	0.059834752
61	0x3e02455f	0.12721775
62	0xbe7bd83e	-0.24594209
63	0x3e0f24f3	0.13978939

conv4.bias f4 [4]
0	0xbe422c4a	-0.18962207
1	0x3e960f1d	0.29308406
2	0x3e83ac3d	0.25717345
3	0xbdae0dc6	-0.08498721

conv5.weight f4 [4, 1, 5, 4]
0	0x3daa69b1	0.0832094
1	0xbc5da23c	-0.013527449
2	0xbcf20d23	-0.02954728
3	0x3d3e0603	0.046392452
4	0xbcb6b940	-0.022305131
5	0xbe49b10b	-0.19696443
6	0x3e105f92	0.14098957
7	0xbdf1d4f3	-0.11808195
8	0x3d05c0dc	0.03265463
9	0xbe16f649	-0.14742388
10	0xbe4aef7d	-0.1981792
11	0xbe5421b2	-0.20715979
12	0x3ba13649	0.0049198014
13	0x3cf8278f	0.0302923
14	0xbc1614f0	-0.009160265
15	0xbd9f5661	-0.07780147
16	0x3e108362	0.14112619
17	0xbe54b2ae	-0.20771286
18	0xbdabf5b7	-0.08396476
19	0x3d27cbea	0.040965952
20	0xbdd2035c	-0.10254547
21	0xbe00f471	-0.12593247
22	0xbdc61d3e	-0.09673546
23	0x3db2ee20	0.08736825
24	0xbc9ab20a	-0.018883724
25	0x3e0c5400	0.13703918
26	0x3e5e1880	0.21689034
27	0x3d24f727	0.040274765
28	0x3e094176	0.13403878
29	0xbba522f6	-0.005039568
30	0xbd8f54f9	-0.06998629
31	0x3e2b5dab	0.1673495
32	0x3ccb4655	0.02481381
33	0xbe3676ea	-0.178188
34	0xbdf0bf1e	-0.11755203
35	0x3c05ab08	0.008158453
36	0x3d09e79d	0.03366815
37	0x3e7828b3	0.24234276
38	0x3e1bf94a	0.15231815
39	0x3e33b2ea	0.17548719
40	0xbe0024d4	-0.12514049
41	0xbc75ac38	-0.014994673
42	0xbdbae126	-0.09124975
43	0x3d322425	0.0434915
44	0x3e249a0c	0.16074389
45	0x3c1e1323	0.009648117
46	0xbdfb39b0	-0.122668624
47	0xbe1e9dd6	-0.15489897
48	0xbe0be514	-0.13661605
49	0xbd9dc3b7	-0.07703345
50	0x3e537cc6	0.20653066
51	0x3d7ff9b8	0.06249401
52	0x3e167807	0.14694224
53	0xbe3aee10	-0.18254876
54	0xbe57e810	-0.21084619
55	0x3de3d4fb	0.11124607
56	0x3dd3ab0a	0.103353575
57	0x3d8decdf	0.06929945
58	0x3e350cd0	0.17680669
59	0x3bc20313	0.0059207766
60	0x3c88d25c	0.01670187
61	0x3d2ad3c2	0.041705854
62	0x3a0d4a47	0.00053897913
63	0xbe7e0a41	-0.24808599
64	0x3d86390a	0.06553848
65	0xbe1efe0c	-0.15526599
66	0xbe17dd39	-0.14830483
67	0x3d874c5d	0.06606362
68	0xbdc4a0c2	-0.096009746
69	0xbe3fb35b	-0.18720762
70	0xbdf4a703	-0.119459175
71	0xbc500898	-0.012697361
72	0x3d8324c9	0.064035006
73	0xbe8087a2	-0.2510348
74	0x3de67367	0.1125248
75	0xbd6fd6f6	-0.058554612
76	0xbde102e8	-0.109868824
77	0x3c16df1b	0.009208466
78	0xbdd9b347	-0.106298976
79	0x3dc42f04	0.0957928

conv5.bias f4 [4]
0	0x3e611687	0.2198125
1	0xbd855046	-0.065094516
2	0xbdce774d	-0.100813486
3	0xbe1c4cc2	-0.15263656

fc2.weight f4 [12, 72]
0	0x3c82e3fc	0.015977852
1	0x3c6c3a22	0.014418157
2	0x3dbcfc7c	0.09227845
3	0xbd66bee5	-0.056334395
4	0x3cfe511b	0.031044533
5	0x3c766c5c	0.015040483
6	0xbd2e8e71	-0.04261631
7	0x3d58e052	0.052948304
8	0x3db1e460	0.08686137
9	0xbd8a7531	-0.06760634
10	0x3d1b06dc	0.03784834
11	0xbda9908a	-0.08279522
12	0xbe036e6f	-0.12835096
13	0x3d26ebfb	0.040752392
14	0x3d1af731	0.037833396
15	0x3d6ff4f1	0.058583204
16	0xbd49a31e	-0.049227826
17	0x3cfd9492	0.030954633
18	0xbd527ef5	-0.051390607
19	0xbcf50766	-0.029910754
20	0xbd394ce6	-0.04523935
21	0x3ba04b76	0.004891808
22	0xbce439a8	-0.027859524
23	0x3df572bc	0.119847745
24	0x3e0b9e44	0.13634592
25	0x3dc5e97b	0.096636735
26	0x3dbd2524	0.092356
27	0xbd108c41	-0.035290007
28	0x3d22209e	0.039581887
29	0xbd498f2b	-0.0492088
30	0x3ae74b57	0.0017646354
31	0xbd464091	-0.04840142
32	0xbd5700c6	-0.052490972
33	0x3c9d9720	0.019237101
34	0xbd10ff17	-0.035399523
35	0xbe05153b	-0.1299638
36	0xbdc4a7ae	-0.09602295
37	0xbd32c751	-0.043647114
38	0xbdafb5c1	-0.08579589
39	0xbe3e15b7	-0.18562971
40	0xbd2a908f	-0.041641768
41	0xbce853d3	-0.028360283
42	0xbdf6a605	-0.120433845
43	0xbd9c8170	-0.07641876
44	0xbcdbccbe	-0.026831027
45	0xbc88521d	-0.016640717
46	0x3db0af8b	0.08627232
47	0x3d6daf86	0.05802872
48	0x3e092e3c	0.13396543
49	0x3e053af4	0.1301077
50	0x3d8cac44	0.068687946
51	0xbc0caf9c	-0.00858679
52	0xbd019870	-0.031639516
53	0x3dab7079	0.08371062
54	0x3dc23b2c	0.094839424
55	0x3d4318fb	0.047631245
56	0x3e09d5c2	0.13460448
57	0x3cf36759	0.029712366
58	0xbd7e4266	-0.06207504
59	0x3ca1407b	0.019684067
60	0xbca4d086	-0.020118963
61	0xbd315eea	-0.043303408
62	0x3d12b878	0.035820454
63	0x3dfbe85b	0.12300178
64	0x3d2d6c03	0.042339336
65	0xbb864a31	-0.0040982
66	0x3d40f6ad	0.04711025
67	0x3deb8c29	0.11501343
68	0xbc5950d1	-0.013263897
69	0xbd5e8480	-0.05432558
70	0x3c207fa0	0.009796053
71	0xbd586a75	-0.0528359
72	0x3e0c4b7f	0.13700674
73	0xbab0a4fd	-0.0013476905
74	0x3d900d4c	0.07033786
75	0xbdae4d38	-0.08510822
76	0xbc5dcab8	-0.013537101
77	0xbb88b2cc	-0.004171705
78	0xbbc21c40	-0.005923778
79	0x3d95f877	0.073227815
80	0xbd8a8757	-0.06764095
81	0xbdeaea06	-0.11470418
82	0x3dcc4018	0.099731624
83	0xbda2307c	-0.07919404
84	0x3d3a4db5	0.045484263
85	0x3d636f11	0.055525843
86	0x3c441108	0.011966951
87	0xbd1c6c1b	-0.038189035
88	0x3bd18257	0.0063937115
89	0x3dae557e	0.085124
90	0xbce9ff28	-0.02856405
91	0x3e1716c2	0.14754775
92	0x3d8c9c84	0.068657905
93	0x3c0bbee3	0.008529398
94	0x3d6ca337	0.05777284
95	0xbcd35b48	-0.025800362
96	0x3d58a8d9	0.0528954
97	0xbcec8836	-0.028873544
98	0xbd2bf8ef	-0.04198545
99	0xbdc2c58d	-0.09510336
100	0xbd3be539	-0.0458729
101	0x3d8e9c9f	0.06963467
102	0x3dc306b1	0.09522761
103	0xbd860efc	-0.06545827
104	0x3df7250c	0.12067613
105	0xbc7c799b	-0.015409852
106	0x3e348fb6	0.17632946
107	0x3d12c686	0.035833858
108	0x3cd9bfc0	0.026580691
109	0xbce30100	-0.027710438
110	0x3e4f25c0	0.20229244
111	0x3dba7157	0.09103649
112	0x3d64fff0	0.055908144
113	0x3c9d4545	0.01919807
114	0x3ddb8d31	0.107202895
115	0x3d9712d7	0.0737664
116	0x3dc6ff97	0.09716719
117	0x3bb46787	0.0055055055
118	0xbcec3d62	-0.028837863
119	0xbc8a6a56	-0.016896408
120	0xbc8f845e	-0.017519172
121	0x3cb81edc	0.022475652
122	0x39b3be72	0.00034283433
123	0xbca030e3	-0.019554561
124	0xbd529619	-0.051412676
125	0xbda4f387	-0.08054262
126	0xbd9f020e	-0.07764064
127	0xbd5a054b	-0.053227704
128	0xbe13da45	-0.14438732
129	0x3b37f9f7	0.0028072575
130	0xbd58ac8e	-0.052898936
131	0x3dc5ec87	0.09664255
132	0x3d125817	0.03572854
133	0x3d729c8b	0.059231322
134	0xbd4b93e2	-0.04970158
135	0x3d5f0b22	0.054453976
136	0xbe0c2d97	-0.13689266
137	0xbd5a249c	-0.05325757
138	0x3cac8dd1	0.021063717
139	0x3d25cf62	0.04048098
140	0xbe18c3a1	-0.14918377
141	0xbd5f8f8d	-0.05458026
142	0xbd02fb62	-0.03197802
143	0xbd4d4fcd	-0.050124932
144	0x3d9c36de	0.076276526
145	0x3bd3115a	0.0064412775
146	0x3da80ccc	0.08205566
147	0xbd25e972	-0.040505834
148	0x3d818399	0.063239284
149	0x3d77d2b6	0.060503684
150	0x3c905a33	0.017621135
151	0xbc42916b	-0.011875491
152	0xbd168758	-0.036750168
153	0x3d6c9877	0.05776259
154	0x3cbdf0b6	0.023186069
155	0x3c2e1bdd	0.01062676
156	0xbd18cf5c	-0.03730713
157	0xbc0afc99	-0.008483076
158	0xbdc4e4ea	-0.096139744
159	0x3cff5bb2	0.031171653
160	0x3c317ac5	0.010832493
161	0xbd1d9a3d	-0.03847717
162	0x3d9a1f6d	0.07525525
163	0x3a87b51f	0.0010353661
164	0x3d0aaae9	0.0338544
165	0xbd741ad2	-0.05959589
166	0x3da07a54	0.07835832
167	0xbc8dc1c7	-0.017304314
168	0xbbaf410d	-0.005348331
169	0x3d88ad1d	0.06673644
170	0xbd82cb28	-0.06386405
171	0xbdfb20d5	-0.122621216
172	0x3d94d3c2	0.07266952
173	0x3bf66634	0.007519508
174	0xbc646af9	-0.01394152
175	0xbdc8c7fb	-0.09803768
176	0x3d1f05cd	0.03882389
177	0x3d4db7c7	0.05022409
178	0x3e09d886	0.13461503
179	0x3d1d3b2c	0.03838651
180	0x3e50ada2	0.20378736
181	0xbd52b984	-0.051446453
182	0x3e27d9db	0.16391699
183	0x3d735591	0.059407774
184	0x3dac838f	0.0842353
185	0x3b87a118	0.004139077
186	0x3b8bd5ee	0.0042674458
187	0x3d38e11c	0.045136556
188	0x3d354fb6	0.04426547
189	0x3d75d761	0.060019854
190	0xbdf20080	-0.118165016
191	0x3de7ceb5	0.11318723
192	0xbc77f30f	-0.015133633
193	0x3cd7efe3	0.026359504
194	0xbd6a48d5	-0.057198364
195	0xbdd4ca60	-0.103901625
196	0xbdd8ca7d	-0.105854966
197	0xbd985bd5	-0.074393906
198	0xbc9ab3f1	-0.01888463
199	0xbe462249	-0.19349016
200	0x3c5a106b	0.013309578
201	0xbd4fc0b7	-0.050720897
202	0xbca9a0b9	-0.020706521
203	0x3dc7cc07	0.09755712
204	0xbdc31281	-0.09525014
205	0x3ddfb28c	0.10922727
206	0x3c0c8d1b	0.008578564
207	0xbd05e389	-0.032687698
208	0xbcfcf2a4	-0.030877419
209	0xbe259efe	-0.16173932
210	0x3de7f242	0.11325504
211	0x38ee4d4b	0.00011363121
212	0xbc26d528	-0.010182656
213	0x3d194615	0.03742035
214	0xbdbcdf3d	-0.09222267
215	0x3a7f2dbf	0.0009734295
216	0xbd2498c4	-0.04018475
217	0x3c9458e7	0.018108798
218	0xbc132240	-0.008980334
219	0xbd943191	-0.072360165
220	0x3dc6320d	0.09677515
221	0x3c73fb38	0.014891438
222	0x3d0f4bf1	0.034984533
223	0x3bc53228	0.006017942
224	0xbd75fa47	-0.060053136
225	0x3d542abb	0.051798563
226	0x3d900c45	0.0703359
227	0xbda84f10	-0.08218205
228	0xbd863902	-0.06553842
229	0x3d748dba	0.059705473
230	0xbddf3532	-0.10898818
231	0xbd1376e6	-0.036002062
232	0x3d53bf3d	0.05169605
233	0x3d74d1d9	0.05977044
234	0xbd75eb20	-0.060038686
235	0x3e1a1b49	0.15049471
236	0xbbedd901	-0.007258535
237	0xbd183452	-0.03715927
238	0x3dafc6ec	0.08582863
239	0x3c99ca62	0.018773261
240	0xbd47668b	-0.048681777
241	0x3b68558f	0.0035451388
242	0x3ce21896	0.027599614
243	0xbde89c72	-0.113579646
244	0x3dcf43c5	0.10120348
245	0x3dd521ef	0.10406863
246	0x3d27b587	0.040944602
247	0xbe1a6deb	-0.15080993
248	0x3dc48c4a	0.095970705
249	0xbd4d234a	-0.050082482
250	0x3d84521f	0.06460976
251	0xbc969d60	-0.01838559
252	0x3e316b3d	0.17326064
253	0xbcc0fcf3	-0.023558116
254	0x3dda05cd	0.10645638
255	0x3de376de	0.111066565

fc2.bias f4 [12]
0	0x390741a3	0.00012899055
1	0x37e8595f	2.7698172e-05
2	0xb5ce93cc	-1.5391211e-06
3	0x381e27a3	3.770705e-05
4	0x384b480d	4.8466074e-05
5	0x36aa6ca2	5.0790413e-06
6	0xb861a529	-5.3797998e-05
7	0xb7a1c652	-1.9285046e-05
8	0xb8391b99	-4.413314e-05
9	0xb9a09846	-0.0003063103
10	0xb863b1dc	-5.4286662e-05
11	0x398ea328	0.00027205911
